CS237B_Win25_HW3-main/policies/intersection_right_ILDIST.pt (torch, 22332 bytes, 6 tensors)

fc1.weight f4 [64, 5]
000000 68 89 6e 3e 43 c9 72 be 26 63 86 3c b1 a4 4d be
       0.23294604 -0.23709588 0.0164047 -0.20082356
000010 11 01 8d 3e ad 87 87 bd 32 83 a6 bc bf 0e ac 3e
       0.27539876 -0.06617675 -0.02032623 0.33605
000020 de 7d bc 3c 1e 56 bf 3d af d1 cb bc f6 b8 ce 3c
       0.023009237 0.093425974 -0.024880258 0.02523468
000030 4e 94 df 3d 6c 7d 98 3c 57 46 a0 bc 28 be 48 3e
       0.10916959 0.018614493 -0.01956479 0.19603789
000040 e2 a5 c3 bd bc c2 04 3e a9 90 b3 3d 6b 31 34 3e
       -0.09553124 0.1296491 0.08767826 0.17596976
000050 11 18 83 3e 1b 24 99 be ce c4 aa bd bc 66 c3 3e
       0.256043 -0.2991036 -0.08338319 0.38164318
000060 2f 4d 27 be 99 4e 99 bc 37 3c 1b 3d d0 22 22 3e
       -0.16338037 -0.018714236 0.037899222 0.15833592
000070 30 12 01 bd 23 2c 3f bd 35 34 f5 3d 3e 6c 51 3e
       -0.031511486 -0.04667295 0.11972848 0.20451447
000080 02 d7 05 3f 0e e0 09 be 14 2c 57 be 73 c9 7b 3e
       0.522812 -0.13464376 -0.21012908 0.24588566
000090 09 4d 1c bc 9b 79 6a 3c 74 f4 cb bd 32 e9 18 be
       -0.009539851 0.01431122 -0.09958735 -0.14932707
0000a0 56 da 48 3e 29 b4 21 bd 93 1d b6 bd d1 c1 4a be
       0.19614539 -0.039478455 -0.088923596 -0.19800498
0000b0 d1 98 2e bd e1 8c 88 3e 54 7b 12 3e 02 38 71 bd
       -0.042626206 0.26669982 0.14304858 -0.058891304
0000c0 18 45 42 bd 3c 21 4a 3e 31 ce 30 3e 33 a4 13 3e
       -0.047429174 0.1973924 0.17266156 0.14418106
0000d0 45 89 59 bc 78 05 81 3d fc a9 88 3d ec f2 b5 bd
       -0.0132773565 0.06299871 0.06673047 -0.08884224
0000e0 1b 35 90 bc 55 31 7b bb 3c bb fa bd f8 2f 83 be
       -0.017603448 -0.0038328965 -0.122427434 -0.25622535
0000f0 5f 09 3d be 09 4d b4 bd 49 ee 23 be 48 77 48 be
       -0.18460606 -0.08803756 -0.16008867 -0.19576752
000100 7a 8d 86 be 5e b8 ac 3d 8f 9b 86 3e d0 f3 91 3e
       -0.26279813 0.08433603 0.26290557 0.28506327
000110 ae 8b 8f 3e 5d 2b 2d 3e ac 08 81 3d 57 7e 9c 3e
       0.28036255 0.16911073 0.06300482 0.3056514
000120 d4 5d 47 3c 99 5b a7 be 3d 84 9b be 6a d4 e6 3d
       0.012168366 -0.3268707 -0.30374327 0.112709835
000130 7f 47 e6 bd f7 97 9a 3d a9 b7 d3 3c ef a8 69 3e
       -0.112441055 0.07548516 0.025844412 0.2281835
000140 d4 55 e4 bd e7 f1 77 3d 90 84 94 be 8c 4b de 3d
       -0.11149183 0.06053343 -0.29007387 0.10854253
000150 a3 ba f4 bd 03 e1 95 bb 71 c5 77 3e d3 b2 47 3d
       -0.11949661 -0.0045739426 0.24196412 0.048754524
000160 7d 1e 92 bd 01 c1 16 3e a7 41 01 be cd a1 7e be
       -0.071347214 0.14722063 -0.126227 -0.2486641
000170 0d 18 2f 3d ca 3a 26 3e eb b2 18 be 97 5e 74 be
       0.042747546 0.16233364 -0.14912002 -0.23864208
000180 b1 06 a5 3c 4e 61 ba 3d 45 ad fd 3d 84 ce 24 be
       0.020144792 0.09100591 0.12386564 -0.16094404
000190 52 39 6e be fc 2d 4b 3c f9 5a 62 be 51 80 bb 3b
       -0.23264053 0.0124011 -0.22105016 0.0057220836
0001a0 8d 9f ff bd 14 c5 74 3e 13 b7 21 3e d2 1b 36 bd
       -0.12481604 0.23903304 0.15792494 -0.044460125
0001b0 3e ff 12 3d b6 f3 9a 3d 80 d1 d7 3d de 90 51 bd
       0.03588795 0.075660154 0.10538006 -0.051163547
0001c0 98 68 d6 be 61 cf 92 3b 91 a4 92 3c 09 e3 9c 3d
       -0.41876674 0.004480288 0.017900737 0.07660491
0001d0 1e 7d a1 3e 9b 28 33 bd 82 27 8b 3e e9 89 98 3a
       0.3154077 -0.043739896 0.2717858 0.001163778
0001e0 bf ce 90 be 0c b8 58 bb c2 c4 36 be 5f 26 9c 3d
       -0.28282735 -0.0033068685 -0.17848495 0.07624506
0001f0 25 28 84 be 00 10 a0 bd 8a 67 17 bd 7c ac ed bd
       -0.25811878 -0.07815552 -0.036963977 -0.116051644
000200 15 11 8f be eb 57 8c be ea 4d 1c 3d 2d 8c 40 be
       -0.2794272 -0.27410826 0.038160242 -0.18803473
000210 93 36 c5 bd 15 82 aa bd 7e 6b c3 bc f9 bc 98 3c
       -0.0962955 -0.083255924 -0.023854967 0.018644797
000220 a4 58 b5 bd f0 ca f0 3b 72 e3 7d bc 4b 49 5f 3d
       -0.088547975 0.007348411 -0.015496122 0.054513257
000230 29 a8 70 3e 48 f1 06 3e 18 e2 b5 3c 82 8f fc 3c
       0.23501648 0.13177979 0.022202536 0.030830149
000240 bb fa 53 3e 5b ae 3e 3e 28 92 e1 bc 6a 5a 03 3e
       0.20701115 0.18621199 -0.027535513 0.12827459
000250 29 94 b8 bd bb f2 b2 3d 1f 9d 48 3e 0f 2c ac bd
       -0.09012634 0.087377034 0.19591187 -0.08406841
000260 b6 59 9e 3d 2f ac 38 3e 5d 93 3e 3e 87 59 ab 3c
       0.07731955 0.18034433 0.18610902 0.020916713
000270 03 c6 57 be f2 c7 e8 3c 7e 0d 92 3c 3a a4 50 3e
       -0.21071629 0.028415654 0.0178287 0.20375147
000280 f8 a0 26 3c 7e da 2d 3e c2 09 ed 3e 7d 01 63 be
       0.010170214 0.1697788 0.46296507 -0.22168536
000290 f6 10 1b be 8b 2e 48 3a 80 6e 31 bc 01 dd dc be
       -0.15143189 0.000763633 -0.010829568 -0.43137363
0002a0 5c ab f0 3c 74 c1 4b 3c a4 69 16 be 83 18 7d be
       0.029378586 0.01243626 -0.14688736 -0.24716382
0002b0 47 af 80 bd 7d 57 76 be 62 98 96 3d 57 b7 5f be
       -0.062834315 -0.24056812 0.073532835 -0.21847282
0002c0 93 a3 83 3e 2a 6a 00 be 26 fc 11 bd 97 53 85 be
       0.25710735 -0.12540498 -0.035640858 -0.26040336
0002d0 54 7a 7f bd e0 e3 23 bd b0 56 f4 be 91 ef 03 3d
       -0.06237252 -0.04001224 -0.47722387 0.03221089
0002e0 7f 29 4a 3e e0 ed 5c 3e e9 54 d8 3d 3c 79 de 3d
       0.19742392 0.21575117 0.1056307 0.10862967
0002f0 00 54 6d 3d ae 29 e5 bb 49 25 f2 bd e0 ec 08 be
       0.057941437 -0.006993494 -0.11823518 -0.1337161
000300 c8 f5 25 be c2 ae 96 be 2a 8f 24 bd fa 39 91 3e
       -0.1620704 -0.29430205 -0.040175594 0.28364545
000310 59 aa b4 3d 7e 79 ec 3d c9 3c f5 3c d2 5c 03 3d
       0.08821554 0.1154661 0.029936211 0.032070942
000320 cb 76 11 be a5 1a e3 3e c3 5c 25 3d 2c b0 a0 3b
       -0.14205472 0.44356266 0.040371668 0.004903814
000330 52 96 ce 3d 59 67 1f be a0 f3 1c be ed 58 33 be
       0.10087265 -0.15566768 -0.1532731 -0.17514391
000340 ec db 91 be da ad 86 3d 43 7d 45 3e 09 f5 b0 bd
       -0.284881 0.06576128 0.19286065 -0.08640487
000350 8b 5d 63 be 32 4c 9f 3d 97 ec a0 be 84 42 4f 3e
       -0.22203653 0.07778205 -0.31430504 0.20240217
000360 7a cf 7f 3e 92 14 06 3e a3 bc 41 bd b3 c9 76 3b
       0.2498149 0.13093784 -0.04729904 0.0037656843
000370 67 c2 05 be b1 d2 3f 3d e7 23 64 3e d1 c7 0b be
       -0.1306244 0.04683179 0.2227932 -0.13650443
000380 64 5c a3 3c 99 33 03 3e e6 56 f5 3d da 55 8a 3e
       0.019941516 0.12812652 0.11979465 0.27018625
000390 31 63 d9 bd d8 8a 3f 3e 30 ea 8b be b5 62 51 3e
       -0.106146224 0.18705308 -0.27327108 0.2044781
0003a0 37 a2 8b 3e f4 c3 16 be f3 7f 80 be f3 a7 b2 bc
       0.27272198 -0.14723188 -0.25097618 -0.0218086
0003b0 0b bc 77 be d1 9e f9 bd 02 d4 93 bd 15 8e 76 3e
       -0.24192826 -0.12188495 -0.07218172 0.24077637
0003c0 1e ea 57 be 5f 16 a6 3d 20 4f 45 be 16 67 93 3e
       -0.21085402 0.08109736 -0.19268465 0.28789586
0003d0 a5 87 63 be 35 97 2e 3e 6d 3d 8d bd 6f be aa 3e
       -0.22219713 0.17049868 -0.06896482 0.33348414
0003e0 fc b2 d5 bd e7 1c 5d be 2e 4e d9 bd ba 8a 8c be
       -0.10434529 -0.21593057 -0.10610615 -0.2744959
0003f0 38 0b f2 bd 9d 91 d1 3d 03 0c 13 be 0a ce 09 be
       -0.11818546 0.10232852 -0.14360051 -0.13457504

fc1.bias f4 [64]
000000 00 00 00 00 a4 99 06 bb 69 16 ce 3d 00 00 00 00
       0.0 -0.0020538354 0.10062868 0.0
000010 c3 29 19 be 35 af 26 3f 3e b2 34 bd 36 93 1f bd
       -0.14957337 0.65111095 -0.044115297 -0.03895875
000020 45 18 a2 ba 00 00 00 00 00 00 00 00 00 00 00 00
       -0.0012366852 0.0 0.0 0.0
000030 00 00 00 00 00 00 00 00 cc 7a 53 3b 00 00 00 00
       0.0 0.0 0.0032269238 0.0
000040 98 9c 35 bd e9 7c b2 3d 00 00 00 00 00 00 00 00
       -0.044338793 0.08715231 0.0 0.0
000050 00 00 00 00 00 00 00 00 f6 15 53 be 50 67 8d 3d
       0.0 0.0 -0.20613846 0.06904471
000060 00 00 00 00 00 00 00 00 81 f9 28 bd ea 70 10 3e
       0.0 0.0 -0.04125357 0.14105573
000070 00 00 00 00 00 00 00 00 00 00 00 00 dd 17 87 bf
       0.0 0.0 0.0 -1.0554157
000080 2e f9 b4 bd a2 3f 52 3d d3 92 d1 3c 00 00 00 00
       -0.0883659 0.051330216 0.025582707 0.0
000090 dc 42 08 3f 00 00 00 00 d3 dd a5 bc 00 00 00 00
       0.5322702 0.0 -0.020247376 0.0
0000a0 f6 d6 84 bd 1c f4 75 bc dd 30 1e bd 00 00 00 00
       -0.06486313 -0.0150118135 -0.03862082 0.0
0000b0 15 26 81 3e 00 00 00 00 00 00 00 00 46 5f 66 3f
       0.25224367 0.0 0.0 0.89989126
0000c0 00 00 00 00 56 39 51 3d 00 00 00 00 b1 ec 34 3d
       0.0 0.05108007 0.0 0.04417104
0000d0 bc 45 02 bd a4 50 74 bd 00 00 00 00 00 00 00 00
       -0.031804785 -0.059647217 0.0 0.0
0000e0 b8 37 00 3e ca 0e 70 bb 00 00 00 00 ad 79 51 bc
       0.12521255 -0.0036629909 0.0 -0.012785357
0000f0 c6 3a 42 3c f4 af b2 3e 69 b1 de bd f9 d0 7b be
       0.011854833 0.34899867 -0.10873682 -0.24591435

fc2.weight f4 [64, 64]
000000 b5 b4 28 be a0 dd 91 bd 02 f1 1e 3e 35 db 18 3b
       -0.16475184 -0.0712235 0.15521625 0.0023324017
000010 69 87 ff bd 27 4c f5 bd 78 04 af bb 54 50 13 be
       -0.12476999 -0.119774155 -0.005341109 -0.14386111
000020 64 7e 17 3c 82 88 3c 3e a9 7c dc bd 3a 31 4c 3e
       0.0092464425 0.18411449 -0.107659645 0.19940653
000030 86 6e 26 3e 8e 22 48 3e 59 dd 4e be 28 25 fb ba
       0.16253099 0.19544432 -0.20201625 -0.0019160854
000040 03 6d 86 3d cf 49 51 be eb 79 8f 3d f5 38 e3 bd
       0.06563761 -0.20438312 0.07005676 -0.11094848
000050 d7 44 db bd cc 3b 24 bd 75 79 d6 bd ab f3 b9 bd
       -0.107064895 -0.04009609 -0.10472385 -0.09079679
000060 fe d4 14 3e 73 be f3 bd 08 08 97 bd f9 2d da bd
       0.14534375 -0.1190156 -0.07374579 -0.106533
000070 ef e5 d6 3d cd 6f 87 bd 62 e5 4b 3d 7f c0 93 3d
       0.10493075 -0.06613121 0.049779303 0.0721445
000080 c0 3f 1e 3e 41 57 e9 bd 79 7a af bb 65 9d b2 3b
       0.15454006 -0.113935955 -0.005355176 0.005450892
000090 fe 2c 3c be d3 8e bb bd 3f 74 14 be a5 d6 1c be
       -0.18376538 -0.09158101 -0.1449747 -0.15316255
0000a0 10 7b 56 bd 6d fe 5b 3e bd f9 28 3e 3f c2 41 3e
       -0.052363455 0.21483774 0.16501518 0.18921755
0000b0 18 48 71 3d ff 9b e8 bd 4d c7 c7 3d 59 c0 26 3e
       0.058906645 -0.11357879 0.097548105 0.16284312
0000c0 47 82 32 be 0c a3 56 3b 64 44 c6 3c f5 b9 86 3b
       -0.1743251 0.0032750992 0.024202533 0.0041115233
0000d0 97 a4 29 bd f8 ef 0b bd 32 ad 53 be 20 80 16 3e
       -0.04141673 -0.0341644 -0.20671538 0.14697313
0000e0 14 82 38 3d 33 38 e9 bd 87 0e 3c 3e 1f 32 d5 3d
       0.045045927 -0.11387672 0.18364917 0.104099505
0000f0 96 fe 16 bd a6 17 56 3b f2 e4 1e 3d 80 ef de bc
       -0.036863886 0.0032667904 0.038792558 -0.027213812
000100 91 f1 8d be 3a dd d2 3d 6b cf 26 3e 77 e7 dd 3b
       -0.27723363 0.10296102 0.16290061 0.0067719775
000110 60 26 89 bc 75 cd 0b 3e 80 66 bd bd a9 4f 02 bd
       -0.016741931 0.13652594 -0.09248066 -0.03181425
000120 77 eb 5f ba b7 8c b7 3d 3d e2 22 be bf 8a e4 3d
       -0.0008541862 0.08962386 -0.15906616 0.11159276
000130 c3 08 bc bd 7b b2 51 be e1 36 ee bd ae 7d 21 bd
       -0.09181359 -0.20478241 -0.11631561 -0.039426498
000140 67 da f9 bd ec e9 7e be ae c7 84 bd 6b 52 4a 3e
       -0.1219986 -0.24893922 -0.064833984 0.19758002
000150 a8 09 42 3d 3f 0b a9 bc 78 5b 9e 3d 74 c3 cd bc
       0.04737249 -0.020635245 0.0773229 -0.025117613
000160 35 ae 53 39 85 cd 93 3e 05 58 f0 3d b0 da 94 3d
       0.00020187425 0.28867736 0.117355384 0.07268274
000170 79 82 8d be 41 a3 36 be 0f 1b 4b be 41 bf 4e 3e
       -0.27638605 -0.17835714 -0.19834541 0.20190145
000180 c6 ee c2 3c 31 ef 98 bd aa 76 f2 bd c5 4e 0a be
       0.023795497 -0.07467497 -0.118390396 -0.1350661
000190 36 ab 54 be ac 8e af bd 7b a5 36 3e cd 01 fd 3d
       -0.20768437 -0.085721344 0.17836563 0.12353859
0001a0 21 c3 03 3e df bf 10 bc 0b fc f7 bc 97 c4 10 bc
       0.12867405 -0.008834808 -0.03027155 -0.008835933
0001b0 0a 46 d9 3d 01 37 54 bb d2 80 53 bc dc c9 75 be
       0.10609062 -0.0032381418 -0.012909131 -0.24002784
0001c0 4a 5e f5 3d 33 10 fa 3c 9b eb 13 3d cd 75 bf 3d
       0.11980875 0.030525303 0.036113363 0.093486406
0001d0 f9 6a 6b 3e ca ca 82 bc 2b be a0 bd e0 c6 83 bd
       0.22990026 -0.015965838 -0.07848772 -0.06434417
0001e0 83 98 34 bd f5 ea 30 3d 8f 43 41 3d b4 9d c4 bd
       -0.04409076 0.043192822 0.04718357 -0.09600392
0001f0 7a 25 ca 3d 0a 2c 7a bd bb 83 2f be c6 05 2b 3c
       0.09870429 -0.061077155 -0.17140095 0.010438388
000200 01 2a 07 3e b5 20 a4 bd 21 37 08 be 3f 38 4b be
       0.13199617 -0.08014051 -0.1330228 -0.19845675
000210 51 13 74 bd 1c 5d 68 3c 99 db 11 be 27 7d 32 bd
       -0.059588734 0.014182355 -0.14243926 -0.043576386
000220 6c d6 f1 bd d7 56 32 be a5 a1 27 be 37 5a 53 3e
       -0.11808476 -0.1741594 -0.16370256 0.20639883
000230 65 d0 37 bd 85 0e 0d 3e 24 75 cd bc b1 16 34 be
       -0.044876475 0.1377507 -0.025080271 -0.17586781
000240 49 80 66 3e 87 b2 08 bc 29 9d 17 3d 10 56 eb bd
       0.22509874 -0.0083433455 0.037015114 -0.114910245
000250 77 96 51 3e f9 ba 8a 3d 55 24 17 be 28 98 df bd
       0.20467554 0.067739435 -0.14759953 -0.109176934
000260 49 fb 60 3e 10 c6 90 bd 41 cc 1c 3d d8 30 57 3e
       0.21970858 -0.070690274 0.03828073 0.21014726
000270 d9 0f 33 bd 4a bf eb bd 48 06 86 bc d1 be 3c 3d
       -0.043716285 -0.11511095 -0.016360417 0.046080414
000280 83 8b 62 3d a3 c0 00 be e1 13 09 be 59 2c 40 3d
       0.05530883 -0.12573485 -0.1338649 0.046917293
000290 f0 d0 64 3d 1b 14 30 be f7 f2 87 3d 65 06 e7 3d
       0.05586332 -0.1719517 0.06638139 0.112805165
0002a0 bf ea 91 3d a0 02 07 bc 7a 27 a4 3d 30 c8 d0 bd
       0.071248524 -0.008240372 0.08015342 -0.10194433
0002b0 c8 84 b9 bd 2a 92 b1 3d cf 2c 06 be 22 22 26 3e
       -0.09058529 0.08670457 -0.1310303 0.16223958
0002c0 7b 48 03 3d a5 90 14 3e 34 e9 73 3d 40 e1 a0 3d
       0.032051545 0.14508303 0.05954857 0.07855463
0002d0 27 09 17 be 7a 91 a8 3d 57 13 53 be 8f 05 17 3e
       -0.14749585 0.082308725 -0.20612846 0.14748214
0002e0 0e b5 3b bd c6 af cd 3c 2c 14 9e 3d 89 a1 81 3e
       -0.045826964 0.02510823 0.07718691 0.25318554
0002f0 c4 32 1b bd ea de 49 3e a9 b2 eb bd db f9 05 3e
       -0.03789021 0.19713941 -0.11508686 0.13083594
000300 41 9f 12 3e 3d 0e 81 bd 9c 68 cb 3d 94 a7 24 be
       0.14318563 -0.06301544 0.09932062 -0.16079551
000310 62 ac 06 3e 41 f8 34 3e da b0 18 be c8 ab bd 3d
       0.13151696 0.17672826 -0.14911214 0.0926128
000320 5f 47 a9 bc 17 5f f2 3d 85 17 2d be 74 cd 58 3c
       -0.020663915 0.11834543 -0.16903503 0.013232578
000330 a4 7e b1 ba 32 87 2e bc 55 01 03 3e 5b b9 4f be
       -0.001354177 -0.01065235 0.12793477 -0.20285551
000340 4a 44 92 bd 2d b5 27 be 8a be 36 3d 18 37 ab 3c
       -0.07141931 -0.16377707 0.044615306 0.020900294
000350 4b cd 2e be 1a c0 07 be 62 a1 4e be fa 36 95 3d
       -0.170705 -0.13256875 -0.2017875 0.072858766
000360 88 b9 12 3d d3 df 89 bc f6 48 54 3e 32 26 a4 bc
       0.035821468 -0.01683036 0.20730957 -0.020037744
000370 24 42 47 3e 95 d4 0d 3e 0d c4 94 bd d0 d6 a3 bd
       0.19458824 0.13850625 -0.07263956 -0.079999566
000380 ec b4 fa bd 78 92 1f 3e de fc ae 3b 60 fe 06 3c
       -0.12241539 0.15583217 0.0053402027 0.008239359
000390 a9 cd 4c ba cc 51 58 3d f9 ab a5 ba 38 b8 38 be
       -0.0007812628 0.052812383 -0.0012639753 -0.18039024
0003a0 c6 2e c5 bd 17 55 8b bd 8e 35 f2 3d bd 53 90 3d
       -0.09628062 -0.06803339 0.11826621 0.07047222
0003b0 bf 48 63 3e ec 87 0f bd 14 59 09 be 5a c5 b0 bb
       0.22195719 -0.035041735 -0.13412887 -0.00539462
0003c0 ee e5 26 3e d2 e5 2c 3d a1 d8 3b 3e 51 a0 f5 bd
       0.16298649 0.04221136 0.18344356 -0.119934686
0003d0 19 e9 01 be f9 fa 45 3d e0 39 10 bd c4 5c 04 3e
       -0.12686576 0.04833505 -0.035211444 0.12926012
0003e0 d0 9f d2 bd f0 7b 0e 3e 52 6b 2a 3e 72 2e d7 bd
       -0.10284388 0.13914466 0.16642502 -0.105069056
0003f0 fa 36 d6 bd 30 38 53 bb fe ba 54 3e 5d 8a f1 3d
       -0.10459705 -0.0032229535 0.20774457 0.11793969

fc2.bias f4 [64]
000000 9f 6b 11 bb 78 46 96 bd 9d d2 17 bc 14 df b2 3b
       -0.0022189391 -0.073376596 -0.009266523 0.005458722
000010 d6 ed a0 3c 97 7e dc 3a d3 4c 81 3b c3 fc 45 3d
       0.019644659 0.0016822395 0.0039459257 0.048336755
000020 32 57 9b 3c 6b c9 a5 bb 56 50 4b 3c 5c 35 04 ba
       0.018962476 -0.0050594113 0.01240929 -0.00050433516
000030 44 b9 85 bb c3 e4 8f bb f3 2e db 3c ab 13 62 3c
       -0.0040809233 -0.004391284 0.026755786 0.0137986345
000040 94 55 22 3c 2e ed 4f bc 9b 3f 80 3c 20 40 6e 3b
       0.009908099 -0.012690825 0.01565533 0.003635414
000050 28 de aa bb 72 be 33 3c cf 79 89 3b 55 e8 0b 3c
       -0.0052144714 0.010970699 0.004195429 0.008539279
000060 f1 c3 89 ba b2 16 ac bb 8d be 3a bd f3 47 77 ba
       -0.0010510666 -0.005251729 -0.04559188 -0.00094330235
000070 3b ca 91 ba 05 4b 82 3c de b2 47 bc fc 4e 00 38
       -0.0011122891 0.015904913 -0.012188641 3.0591138e-05
000080 71 ba 41 bc 75 c8 f7 b9 88 38 ff bb 1c 9d 3f ba
       -0.011824236 -0.00047260863 -0.0077887215 -0.0007309483
000090 15 18 ec ba 3b 55 ca bb fc 8f 4c 3b 01 b7 78 bb
       -0.0018012548 -0.006174711 0.003121375 -0.0037950876
0000a0 cb f1 9b bc 89 bb b5 ba 2a 11 80 37 6d ec 2f 3c
       -0.019036194 -0.0013865094 1.5266782e-05 0.010737521
0000b0 44 8c 2b 3b bf d6 07 3d 4c 91 1b bc d1 82 aa 3b
       0.0026176134 0.033163782 -0.009495091 0.005203583
0000c0 25 73 e2 3a 67 d6 43 bc 02 30 d3 bb 20 94 ad bc
       0.0017276747 -0.011952973 -0.006444932 -0.021188796
0000d0 df 8c 2a bc de 1c 15 3c c0 37 b5 3c 7c bb 16 3c
       -0.010409563 0.009101121 0.02212131 0.009199973
0000e0 78 ff c4 bb a9 cf a6 bb 0f 18 39 bb 4b 21 7a bc
       -0.0060118996 -0.005090673 -0.00282431 -0.015266727
0000f0 f7 99 f7 3a f1 f5 54 bc 97 1a c4 3b 12 c7 b9 ba
       0.001889049 -0.01299809 0.005984615 -0.0014173707

fc3.weight f4 [5, 64]
000000 4a 0b 7c bd 56 cd 01 3d ba f9 ae bd a3 e3 82 be
       -0.061534204 0.031689964 -0.08543725 -0.25564298
000010 a4 0f 8f bd af 39 b0 3c 94 60 4d be 6e 47 63 3b
       -0.06985405 0.02151188 -0.20056373 0.0034680027
000020 0f bd 02 be c7 e2 4d 3c cc de 91 be 17 f5 88 3e
       -0.12767433 0.012566275 -0.28490293 0.2674949
000030 cd 6c 62 bd 82 0e 8d 3e e1 57 b9 3c eb 65 2b be
       -0.05527954 0.2755013 0.022624912 -0.16738097
000040 6c 97 5c 3e bf ab 1a 3e de 89 71 3e ab c1 4d be
       0.21542138 0.15104578 0.23587748 -0.2009341
000050 94 36 6a be f1 29 ba bd 71 ff 5d 3d ef 82 dc 3d
       -0.22872382 -0.09090031 0.054198686 0.10767161
000060 a3 c8 b2 3d 4b 2c 1a be 27 f6 ba bd 1d 4e 3a be
       0.08729675 -0.15055959 -0.09128981 -0.1819386
000070 54 fd ec 3d a4 fe c3 bc 77 1c 1f 3d a5 3b ac bd
       0.11571756 -0.023925133 0.038845506 -0.08409814
000080 f0 ea 5a bd 5b 0f a0 3d 7e c5 89 3e d3 37 8d 3e
       -0.05344671 0.07815429 0.26908487 0.27581653
000090 f6 a4 8d 3e 83 57 90 be 19 b4 93 3e 00 22 9e 3b
       0.27664918 -0.28191766 0.2884834 0.0048258305
0000a0 66 66 b0 bc e9 a0 28 be 9f fe 00 3e da 97 0c be
       -0.021533202 -0.16467632 0.1259713 -0.13729802
0000b0 15 14 86 3e 85 a9 ac bd 0a 6d ff bd 5f b3 a2 bd
       0.26187196 -0.08430771 -0.124719694 -0.079443686
0000c0 10 98 5d bc 90 bf ca bd 2d 1a 58 3e 1e 56 89 3e
       -0.013525024 -0.09899819 0.21103735 0.26823515
0000d0 ea 7a d0 bd 63 4c d8 3d 4f 45 f8 bd 4e 6b 30 3d
       -0.10179694 0.105614446 -0.121225946 0.043071084
0000e0 c1 cc 2b 3e 1d c1 43 3e 12 83 21 be 44 f8 90 3d
       0.16777326 0.19116636 -0.15772656 0.07078603
0000f0 80 02 71 be 80 c5 7d 3e fc e0 22 3d 0b 5c 59 be
       -0.2353611 0.24782372 0.039765343 -0.21226518
000100 f7 b5 4e be 9c 95 04 3e c9 9a e2 3d d7 a4 e6 bd
       -0.20186602 0.12947696 0.11064679 -0.112619095
000110 f1 ce da 3c d7 54 34 3f da b8 88 be d0 99 f0 3c
       0.026710005 0.70441955 -0.2670353 0.029370219
000120 f4 2a f4 bd b8 ee 92 3e 80 44 1c 3d 7f 9e 12 3e
       -0.11922255 0.28697753 0.038151264 0.14318274
000130 5d 37 6a be ad 80 17 bd 2c 2d a4 bd 87 99 40 3e
       -0.22872682 -0.03698795 -0.08016428 0.18808566
000140 e0 8f fd 3d 4e ee f6 3d 89 ca 32 3d 2b 05 8f bd
       0.123809576 0.12057172 0.043650184 -0.069834076
000150 db 0c ce 3d 00 1e 07 3e d7 a2 e6 3e 4a 1f 6f 3e
       0.10061046 0.13195038 0.45046112 0.2335178
000160 53 51 d2 3e 07 ff 0e 3e 32 b9 15 be 52 3a 05 be
       0.4107767 0.13964473 -0.14621428 -0.13010529
000170 7a cc c9 be 20 6f 8b 3d c3 9d 83 3e 08 4e 6c 3e
       -0.39413816 0.06808305 0.257063 0.23076642
000180 a7 ed f8 bd 8a 11 e3 bd 17 41 15 be b7 05 2d be
       -0.121547036 -0.1108733 -0.14575611 -0.16896711
000190 0e ba a8 bd 00 ee f6 3d 74 aa c8 3d 8a 5a 95 be
       -0.08238612 0.12057114 0.09798136 -0.29170638
0001a0 4b 9e 2e be 24 d6 ba 3e c6 32 2f bc c6 f0 26 3e
       -0.17052571 0.364915 -0.010693258 0.16302785
0001b0 c5 80 49 3e 76 83 08 be d8 98 62 3e c9 1f 82 3d
       0.19678028 -0.13331398 0.22128618 0.06353719
0001c0 4d 12 39 3e b9 fb b2 3e 03 c3 f8 3d c1 72 ec 3d
       0.18073387 0.34957674 0.121465705 0.11545325
0001d0 86 c8 95 3d 67 5c e0 bd bc ab a7 be bb 47 48 bd
       0.073136374 -0.10955124 -0.3274821 -0.048896533
0001e0 42 09 ea 3d d0 a1 83 be 28 8e 2f 3e 7c 4f a9 3d
       0.11427547 -0.2570939 0.17144072 0.082671136
0001f0 49 8c ab 3e 67 5d 9b 3e c7 a5 a1 be 2d 46 f0 be
       0.33505467 0.30344698 -0.3157179 -0.4692854
000200 ee c9 13 3e 57 97 1e 3e b2 57 a9 3d b3 0b 2d be
       0.14432499 0.15487419 0.0826868 -0.16898994
000210 29 74 60 be ff b4 5a be 37 17 de be fc 02 16 be
       -0.21919312 -0.21358107 -0.43377087 -0.14649576
000220 d6 48 0a be 61 f7 8b 3e 04 95 0a 3e 2a ea 91 3e
       -0.13504347 0.27337173 0.13533407 0.28498966
000230 31 5a 9c 3e 0a d6 2b be 63 56 96 be dd ce 04 bd
       0.3053756 -0.16780868 -0.29362783 -0.032423843
000240 74 89 fb 3d 29 ea 56 3e 2b f3 9a be 1b 83 28 be
       0.122820765 0.20987763 -0.30263647 -0.16456263
000250 b4 44 d4 ba 55 fd dd bd 6c 63 06 be 12 af 6c be
       -0.0016194792 -0.10839335 -0.13123864 -0.23113659
000260 5c 54 38 bb 6c 90 67 3d 84 e1 12 3d ab 41 e0 3d
       -0.0028126454 0.056534216 0.0358596 0.10950025
000270 36 f9 6b 3e 6c f5 f6 bd f2 a7 29 3e db d0 90 be
       0.23044285 -0.12058529 0.16567972 -0.28284344
000280 0d b2 97 3e 18 36 38 3e da af d8 3c 9a 7d 5f 3e
       0.2962803 0.17989385 0.02645104 0.21825257
000290 b3 9a 58 bc 49 0d 88 3e 67 57 48 be 63 ed 02 be
       -0.013220477 0.26572636 -0.19564591 -0.12785868
0002a0 10 af 99 be 22 40 b4 3e ab f2 f7 3d a9 0a 11 3e
       -0.30016375 0.3520518 0.12106832 0.14164223
0002b0 12 64 94 3c 68 b4 98 be 8b 8e 8a 3e 3c 33 59 be
       0.018114123 -0.2982514 0.27061877 -0.2121095
0002c0 1b ff a4 3e 4f 1b ec 3d 1d 7e 0f 3e a9 2f 2f 3e
       0.3222588 0.11528646 0.14012952 0.17108025
0002d0 0c 07 98 bd 3d 38 8d be 62 27 b8 be d4 6e 08 be
       -0.07423219 -0.2758197 -0.35967547 -0.13323528
0002e0 9a 7f c4 3b b5 15 91 3d fd 6a 73 be 57 27 e6 3d
       0.0059966566 0.070842184 -0.23771282 0.11237972
0002f0 14 51 f4 3d 16 94 7f be 6d aa ac 3e b4 03 31 3d
       0.11929527 -0.24958834 0.33723775 0.043216422
000300 ab a6 95 3e e7 c1 a8 bd f3 ac da ba dd fa 58 be
       0.2922872 -0.08240109 -0.0016683623 -0.21189447
000310 e8 a5 77 bd bc b2 b4 3c c2 f4 b0 bc b0 30 4b be
       -0.060460955 0.022057883 -0.021601085 -0.19842792
000320 32 77 76 be 04 1f 33 be d0 07 76 3e 3f a8 54 3e
       -0.24068907 -0.174923 0.24026418 0.20767306
000330 3c 9a 74 bd ef 10 0f 3e 56 9b 78 bd c0 a4 8e 3d
       -0.0597174 0.13971303 -0.060695015 0.06965017
000340 08 7f e4 3c 00 68 8f be 6d d1 86 3e 36 4e 27 be
       0.027892604 -0.28009033 0.26331654 -0.16338429
000350 5d 31 1a be a5 26 8c be da 23 18 bc b9 e6 39 3e
       -0.15057893 -0.27373233 -0.009285891 0.1815442
000360 d9 80 7a be c8 c8 68 be 56 81 19 3c ac 4f 8f 3c
       -0.24463214 -0.22732842 0.009369215 0.017494045
000370 af 6e 40 3d 04 e9 9e bc 22 c6 08 3e 38 fa 3d be
       0.046980556 -0.01939822 0.13356832 -0.18552482
000380 aa 32 05 be b5 82 7a be 8a f6 81 3e 0e e3 b5 3c
       -0.13007608 -0.24463923 0.25383407 0.022202995
000390 0f f9 b1 bd 0b f1 63 3e cd 22 5a 3e de 30 73 be
       -0.08690082 0.2225992 0.21302338 -0.2374911
0003a0 5f 0b a8 bc c3 9e d5 bc 6d 9f 7a 3d 3a d3 57 3e
       -0.020513235 -0.02607668 0.061187197 0.2107667
0003b0 f9 c1 c2 3d 21 a5 09 3e 95 b7 70 be f1 73 ee 3d
       0.095096536 0.13441898 -0.23507531 0.11643208
0003c0 6e 07 27 3d ca 5d 8a 3e d3 fd 75 be 15 4a 9c bd
       0.04077857 0.2702468 -0.24022608 -0.076313175
0003d0 54 79 04 3e 56 d6 75 3c a0 64 bc 3d 0b c5 5a 3e
       0.12936908 0.015004715 0.0919888 0.21364228
0003e0 31 76 08 3e 01 40 1e be 64 cd 04 3e ca 89 97 3e
       0.13326336 -0.15454103 0.12968975 0.29597312
0003f0 b3 82 c8 bc 18 9d ff 3d 25 e3 0e 3c 58 5e dd 3c
       -0.024476385 0.12481135 0.008721148 0.027022526

fc3.bias f4 [5]
000000 67 e0 db b9 ff 22 b2 3b 13 c6 1b bd f1 bf 8a bb
       -0.00041938128 0.0054363008 -0.038030695 -0.004234307
000010 f3 06 1b bd
       -0.037848424
