CS237B_Win25_HW3-main/policies/intersection_left_IL.pt (torch, 21386 bytes, 6 tensors)

fc1.weight f4 [64, 5]
00000000: 411d 1f3e 2472 f1bd a72b 44be 03e5 e8bd
00000010: 0c02 5fbe 324f 013d 14f6 e0bd a32d a7be
00000020: e9d3 89be 15da 1dbd 8d46 173e 2fcd 7fbe
00000030: 17ad 3e3d 79c7 35be 3fb9 94be ddd0 e93d
00000040: 9e58 5abd b19c c1bd 5c45 383d b866 10be
00000050: 8a92 ecbd 4e18 7d3d 4e33 e7be e4fe 8e3f
00000060: 1bc2 09be ef0a 88bd 39ba 72be 75a4 adbd
00000070: 2bb2 20be 595c 6bbe 8a6c 793e 04d0 c83d
00000080: 33ad 313e 044d f1bf e271 b9bd 8b0d 7a3d
00000090: 7b6b 02be 2903 3bbf c467 6e3f f963 1c3e
000000a0: e491 5fbe 2a26 03be 0b17 dd3d e168 673e
000000b0: de29 883d b404 aabd 351b 3a3c bb3c 9b3d
000000c0: dc68 09bf 3ba5 4fbd 1b0d 503e ec3e 41be
000000d0: 4049 43bd 12fd 68be 2cec 94be b065 533e
000000e0: 3d4b 34be 557a 5d3f 6353 91bf 5bba 1c3e
000000f0: c1df 853e 8612 b1be f1e7 7b3f f8b6 eb3e
00000100: b5f3 293d 908e 353e 8629 10be 48e5 d0bd
00000110: 4601 d7bd b49f 7ebe deea d03d 9fc2 09bf
00000120: 1d5a a13f ad41 863d 5f80 343d a030 f9bd
00000130: c2be 9fbe ef54 673f 9220 9c3e 0257 2b3e
00000140: e9ad 013d 9318 a1be e741 20c0 6b91 213f
00000150: f1aa b13e b100 193e 320f 9ebd 9a3d 283d
00000160: cb6a 313d ff71 90be 6809 09be f7d5 903c
00000170: aa21 56be 638a b0bd 2e68 1dbc 60f9 95be
00000180: 9c29 0abe ac9f 6ebd 2bcb 3ebe 28e2 cb3c
00000190: d8dc 59be 9bb3 e43d 1bef 9fbe 11d3 99be
000001a0: 5cff 9dbd 13f7 99be 05bc 113e 1b24 bdbc
000001b0: 3b72 9abc 5078 87be 0a72 b73d 50dd ea3e
000001c0: d62d ba3e 5138 04bf f63c f0be ce3a 91be
000001d0: 3c33 67be 42f5 6cbe 2371 85be 3414 a4bd
000001e0: 3d7a cabd 5ff2 d3bd 7f18 fa3d 3e22 7bbe
000001f0: b661 bc3c 156f f03d aa85 443d 7492 b23d
00000200: e244 6c3e 1207 93be 03bb 233c 68f5 8ebf
00000210: 0526 1d40 44c2 b8bf 8e95 13bc 3e81 b43e
00000220: 3591 023d 3275 54be 12bc 29c0 cf71 03bd
00000230: 4dbc e0bd 984c 9bbc 0fe1 d1bd f9fd a03c
00000240: bb0f 023d c762 76be 69d3 f7bd 6256 9cbe
00000250: c1f0 24be def4 ec3d 6567 7e3d 9ff3 493e
00000260: 003f f3be 7dff e53f 3e25 4dbe 63f2 303d
00000270: 7ae9 b6be 4fc9 393f 296e 273f 0653 4d3e
00000280: 245b 9dbe b6c9 d5bd ec7f 33bf 19b3 92be
00000290: 3508 833d 27b8 38bd a87d fabc f76a 703e
000002a0: 7d69 69be 65a5 8c3b 0932 e3bd 1d55 d43d
000002b0: fa09 9fbd 69a8 843e 8569 91be 4106 99bd
000002c0: 612f 1ebd 75c0 ecbd 17f8 6fbe e754 113c
000002d0: ec01 e3bc 2565 0abe e686 bb3b db08 07be
000002e0: 6853 7dbd 6c75 14be 38f3 68be 9e76 86bd
000002f0: 7d39 b7be b85e a93c c1df 8bbb 86b1 4cbe
00000300: 2dcb 92be e6d0 83be a970 16be 1169 56bd
00000310: 0d70 e4bc 7a61 4d3f afd4 a6bf 53ce 013d
00000320: af9f d7be d9d8 bf3e 0412 cfbf d40e babd
00000330: c0c2 e0bd 3890 27be bd99 423e fb75 06bc
00000340: 3626 06bd 8453 98be a23d 56be 2d81 a63d
00000350: cf06 2cbe 31c8 81be 1371 88bd 63ea 7b3d
00000360: b503 adbf dd1e 25bf fb34 dfbd de84 343e
00000370: bc18 123e 3f74 4fbe ce63 58bc 0f9b 97be
00000380: dea0 93be 03d7 a5bd cc89 4fbe 808a 673d
00000390: 2cbd 8ebc 752a f03c 2003 96be 9475 56be
000003a0: 0a66 8ebc 28fa a3be b6b7 1d3e 421b 563e
000003b0: 2e6d 083f 7ac9 21bf 3dc3 5d3e 31c6 0cbf
000003c0: 10eb 6abe b795 09be cf45 0e3e bcd0 7abf
000003d0: 875e 8c3e e53a 24be b839 c5bd e3b0 173e
000003e0: 71bd bcbe fb64 b33d ec4d 4abe 28ec 11be
000003f0: 3217 a2be 04b2 bb3d 6814 d73c 940a 90bc
0.15538503 -0.11789349 -0.19157277 -0.113718055 -0.21778125 0.031569667 -0.10984436 -0.32652006
-0.26919487 -0.038538057 0.14773007 -0.24980615 0.04655179 -0.17751874 -0.29047582 0.11416791
-0.05330717 -0.09453715 0.04498802 -0.14101684 -0.115513876 0.061790757 -0.4515633 1.1171536
-0.13452952 -0.066427104 -0.23703851 -0.08478633 -0.15692966 -0.22984447 0.2435781 0.09805301
0.17351227 -1.8851628 -0.090549245 0.06104807 -0.12736313 -0.73051697 0.93127084 0.15272512
-0.21832997 -0.12807527 0.10795411 0.22598602 0.066486105 -0.08301678 0.011359026 0.07579943
-0.5367563 -0.050694685 0.203175 -0.18871659 -0.04767728 -0.22752789 -0.29086435 0.2064426
-0.17606826 0.8651479 -1.1353573 0.15305464 0.26147273 -0.34584445 0.9840079 0.46038032
0.041492183 0.17730165 -0.1407834 -0.10199982 -0.1049829 -0.2486561 0.10201047 -0.53812593
1.2605625 0.065554954 0.044067737 -0.121674776 -0.31200224 0.90363973 0.304936 0.1673241
0.031659994 -0.3146406 -2.5040224 0.63112515 0.3470073 0.1494167 -0.07717742 0.041074373
0.043314736 -0.28211972 -0.13382494 0.017680151 -0.2091128 -0.08620145 -0.009607358 -0.2929182
-0.13492435 -0.058257744 -0.1863219 0.024888113 -0.21275651 0.111670695 -0.3123711 -0.30043843
-0.077147216 -0.30071315 0.1423188 -0.023088505 -0.018853297 -0.2645898 0.08957298 0.45871973
0.36363095 -0.5164843 -0.4692151 -0.28365177 -0.22578138 -0.23140433 -0.2606288 -0.08011666
-0.09886596 -0.10348963 0.122117035 -0.24524781 0.022995811 0.11739937 0.047979034 0.0871934
0.23073152 -0.28716332 0.009993318 -1.1168642 2.4554455 -1.4434285 -0.009007825 0.35254854
0.03187676 -0.20747831 -2.652104 -0.03209096 -0.109734155 -0.018957421 -0.10248005 0.019652354
0.031753283 -0.24061118 -0.1210087 -0.30534655 -0.16107465 0.11570142 0.062110323 0.1972184
-0.47509003 1.7968594 -0.20033738 0.043199908 -0.35725003 0.725728 0.65402466 0.20051202
-0.30733597 -0.10438864 -0.7011707 -0.28652266 0.0639805 -0.045097496 -0.030577496 0.23478304
-0.22794147 0.0042921775 -0.11093528 0.103677966 -0.07765575 0.25909737 -0.28400818 -0.07471896
-0.038619403 -0.11560146 -0.23434483 0.00887034 -0.027710877 -0.13515146 0.0057228683 -0.13186972
-0.06184712 -0.14497918 -0.2274903 -0.06565593 -0.35786048 0.020675048 -0.004268617 -0.19989595
-0.28670636 -0.25745314 -0.14691414 -0.052346293 -0.027885461 0.8022686 -1.3033656 0.031690907
-0.42114016 0.3747013 -1.6177373 -0.090848595 -0.109746456 -0.16363609 0.19003959 -0.00820684
-0.032751285 -0.29751217 -0.20921949 0.08130107 -0.16799472 -0.25348046 -0.06662192 0.061502825
-1.3516756 -0.6450022 -0.10898777 0.1762881 0.14267248 -0.20259188 -0.013207389 -0.29610488
-0.2883367 -0.08097651 -0.20267409 0.05652857 -0.017424189 0.02931712 -0.2929926 -0.2094329
-0.01738264 -0.32026792 0.15402111 0.20908836 0.53291595 -0.63198054 0.21656509 -0.54989916
-0.22941232 -0.13436018 0.13893817 -0.97974753 0.2741587 -0.16038091 -0.096301496 0.1481357
-0.36863282 0.08759495 -0.19756287 -0.14250243 -0.31658322 0.09164813 0.026254848 -0.017583169

fc1.bias f4 [64]
00000000: 7bb1 08bd b867 f3bd 0000 0000 aecf 3ebe
00000010: d94f 503f 0000 0000 7669 fcbf 8af9 4e3f
00000020: 4300 5a3a 9e2a abbe 1823 88bd 2567 03c0
00000030: 3900 1dbf 8664 ecbc 8d76 babd 0310 de3e
00000040: 98d2 183f 0000 0000 0000 0000 0000 0000
00000050: b443 a3bd 7da3 5fbd 0bda 82bf 0000 0000
00000060: e9a2 5bbd 0000 0000 a185 25bf b47a d6bf
00000070: a5f8 36be 7f4e 89be a567 a03f 3193 513f
00000080: e17d 1fbe 20ae 58bf 0000 0000 63f2 39bd
00000090: 7fdb 76bd b47c a6bd 0000 0000 6b96 77bf
000000a0: b076 6dbf 7edb cfbd 0000 0000 8a95 d7bd
000000b0: f743 88bd 3de8 e2b9 6528 ccbd 0d02 8abf
000000c0: fc9a 44be 0a72 88be 1047 8abd dcb7 c63c
000000d0: ecff 4bbf 7f96 a6be 0000 0000 42a4 2a40
000000e0: 162b 8d3e cdf1 abbd 8acf f53d 34d8 613e
000000f0: 0000 0000 c2f2 16be 0000 0000 a26d 49bf
-0.033372384 -0.11885017 0.0 -0.18633911 0.8137184 0.0 -1.9719684 0.80849516
0.0008316079 -0.33430952 -0.066473186 -2.0531704 -0.61328465 -0.028856527 -0.09104643 0.4337159
0.5969634 0.0 0.0 0.0 -0.07971898 -0.054599274 -1.0222791 0.0
-0.05362216 0.0 -0.64657027 -1.6756196 -0.17868288 -0.268177 1.253163 0.8186522
-0.15575363 -0.84640694 0.0 -0.045397174 -0.06026792 -0.08129254 0.0 -0.96713895
-0.9275923 -0.10149287 0.0 -0.10526569 -0.06653588 -0.0004327911 -0.09968642 -1.0781876
-0.19199747 -0.26649505 -0.06751835 0.024257593 -0.7968738 -0.32536694 0.0 2.6662755
0.27571934 -0.08395729 0.120024756 0.22055131 0.0 -0.14741042 0.0 -0.7868291

fc2.weight f4 [64, 64]
00000000: 2dbf fb3d 448d a43c 38bd f7bd 89ff 1e3e
00000010: 6603 2abe f037 a5bd 5541 b53e 672e 4ebe
00000020: 9566 67bc f3d3 ef3d 3bd0 08be 3d6a f0bd
00000030: 6503 773e ed45 6dbe 15b1 39bd 28bd 943e
00000040: 80bf 2b3e c47c dd3d c250 0f3d ab6e 393d
00000050: 9670 003e 1c6c 0e3e 1075 a63e c8b3 1dbe
00000060: c350 40bc dbd6 073e 44b1 093e 69f7 843d
00000070: 8b65 9f3d fd01 063e 321c 403e 1689 f0be
00000080: fbaf 6cbe f022 be3c 1f4b 373d df6a e0bd
00000090: 2a56 6dbe dea8 0fbe c419 26bd 09b3 413e
000000a0: a885 81be 7f88 fabd 59d2 f3bc a686 27bc
000000b0: 55cb 253d a670 08be 462f e8bd c822 ccbe
000000c0: 823a c6be 284f 1abd e15e 053e fd14 2ebe
000000d0: 1f0d e93d 9c76 eebe 1c8a 95bd be5a 32bc
000000e0: dcc7 38be b5a4 ef3d 4b75 d13d 93ec 39bd
000000f0: 3902 50bd 56c9 e3be 2703 c23d 2332 0e3e
00000100: a6da 463d db1e 793c c58e d13d a3eb 133d
00000110: 6dba a43d e768 363e b73d b7bd f3d2 2dbe
00000120: 11df 7abe e48f 163e 7a35 dcbd 9b97 aabd
00000130: 9b5d 03bd 7bf7 1dbe 2ca2 7fbe 20ac 26be
00000140: dee4 a7bd 088b 0dbe 42eb 48be 4c30 2d3e
00000150: f835 4abd 752e 03be f644 07be 27fe 14be
00000160: e11e 85be f7f4 383e 7d07 463c 70e5 45be
00000170: 92c0 7b3d fc94 43be 46cb b3be 367e b3bd
00000180: 2712 1ebe f210 5cbe 3837 73bc 7ad0 0cbd
00000190: fca6 b13d 7e09 5bbe 5c4b 453d b94d 44be
000001a0: 2a35 b5bc c6dc 64be 07d9 b7bd 91b8 40be
000001b0: 099e 573e 5f48 b6bc faa6 44be fe55 083e
000001c0: 1c19 98bd 7e38 c63d 8ced e1bd 5191 e8bc
000001d0: f20e 38be cd27 e33c 08e2 e1bb e380 e93d
000001e0: 15bd dcbd 1f5c 3d3e 50a1 50be a0fe 2abe
000001f0: 6cf9 ed3a c1da 5dbe 3a5c ce3d 100a 5bbd
00000200: 5740 23be 51fb 0ebe 2a74 323d 3cac 99bd
00000210: 914f 423c e23c 423e 3b90 9f3d 6009 7abc
00000220: 77eb 33be 332c 003e c482 263e 9bf7 903e
00000230: e520 9cbd fd5d 88bd 7d2b de3d 0929 6b3b
00000240: a1c6 03bf d1f2 cbbd 76d2 e7bd 593a d23d
00000250: 2410 0b3e d464 b53d e1d0 70be 626c a23d
00000260: 8096 b9ba 7caa 473e baec 1bbe 2807 41be
00000270: c9ac d7bc 24e8 063e 9609 a6bd d394 e1be
00000280: 2902 e13c 4d36 6fbd 62b6 50be 5792 493c
00000290: 8f09 003e 717c 97bd 200d c23d 94eb aa3d
000002a0: dd3d abbe c236 22be 41c1 b4bb f3f2 36be
000002b0: 1e93 33be c763 353e 64d1 29be 8eeb d9bd
000002c0: d3b8 3b3e e474 32be ec01 f73d 5073 23be
000002d0: fe97 87bd 5b0e 3dbf cc79 57be 6c57 f8bc
000002e0: b9ab 0dbe 2db9 26bd dd63 d53e e498 59be
000002f0: 595c 18bd 3219 1e3e ab5a 05be 0d9f ca3c
00000300: 4824 6f3d f5ab adbd ab3e d5bd f2dc a23e
00000310: 1280 fabd fa42 333e 288e b5be 2a5a 07be
00000320: 46f5 43be 03b8 1abe 5c0d dbbd 4692 8bbe
00000330: 3ef8 8ebe aaf0 3ebe fa27 47be d831 25be
00000340: d35a f5bc b58b 85bc 304c c33c 5fca d03d
00000350: 57e2 023e 3054 9d3c 0449 0a3d fd8e 453e
00000360: 468f 0d3d b45d 4dbe 2429 eabd 99f5 893d
00000370: a57b 623d 387e 2abe 1f89 cbbe 34de a3be
00000380: 3723 43be d497 53be 490d 163d 8809 093e
00000390: 7db2 1bbe 4208 a9bb 27fb 923d c9f4 8dbe
000003a0: b12f 6fbc ca8d d5bd 3601 23be b167 febd
000003b0: 42d5 e4bd 48fb 27be 53cb 81be f02b 083e
000003c0: 2246 55be d059 b23d f54b dd3d 2246 bfbd
000003d0: 16be 57bd 4777 73bd 610e d1bd 9745 52be
000003e0: 85ca 3d3d 3d59 ad3d f1c9 9d3d b88b e1be
000003f0: 240f f6bd f317 3abe 8614 25bd f56e 02be
0.12292323 0.020086892 -0.120966375 0.15527166 -0.16602859 -0.0806731 0.35401407 -0.20134889
-0.014123579 0.11710348 -0.13360684 -0.11739013 0.24122389 -0.23171206 -0.045334894 0.29050565
0.1677227 0.10814813 0.034989126 0.045271557 0.12542948 0.13908428 0.32511187 -0.15400612
-0.011738005 0.13265555 0.13446528 0.06492502 0.0778304 0.13086696 0.18760756 -0.46979588
-0.23114006 0.023210019 0.044749375 -0.10957884 -0.231774 -0.14029261 -0.040551916 0.18915953
-0.25297284 -0.12233066 -0.029763388 -0.010224974 0.040477116 -0.13324222 -0.11337142 -0.39870286
-0.38716513 -0.037673146 0.13024475 -0.17000194 0.11379456 -0.46574867 -0.07301733 -0.010885892
-0.1804499 0.11701337 0.1022745 -0.04539163 -0.05078337 -0.44489545 0.094732575 0.13886313
0.048548363 0.01520511 0.10232309 0.036113393 0.080433704 0.17813455 -0.08947318 -0.16975002
-0.24499156 0.14703327 -0.10752387 -0.08329698 -0.03207169 -0.15426438 -0.24964207 -0.16276598
-0.0819795 -0.13822567 -0.19620994 0.16912955 -0.049367875 -0.1281069 -0.132099 -0.14550076
-0.2600012 0.18062197 0.012086746 -0.19325805 0.061462946 -0.19099802 -0.35116023 -0.08764307
-0.15436612 -0.21490839 -0.014844708 -0.034378506 0.08674428 -0.2139034 0.04816757 -0.19170274
-0.022120077 -0.22349843 -0.089769416 -0.18820406 0.2105638 -0.022251306 -0.19204322 0.13314053
-0.07426664 0.09678744 -0.110316366 -0.028389605 -0.17974451 0.02772894 -0.0068934 0.11401536
-0.10778252 0.18492173 -0.20374036 -0.16698694 0.0018155999 -0.21665479 0.100761846 -0.053476393
-0.15942512 -0.13963057 0.043567814 -0.07503554 0.01185979 0.18968537 0.07791182 -0.015261024
-0.17570291 0.1251686 0.1626082 0.28313908 -0.07623462 -0.06658552 0.108481385 0.0035882613
-0.5147496 -0.09958423 -0.11319439 0.10265035 0.13580376 0.08857122 -0.23517181 0.07930829
-0.0014159232 0.19498628 -0.15227023 -0.18850386 -0.026327508 0.13174492 -0.08107297 -0.44058856
0.02746685 -0.058401395 -0.20382074 0.012302957 0.12503646 -0.07396782 0.0947516 0.08345714
-0.33445635 -0.15841201 -0.0055162017 -0.17866115 -0.1753659 0.17713843 -0.16583782 -0.106406316
0.18332224 -0.17427403 0.120609134 -0.15961957 -0.06620787 -0.7385003 -0.21042556 -0.030315123
-0.13835038 -0.04070394 0.41677752 -0.2124973 -0.037197445 0.15439299 -0.13022868 0.024734044
0.05838421 -0.08480064 -0.104123436 0.31809193 -0.12231459 0.17506018 -0.3546002 -0.13217989
-0.19136533 -0.15109257 -0.106959075 -0.27260035 -0.2792377 -0.18646494 -0.19448844 -0.16132295
-0.029950535 -0.016301969 0.02384004 0.10194849 0.12781654 0.019205183 0.03376104 0.19292827
0.034560464 -0.20055276 -0.11433628 0.06736297 0.055293698 -0.16649711 -0.39753053 -0.32005465
-0.19056402 -0.20663387 0.036633763 0.13382542 -0.15204807 -0.005158455 0.0717681 -0.2772582
-0.014598773 -0.10427435 -0.1591843 -0.12422121 -0.11173488 -0.1640445 -0.25350437 0.13298011
-0.20827535 0.087085366 0.10805503 -0.09339549 -0.052671514 -0.059439924 -0.10207821 -0.20534359
0.046335716 0.084642865 0.07704533 -0.4405191 -0.120146066 -0.18173198 -0.040302776 -0.12737639

fc2.bias f4 [64]
00000000: a5f5 9f3e ead1 47be 1199 133e b9c1 8bbe
00000010: d23d d7bd 2f0e 40bf 1a9b 0a3e 09d0 82bc
00000020: c39f 79bf fc84 60bf 9879 19be 7e52 afbe
00000030: 5bf1 3bbe e262 02be e81a 103e 0da0 bc3f
00000040: 7166 89bd 5382 81be f26c 0c3e 97f5 90be
00000050: 23a1 8bbe fc7b 373f 3950 7fbe 1dff 8cbe
00000060: 8148 b5be d175 93be 6911 bfbe 222b 8fbe
00000070: 969a c3bd c4c7 233f f6f8 51bd b732 0dbd
00000080: 427d d43e 224e c5be ada4 19be 950b 63be
00000090: 59dc 88bd 4483 713d 86c2 5fbf 91bd 47be
000000a0: b892 91be 40e2 4dbe ba7e 8bbe f1db c83e
000000b0: 6621 45bd 4444 df3f eb71 fcbe 7f30 a6be
000000c0: 5a9a ddbe ed4c e5bd 9167 88be 1af4 cfbe
000000d0: 2a12 833e 93b7 88be 7985 8fbe 235b 9bbe
000000e0: fac7 02be 98a9 6cbe 6aab 6dbd 1ab8 b43e
000000f0: e67e 5abf cfc9 da3e 9cfb 06be 7df5 3bbe
0.312421 -0.1951367 0.14413859 -0.27296236 -0.10509838 -0.7502164 0.13535729 -0.01596834
-0.975094 -0.8770292 -0.1498779 -0.34242624 -0.18353789 -0.12733033 0.14072764 1.4736344
-0.06708992 -0.25294742 0.13713434 -0.2831237 -0.27271375 0.7167356 -0.24932946 -0.27538386
-0.3540688 -0.28800824 -0.3731797 -0.27962595 -0.09550969 0.63976693 -0.05126282 -0.034472194
0.41501814 -0.38536173 -0.15004225 -0.22172387 -0.06682653 0.058963075 -0.87406194 -0.19505908
-0.2843225 -0.20105839 -0.27245122 0.39230302 -0.048127554 1.7442708 -0.49305663 -0.32458875
-0.43281823 -0.11196313 -0.26641515 -0.40615922 0.25599796 -0.26702556 -0.2803152 -0.3034297
-0.12771598 -0.2311157 -0.0580248 0.35296708 -0.8534988 0.42732093 -0.13181919 -0.18355365

fc3.weight f4 [2, 64]
00000000: b99a 9b3b 3775 0ebe a331 aebb 79ef c53d
00000010: 8a30 203e ea07 b6bc be36 7c3b ceb5 daba
00000020: a6f9 153b d6ad a13a ed0b a7bd 10cc bf3d
00000030: 6034 2ebe fd84 76be ebf5 34bb abc8 963c
00000040: eed1 98bd 84e9 623e ec17 6eba 31f9 c63d
00000050: 7f82 763d 3e1d 543d 4a17 c23e 42ac 04be
00000060: ccdd 6dbd 3ccd f03d 2b71 f53d c0fb a03d
00000070: 031d 9a3a a696 4abb bf7d 2f3e dce4 e63b
00000080: 3af5 0ebe b525 c33d 77d3 c83d 7a9b 04be
00000090: 9bdc ffbb e50b 873c a82d e83b 4ed3 403d
000000a0: 172d 0abd b350 adbd f410 c3bb 5ad6 8eba
000000b0: 5e35 4c3e 24d9 64bb 1f1a a43c 5793 3ebe
000000c0: aa0a 553e 4572 9a3b b599 213e 5a30 853b
000000d0: 47ca 36bd 065b 1c3e 504d 3a3e c471 d33e
000000e0: 4d7c 59be 3a1e 4fbc e464 da3c 7ccd 3fbb
000000f0: 54f8 843b 31a3 febd 7e76 573d f340 2b3e
00000100: 5267 273e 475a 80be c28b fbbd 9d5e 373d
00000110: f047 453e eab1 67be ee1f 113e 3dfa ccbd
00000120: e17d c53e ff66 06be 4606 433e 46ca c8bd
00000130: 4a07 723e 961a 2cbd ef59 f6bd 04a5 d33e
00000140: c42d 283d 7bf4 30be ac58 173e 8ac6 6ebe
00000150: 56df 03bc 9299 3ebe 4324 bdbd 7618 393d
00000160: 98ee b2be 6e2c c8bd 51b8 363d d979 cc3c
00000170: 2917 8ebd eac5 f1bd 8390 4bbd 9db7 ca3d
00000180: 7cae 24bd 086f 243e 36c4 14bd 9c20 da3d
00000190: dd7b 86bd 5591 123f 203c 2bbe a1fe 693e
000001a0: 26cd 263d 1632 dcbd 380c 253e 0fc2 4b3d
000001b0: 8f50 dbbc 7e0a 0abf 331a 423e a20e a33e
000001c0: c84d 0e3e 0584 783e 0ad0 723e 5463 49be
000001d0: 1ca1 3bbe f39c 3ebc 5cbc bcbc df55 71be
000001e0: 6d40 dabd 5814 3b3e 0557 4bbd 7062 1f3e
000001f0: aeda 79be a470 a53d 2a70 413d bd6f 9cbe
0.004748669 -0.13911901 -0.0053159758 0.096648164 0.15643516 -0.02222057 0.0038484777 -0.0016686262
0.0022884398 0.0012335132 -0.081565715 0.09365094 -0.17012167 -0.24074169 -0.00276124 0.018406233
-0.07461916 0.22159392 -0.0009082544 0.09715498 0.060183045 0.0517857 0.37908393 -0.12956336
-0.05807285 0.11757895 0.11984476 0.078605175 0.0011757914 -0.0030912547 0.17137812 0.007046325
-0.13960734 0.095286764 0.09805959 -0.12949935 -0.0078082806 0.016485164 0.007085521 0.047076516
-0.033734407 -0.08462658 -0.0059529487 -0.0010897622 0.19942233 -0.0034919465 0.020031987 -0.18610893
0.2080485 0.004713329 0.15781291 0.004064602 -0.0446265 0.15269098 0.18193555 0.41297734
-0.21238823 -0.012641484 0.026659437 -0.0029266765 0.0040579233 -0.1243347 0.052603237 0.16723995
0.16348007 -0.25068876 -0.12282516 0.044767965 0.19265723 -0.22626463 0.14172336 -0.10008667
0.385726 -0.13125227 0.19045362 -0.098042056 0.23635593 -0.04201754 -0.12028872 0.41336834
0.04105927 -0.17280762 0.1477992 -0.23317924 -0.008048853 -0.1861327 -0.09235432 0.045189343
-0.34947658 -0.09774099 0.04460937 0.024960445 -0.06938011 -0.11805327 -0.049698364 0.09898303
-0.040205464 0.1605798 -0.036319934 0.10650751 -0.06566594 0.5725301 -0.16722155 0.2285104
0.04072299 -0.10751741 0.16117942 0.049745616 -0.026771812 -0.5392226 0.18955307 0.318471
0.13896859 0.24269111 0.23712173 -0.19666797 -0.18323177 -0.011634099 -0.023039035 -0.23567913
-0.106568195 0.1826948 -0.049643535 0.15564895 -0.24399826 0.08078125 0.04722611 -0.30554

fc3.bias f4 [2]
00000000: 4f00 f6bc 69a3 1b3f
-0.030029444 0.6079622
