CS237B_Win25_HW3-main/policies/intersection_all_CoIL.pt (torch, 23676 bytes, 10 tensors)

fc1.weight f4 [64, 5]
0.99612993 0.11977758 -0.54498094 0.310249 -0.18637644 0.351421 -0.40481204 -0.013262714
-2.4047527 0.39414722 -0.032175314 -0.15885088 -0.16984326 0.044613566 0.15747628 0.26247048
-0.21836221 -0.57416564 -0.38058242 -0.035979457 0.13824749 -0.17907032 0.83299994 -1.6900204
0.18731664 -0.33007604 0.18253578 0.20478906 -0.008213215 -0.1551741 0.10245106 0.5209626
-0.010266022 -0.5385088 -0.5114457 0.20669194 0.105720684 -1.4020141 -0.8740357 -0.26572484
0.029120289 -0.11685715 0.19207002 0.01439774 0.10626258 -0.19671166 -0.14116031 -0.12504548
0.08864272 -0.1540861 0.014707082 0.18742625 0.6848017 0.5300908 -0.19971919 0.10278672
0.42905828 -0.21166065 0.14253195 -0.45320082 -0.11943475 0.3201224 -0.33005828 0.29103583
-0.28289026 -0.116970286 0.1528424 0.7526418 -0.26081526 -0.09119682 0.038832385 0.08289321
-0.14726786 -0.17462617 0.27164182 0.6200539 0.009970214 -0.092157796 0.16678907 0.2325477
-0.40609345 -0.15472423 0.3194219 0.56330955 -0.30554587 0.031117508 -0.40179285 -0.01736105
-0.58981526 0.40807408 -0.11375306 0.36615792 -0.6516055 -0.18366565 0.034732986 0.26053667
0.23041007 -0.17335379 0.20747225 0.15482086 -1.6549324 -0.25402567 0.8156276 2.1529317
-0.15985261 -0.096477136 -0.024539335 -0.17833558 -0.29304963 0.3217647 -0.007280702 0.39413995
-0.046681717 0.22987431 -0.39923456 0.12503955 -0.029630715 -0.57875365 -0.3675819 0.022958793
-0.431106 0.15166824 0.97444975 0.8621448 0.26478645 -0.10059231 -0.14022604 0.033125143
-0.029356048 -0.14896806 0.28864136 0.27990445 0.043469373 -0.19686338 0.17689621 -0.17725809
0.15776339 -0.24029544 0.45890138 0.32091376 -0.21371299 -0.10889582 -0.14192513 -0.30452234
-0.09708095 -0.005206309 0.028499627 -0.49800545 0.5121076 -0.10560954 0.12032638 0.14905949
-0.4599774 -0.15207197 -0.06642851 -0.077318646 -0.009828819 0.9632012 0.9640176 0.00647477
-0.09529993 -0.37023398 -0.120648876 1.6110955 0.36885586 -0.2706422 -0.048138883 0.64452076
0.6775189 0.021541957 0.097906254 0.048310596 0.72774875 -0.68981874 0.20310487 -0.1581583
0.9541672 1.0759199 0.25656465 0.09272888 0.051033743 -0.049761385 -0.11114153 0.4418125
0.049884267 0.24523468 0.540118 -0.27530402 0.11915991 -0.0085894205 -0.47116935 0.09969835
0.9836465 -0.7749926 -0.1071536 -0.077976845 0.07310897 -0.50307465 1.859043 -0.19334991
-0.09277486 0.314375 0.10869411 2.9163332 -0.3185348 -0.016135626 0.014642487 -0.25249648
0.8214022 -0.15336318 -0.009044738 0.46711808 -0.4921616 0.13824078 0.030621404 0.11091789
0.24536629 0.24378195 0.03749714 0.106494494 -0.037887376 0.23468877 -0.89332914 0.5133115
-0.24824667 -2.18792 -0.38378975 0.577272 1.6972097 0.175412 -0.21624571 0.0026207685
0.30723375 1.29417 -0.0023117638 -0.12812352 -0.63092905 -0.21038929 -0.19872679 0.18904655
-0.44243333 0.0046029487 -0.31447572 -0.4069961 -0.15003382 -0.12986232 0.15683144 -0.66215855
0.2480119 0.3735824 -0.21318649 -2.039925 -1.8190279 0.12640904 0.17729661 -0.098520964
00000000: 5f02 7f3f f34d f53d df83 0bbf f5d8 9e3e
00000010: 77d9 3ebe 74ed b33e 8643 cfbe db4b 59bc
00000020: 78e7 19c0 aacd c93e 43ca 03bd cea9 22be
00000030: 64eb 2dbe b7bc 363d 7641 213e 8862 863e
00000040: 589a 5fbe 85fc 12bf b3db c2be 325f 13bd
00000050: c090 0d3e 365e 37be 7c3f 553f 9752 d8bf
00000060: efcf 3f3e baff a8be a9ea 3a3e 39b4 513e
00000070: b890 06bc f6e5 1ebe ddd1 d13d ce5d 053f
00000080: d132 28bc b6db 09bf 1bee 02bf 0da7 533e
00000090: 1684 d83d 3375 b3bf cec0 5fbf 160d 88be
000000a0: ac8d ee3c cd52 efbd 01ae 443e 80e4 6b3c
000000b0: 32a0 d93d c86e 49be 548c 10be ec0b 00be
000000c0: 508a b53d bfc8 1dbe f9f5 703c abec 3f3e
000000d0: 2a4f 2f3f 08b4 073f 3083 4cbe d881 d23d
000000e0: 87ad db3e 92bd 58be e5f3 113e f009 e8be
000000f0: 359a f4bd 15e7 a33e 66fd a8be a602 953e
00000100: fed6 90be 1e8e efbd b882 1c3e 22ad 403f
00000110: 9489 85be 66c5 babd b50e 1f3d eac3 a93d
00000120: 63cd 16be 34d1 32be a314 8b3e dabb 1e3f
00000130: 1c5a 233c 3abd bcbd c1ca 2a3e fc20 6e3e
00000140: 7beb cfbe 0770 1ebe 448b a33e 0e35 103f
00000150: 8270 9cbe 25ea fe3c cbb7 cdbe c338 8ebc
00000160: 22fe 16bf 16ef d03e 5df7 e8bd 0d79 bb3e
00000170: 9ecf 26bf d912 3cbe 2d44 0e3d 1065 853e
00000180: 9ef0 6b3e a883 31be 9b73 543e 5c89 1e3e
00000190: d3d4 d3bf a70f 82be f8cc 503f a2c9 0940
000001a0: 67b0 23be ce95 c5bd b706 c9bc 9a9d 36be
000001b0: 9a0a 96be 58be a43e f492 eebb b6cc c93e
000001c0: 5435 3fbd 2c64 6b3e 7968 ccbe 5e0a 003e
000001d0: 1dbc f2bc 3329 14bf b233 bcbe 1414 bc3c
000001e0: edb9 dcbe eb4e 1b3e 8a75 793f 86b5 5c3f
000001f0: 1792 873e 5703 cebd 6a97 0fbe 3bae 073d
00000200: 187c f0bc 158b 18be cdc8 933e a34f 8f3e
00000210: f10c 323d 8e96 49be 4824 353e 2583 35be
00000220: ba8c 213e 0210 76be 1ff5 ea3e cf4e a43e
00000230: 94d7 5abe c604 dfbd d254 11be 5aea 9bbe
00000240: 61d2 c6bd af99 aabb 0d78 e93c 92fa febe
00000250: 7c19 033f d149 d8bd ad6d f63d 0da3 183e
00000260: 2882 ebbe c1b8 1bbe ac0b 88bd 3d59 9ebd
00000270: 0e09 21bc 5b94 763f dcc9 763f 4f2a d43b
00000280: 9c2c c3bd 4f8f bdbe c216 f7bd 6138 ce3f
00000290: adda bc3e 9d91 8abe 472d 45bd 50ff 243f
000002a0: e171 2d3f c278 b03c 1383 c83d 55e1 453d
000002b0: be4d 3a3f f697 30bf b9fa 4f3e 40f4 21be
000002c0: 4d44 743f beb7 893f 715c 833e a4e8 bd3d
000002d0: c208 513d 98d2 4bbd 2c9e e3bd 3f35 e23e
000002e0: 7253 4c3d cd1e 7b3e 2c45 0a3f a6f4 8cbe
000002f0: 1c0a f43d a4ba 0cbc 1c3d f1be a62e cc3d
00000300: 42d0 7b3f ea65 46bf 5973 dbbd 53b2 9fbd
00000310: 28ba 953d 80c9 00bf 1ff5 ed3f 85fd 45be
00000320: bf00 bebd c3f5 a03e 049b de3d 34a5 3a40
00000330: fe16 a3be dc2e 84bc 0be7 6f3c 3847 81be
00000340: 6a47 523f 3d0b 1dbe 6130 14bc 1a2a ef3e
00000350: 9bfc fbbe fe8e 0d3e bdd9 fa3c eb28 e33d
00000360: 4d41 7b3e faa1 793e 9a96 193d c919 da3d
00000370: cb2f 1bbd 4152 703e 38b1 64bf 6268 033f
00000380: 6034 7ebe e206 0cc0 1780 c4be 19c8 133f
00000390: 2b3e d93f 349f 333e 846f 5dbe 33c1 2b3b
000003a0: be4d 9d3e 5da7 a53f f680 17bb d032 03be
000003b0: 9184 21bf 4a70 57be 097f 4bbe 6b95 413e
000003c0: 9f86 e2be 55d4 963b f602 a1be cb61 d0be
000003d0: 77a2 19be a1fa 04be 6c98 203e 3983 29bf
000003e0: d5f6 7d3e 3146 bf3e 8f4d 5abe 228e 02c0
000003f0: e8d5 e8bf 5f71 013e 3e8d 353e 5cc5 c9bd

fc1.bias f4 [64]
0.2033681 -3.3416495 2.108763 1.3329293 -2.3706207 0.13254082 0.0057389657 0.5771951
-1.6835428 0.0 -0.18609628 0.74239475 0.40347266 0.69445443 0.078516446 0.06451599
0.20100111 -2.113867 -0.22764689 0.0 0.84391814 -0.19086868 -0.14944829 -1.7947917
1.273309 -0.14735642 0.0 -0.16339552 -0.035201684 0.5429611 -0.52370673 0.88658196
0.15857628 -0.0438038 -0.829432 -0.13203101 -1.9820905 0.09028778 -0.42279494 1.9192948
0.7847552 1.3481052 -0.20154433 0.14294055 1.1942557 0.64837974 1.7154942 -0.12693362
-0.1834398 -0.014804329 -0.022146052 -0.99241656 -0.13031083 0.9919974 -1.037222 0.43105716
0.007419752 0.14019415 -1.3608881 -0.29918662 0.010580015 -3.3775163 -0.17980191 -0.5083769
00000000: ba3f 503e 96dd 55c0 f9f5 0640 6d9d aa3f
00000010: 40b8 17c0 c8b8 073e ef0d bc3b 0fc3 133f
00000020: 557e d7bf 0000 0000 0690 3ebe 950d 3e3f
00000030: f893 ce3e c4c7 313f 3bcd a03d f620 843d
00000040: 3cd3 4d3e 9949 07c0 441c 69be 0000 0000
00000050: 050b 583f 1473 43be f908 19be bcbb e5bf
00000060: cafb a23f 9ae4 16be 0000 0000 2851 27be
00000070: a42f 10bd 80ff 0a3f a511 06bf 09f7 623f
00000080: d261 223e 9d6b 33bd a855 54bf 2333 07be
00000090: 24b5 fdbf cde8 b83d 9478 d8be 74ab f53f
000000a0: b7e5 483f b68e ac3f a361 4ebe 025f 123e
000000b0: 5fdd 983f 37fc 253f 5095 db3f e3fa 01be
000000c0: a5d7 3bbe db8d 72bc a36b b5bc 030f 7ebf
000000d0: 3470 05be 8bf3 7d3f b1c3 84bf 86b3 dc3e
000000e0: 6421 f33b 0e8f 0f3e 9531 aebf fd2e 99be
000000f0: cd57 2d3c 3a29 58c0 fe1d 38be fd24 02bf

fc2.weight f4 [64, 64]
-0.050916236 -0.11967151 0.064651966 -0.0032516527 -0.016077831 -0.107833825 -0.12633741 0.17243442
0.13260251 0.06333059 0.06669821 0.07684238 0.033195093 -0.0552231 0.15355852 0.010090752
0.13278833 0.21146965 0.08631858 -0.04096406 0.18440977 -0.25945076 0.47363335 -0.05244247
0.22993556 -0.106176764 -0.059061423 0.017383097 -0.07592958 -0.12733293 -0.14051843 -0.13498434
-0.5090381 -0.0836579 -0.21074602 0.08420218 -0.24037944 -0.15967667 -0.33509266 0.053689502
-0.106695294 0.1452172 -0.20163411 0.14168227 0.05142098 -0.10013935 0.3412466 -0.022272078
0.15739134 -0.036049668 0.096703686 0.033082508 0.055092856 0.29357588 0.37106547 0.08784065
0.035267185 -0.21736318 0.13041548 -0.00015018966 0.1329687 0.01470372 0.13373041 -0.013257219
-0.8138752 -0.54068106 -0.3066778 0.36584798 0.6603409 0.15828966 0.39336133 0.1170917
-0.47949854 0.27273446 0.02268591 0.6141092 0.54893196 -0.29295152 -0.24496321 -0.26554698
0.33700073 -0.060216088 -0.051657088 -0.010241407 0.11747396 -0.16333398 0.20452447 0.07404747
-0.10720994 0.25398886 -0.21643259 -0.03984503 0.18953206 0.31620112 0.056470957 -0.14549492
-0.027109291 0.3210239 -0.016732523 -0.08150406 -0.021529363 -0.19761987 0.21617174 0.21281177
0.0065083196 0.23852496 -0.12814985 -0.20269524 -0.040700532 0.09726611 0.1363642 0.13316841
0.1287935 -0.057812106 -0.011311953 0.057804435 -0.258554 -0.05102913 -0.2843478 -1.3949462
0.049272157 0.03194992 0.67511904 -0.20737015 0.24764863 0.00017053202 0.27272433 0.74326944
-0.0119701205 0.5777966 0.9084726 0.16434404 0.07755298 0.07664737 0.2732253 0.16866873
-0.34474587 0.05080276 0.320576 0.37080294 0.13336502 -0.15736835 -0.2620613 -0.093864284
0.17580181 0.013105346 0.23918338 -0.25648963 0.06059674 -0.13467628 -0.76785314 -0.26092795
-0.34114504 -0.16036582 -0.09574803 0.069372825 0.21722361 -0.01609805 0.0017232442 -0.03324074
-0.09320155 -0.0036889839 -0.0067813066 -0.094443254 -0.17017551 0.07599909 0.0774767 0.11908669
0.4462387 0.23535968 -0.00846279 0.12161975 0.052232835 0.23982914 0.38543034 0.06274502
0.08455788 -0.20740816 0.16044179 0.17407683 0.05321989 0.037440088 -0.050566632 -0.08699648
0.047918793 0.053704396 0.039843492 0.009105285 0.96296763 0.8076663 0.109866105 -0.34333345
-0.13178183 -0.06492206 -0.108988956 0.12218839 -0.13310891 -0.018321734 -0.7369228 0.08193553
0.042377274 0.26250276 0.5074378 -0.23473331 -0.027453683 -0.14017361 -0.3017775 -0.28951165
0.07523691 0.10785989 0.8031949 -0.062178265 -0.082437105 -0.29778004 -0.18485047 0.25691712
-0.21657756 0.27750686 -0.31603864 -0.20025587 0.11058798 0.3179731 -0.1276199 0.16094871
-0.3063947 0.2547771 -0.10792428 -0.20111382 0.33218405 -0.045156118 0.13268867 0.15069252
-0.28611216 0.18582417 0.12334327 -0.16293782 -0.0859501 -0.0751263 -0.023183474 -0.06094447
0.15563318 -0.28932726 0.119694345 -0.713852 -0.09489871 0.078792065 0.78920585 -0.09751135
0.04742171 -0.23270443 -0.07668804 -0.2886479 1.2230653 0.38567787 0.07165528 -0.36535937
00000000: 8b8d 50bd 5616 f5bd 4068 843d ae19 55bb
00000010: a8b5 83bc fbd7 dcbd 985e 01be a692 303e
00000020: f4c8 073e 78b3 813d 1299 883d 8a5f 9d3d
00000030: 94f7 073d 9e31 62bd 723e 1d3e ae53 253c
00000040: aaf9 073e 808b 583e ccc7 b03d eec9 27bd
00000050: ead5 3c3e bbd6 84be 1280 f23e eacd 56bd
00000060: 3a74 6b3e 3473 d9bd 64ea 71bd ff66 8e3c
00000070: f880 9bbd 9063 02be 10e4 0fbe 5639 0abe
00000080: 5250 02bf d554 abbd cecd 57be 3172 ac3d
00000090: 0726 76be 4882 23be 4491 abbe 86e9 5b3d
000000a0: 1083 dabd d1b3 143e 2c79 4ebe 2815 113e
000000b0: ce9e 523d dc15 cdbd e0b7 ae3e ef73 b6bc
000000c0: 322b 213e d1a8 13bd 950c c63d 8681 073d
000000d0: 0ca9 613d 944f 963e 4bfc bd3e cce5 b33d
000000e0: 5374 103d 7494 5ebe a38b 053e 3b7c 1db9
000000f0: f228 083e dfe7 703c a0f0 083e cf34 59bc
00000100: 205a 50bf 136a 0abf df04 9dbe 6d50 bb3e
00000110: 1a0c 293f af16 223e a866 c93e c6cd ef3d
00000120: d580 f5be daa3 8b3e cdd7 b93c 4336 1d3f
00000130: ce86 0c3f befd 95be a3d7 7abe c6f5 87be
00000140: 5c8b ac3e 25a5 76bd 6296 53bd 93cb 27bc
00000150: 3096 f03d 0641 27be dd6e 513e 33a6 973d
00000160: e390 dbbd d40a 823e 81a0 5dbe 8b34 23bd
00000170: b114 423e 1de5 a13e 174e 673d 9ffc 14be
00000180: 4e14 debc 3f5d a43e a512 89bc 9aeb a6bd
00000190: 595e b0bc dd5c 4abe 205c 5d3e 54eb 593e
000001a0: be43 d53b e33f 743e b739 03be 578f 4fbe
000001b0: 9ab5 26bd 7433 c73d 0fa3 0b3e 4d5d 083e
000001c0: 71e2 033e 63cc 6cbd c555 39bc 58c4 6c3d
000001d0: 3161 84be ec03 51bd 0996 91be 998d b2bf
000001e0: 9ad1 493d ebdd 023d 9ad4 2c3f d758 54be
000001f0: 9a97 7d3e d7d0 3239 86a2 8b3e e846 3e3f
00000200: 531e 44bc 7aea 133f a991 683f ce49 283e
00000210: 19d4 9e3d 4cf9 9c3d 30e4 8b3e 7fb7 2c3e
00000220: 8882 b0be 8e16 503d 8a22 a43e e2d9 bd3e
00000230: d790 083e 2b25 21be e62c 86be eb3b c0bd
00000240: 6405 343e ceb7 563c 7dec 743e 9c52 83be
00000250: 4a34 783d 94e8 09be 0692 44bf 5998 85be
00000260: 90aa aebe f036 24be 8b17 c4bd 5713 8e3d
00000270: de6f 5e3e 0fe0 83bc 7bde e13a 7127 08bd
00000280: 74e0 bebd e1c2 71bb b935 debb 776b c1bd
00000290: 7d42 2ebe 69a5 9b3d 1bac 9e3d b9e3 f33d
000002a0: 6679 e43e 2102 713e 84a7 0abc c713 f93d
000002b0: 19f2 553d c595 753e 2057 c53e 7680 803d
000002c0: af2c ad3d ce62 54be da4a 243e 3241 323e
000002d0: 19fd 593d c75a 193d f51e 4fbd 362b b2bd
000002e0: 7f46 443d 24f9 5b3d ee32 233d 552e 153c
000002f0: 0c85 763f 38c3 4e3f 7b01 e13d 67c9 afbe
00000300: d1f1 06be dbf5 84bd 9a35 dfbd e83d fa3d
00000310: b44d 08be 7617 96bc f9a6 3cbf d1cd a73d
00000320: cb93 2d3d c366 863e 72e7 013f ee5d 70be
00000330: 8ce6 e0bc ac89 0fbe 9582 9abe df3a 94be
00000340: cf15 9a3d a5e5 dc3d 2e9e 4d3f a3ae 7ebd
00000350: c9d4 a8bd a076 98be 7149 3dbe a48a 833e
00000360: 82c6 5dbe 6115 8e3e d1cf a1be e00f 4dbe
00000370: f37b e23d 5fcd a23e cbae 02be bdcf 243e
00000380: c4df 9cbe 2572 823e 6807 ddbd c8f0 4dbe
00000390: 0714 aa3e 9ff5 38bd 8adf 073e 244f 1a3e
000003a0: 4b7d 92be b148 3e3e 659b fc3d 2cd9 26be
000003b0: 9b06 b0bd d1db 99bd 45eb bdbc e9a0 79bd
000003c0: 4e5e 1f3e b422 94be 4f22 f53d 01bf 36bf
000003d0: 415a c2bd bc5d a13d 6509 4a3f 08b4 c7bd
000003e0: 443d 423d 124a 6ebe 9e0e 9dbd a8c9 93be
000003f0: 678d 9c3f 9277 c53e 01c0 923d 6210 bbbe

fc2.bias f4 [64]
-0.050644387 -0.15931717 -0.05301614 -0.11371021 0.08201239 0.07961751 0.012483882 -0.07300882
0.03228379 0.017362157 -0.046917696 0.017800797 0.134805 -0.0036021785 0.035204187 0.011802072
0.06337405 0.105925374 -0.03722054 0.07937941 0.02783868 0.044048715 0.068999074 -0.04800036
-0.057410326 -0.060326215 0.07367228 0.0905593 -0.052991413 -0.037939202 -0.054679386 -0.04046056
-0.039490618 0.05038813 -0.1218395 0.052609246 0.028150665 0.017102566 -0.016461492 -0.06041065
0.101181254 0.16937283 -0.0374102 0.080823496 0.071475536 0.057077684 0.14762671 0.028533539
-0.07566087 0.03448542 -0.08243673 -0.015764488 0.06673475 0.004780854 0.028800527 -0.07392207
-0.08315239 -0.06249754 -0.051414113 -0.10987101 -0.11919929 -0.06994442 0.03711018 0.13077956
00000000: 7d70 4fbd 0a24 23be 7427 59bd e6e0 e8bd
00000010: 1df6 a73d 810e a33d 3289 4c3c a685 95bd
00000020: 023c 043d 153b 8e3c c52c 40bd fad2 913c
00000030: 520a 0a3e 8712 6cbb 4432 103d 7a5d 413c
00000040: 41ca 813d 67ef d83d 9174 18bd ac91 a23d
00000050: f20d e43c 6d6c 343d 634f 8d3d 079c 44bd
00000060: 1727 6bbd 9f18 77bd 7ee1 963d 2777 b93d
00000070: 860d 59bd 2366 1bbd 7ef7 5fbd f9b9 25bd
00000080: eac0 21bd c963 4e3d fd86 f9bd cb7c 573d
00000090: 399c e63c ae1a 8c3c 40da 86bc 2871 77bd
000000a0: 1e38 cf3d 1270 2d3e 703b 19bd ca86 a53d
000000b0: c461 923d 4aca 693d 752b 173e 2bbf e93c
000000c0: 16f4 9abd 9540 0d3d 97d4 a8bd 8724 81bc
000000d0: 3bac 883d b6a8 9c3b 15ef eb3c 7464 97bd
000000e0: cd4b aabd 6cfd 7fbd 9b97 52bd 0d04 e1bd
000000f0: c21e f4bd 053f 8fbd d800 183d 14eb 053e

left.0.weight f4 [2, 64]
-0.15298192 0.12234889 -0.21940814 -0.26800418 0.11402797 -0.087972715 -0.09445921 0.056772605
-0.32780728 -0.00075804966 0.24183835 0.2074534 -0.011813856 -0.19063054 -0.0019307628 -0.19497737
-0.13282453 -0.15119046 -0.01693804 0.24001676 -0.0019726933 0.00042462675 0.17865987 0.15688646
0.21868645 -0.15173385 0.12782398 0.16464134 -0.17628527 0.21355085 -0.0861114 0.028696746
0.12469776 -0.01851343 -0.04109049 -0.268447 0.056368984 0.002763237 0.11339785 -0.12117273
-0.24684551 0.11254994 -0.1811448 0.19947228 -0.17258018 -0.11757073 0.039972078 0.10095386
0.18565914 -0.032147553 0.07038691 0.17524785 0.23705792 -0.106958956 0.121896684 -0.08299106
0.19412304 0.05879349 -0.12533832 0.06308206 0.053306684 0.10357112 0.12940969 -0.122707464
-0.20266378 0.027369458 0.16076107 -0.26182207 -0.10591072 -0.18903662 -0.121694535 -0.119987294
0.06553083 1.2230959 0.16624747 -0.22131348 -0.048453588 -0.04977841 -0.6615017 -0.28645742
0.105014965 0.026039308 0.5698083 -0.030401507 0.73589534 0.45006168 -0.45475566 -0.06322504
0.0008080227 -0.15824303 -0.22968425 -0.61113024 0.0070566162 -0.59018815 -0.5203725 0.67916685
-0.057665672 0.12218964 -0.369071 -0.024056247 0.13130194 -0.89388466 -0.017594878 -0.00045121965
-0.027799873 -0.23839016 -0.27884877 0.07890115 -0.300278 -0.31813854 -0.049120415 -0.20002268
0.19865271 0.24987313 0.19069223 0.18010524 -0.03082376 0.13281102 0.46508068 0.25833735
-0.16233902 -0.30755398 0.28134778 -0.025140284 -0.18819787 -0.19039802 0.27275664 -0.141055
00000000: 4ba7 1cbe 0e92 fa3d 87ac 60be d837 89be
00000010: 7f87 e93d 0a2b b4bd d573 c1bd 648a 683d
00000020: 5bd6 a7be dab7 46ba 79a4 773e aa6e 543e
00000030: e78e 41bc a734 43be a611 fdba 26a8 47be
00000040: 2703 08be acd1 1abe a5c1 8abc f4c6 753e
00000050: 4d48 01bb 70a0 de39 9df2 363e d8a6 203e
00000060: 57ef 5f3e 1e60 1bbe 4ae4 023e bd97 283e
00000070: 2084 34be 13ad 5a3e 2c5b b0bd 7015 eb3c
00000080: 8a61 ff3d 7aa9 97bc 804e 28bd e371 89be
00000090: 2ae3 663d 6d17 353b 223d e83d 6929 f8bd
000000a0: 12c5 7cbe 9580 e63d 067e 39be 7642 4c3e
000000b0: dcb8 30be ecc8 f0bd c3b9 233d e6c0 ce3d
000000c0: 6e1d 3e3e 27ad 03bd 0327 903d 2c74 333e
000000d0: 50bf 723e 4c0d dbbd f8a4 f93d 38f7 a9bd
000000e0: 31c8 463e 71d1 703d b058 00be 2b31 813d
000000f0: 1c58 5a3d 181d d43d f983 043e 0d4e fbbd
00000100: 1887 4fbe ea35 e03c 8d9e 243e 8b0d 86be
00000110: b8e7 d8bd d192 41be fc3a f9bd e6bb f5bd
00000120: 0735 863d 688e 9c3f c73c 2a3e 00a0 62be
00000130: 4577 46bd 72e4 4bbd 2d58 29bf 8caa 92be
00000140: 1612 d73d 6350 d53c f5de 113f 950c f9bc
00000150: a363 3c3f 7c6e e63e bcd5 e8be 217c 81bd
00000160: 7cd1 533a 760a 22be 5932 6bbe 0873 1cbf
00000170: 303b e73b 9216 17bf 2237 05bf e1dd 2d3f
00000180: d732 6cbd 903e fa3d e0f6 bcbe 9b11 c5bc
00000190: 0474 063e a0d5 64bf 2223 90bc ad91 ecb9
000001a0: 8fbc e3bc 8d1c 74be 44c5 8ebe ed96 a13d
000001b0: 0abe 99be 0ee3 a2be 7d32 49bd bfd2 4cbe
000001c0: 9e6b 4b3e bede 7f3e d344 433e 826d 383e
000001d0: 1c82 fcbc 9dff 073e 0e1f ee3e cb44 843e
000001e0: 333c 26be b777 9dbe d10c 903e fff2 cdbc
000001f0: f1b6 40be b3f7 42be c2a6 8b3e b970 10be

left.0.bias f4 [2]
-0.001869344 0.0068288627
00000000: c704 f5ba a7c4 df3b

straight.0.weight f4 [2, 64]
0.0071171457 0.093827054 0.03583646 0.29759425 -0.16256143 0.27932566 -0.02628191 0.19239466
0.009066566 0.0003329925 0.12308019 -0.09879896 -0.1567595 0.012115642 0.0006676629 0.2586096
-0.13936315 -0.17725836 -0.05849494 0.11715066 -0.00029573927 -0.006704204 0.22490346 -0.05410764
0.13518465 0.13196048 -0.15537703 -0.04861571 -0.004096419 0.057958387 -0.19569236 0.010516733
0.0014136714 0.1734177 0.22061093 0.22231099 -0.030915549 0.00058360124 0.0057686106 -0.012696013
0.00067649625 0.28626332 -0.004845067 0.25968042 -0.029476786 -0.0139190955 -0.1957872 -0.051489446
-0.12554425 0.121280715 -0.0027332555 0.025694445 0.04446048 0.010693998 0.0034367593 0.059539616
-0.27102688 -0.024679076 0.107730314 -0.0025241068 0.089737214 -0.24412626 -0.0046643433 -0.17865394
-1.7571317 0.031704325 0.22070421 0.35466212 0.20957157 -0.16472211 -0.44696996 0.73025066
0.18837233 1.1861789 0.24093862 0.3449583 0.034551635 0.1580394 -0.22365321 0.08764832
0.20080215 0.3924774 -0.051205076 -0.1728178 -0.61664325 1.898188 0.07317351 -0.34555787
-0.15529352 0.17478858 0.3670157 1.1817648 -0.33640915 1.2587466 0.5974713 -0.11611812
0.15868057 0.2612572 0.4426416 0.48653036 0.12811132 0.2824341 0.0013145991 0.035136756
-0.21031708 -0.22372049 -0.022593008 -0.046658684 0.34519237 0.6193315 -0.52922845 -0.012622563
0.3316752 -0.22584939 1.3975377 0.38120788 -0.029987732 -0.0019124312 -0.38919982 -0.02349029
0.09994566 0.049328797 -0.4261758 0.34223005 0.56397784 0.27060902 0.049568653 0.22886759
00000000: f236 e93b 6628 c03d 40c9 123d 465e 983e
00000010: 8176 26be c603 8f3e 294d d7bc 1b03 453e
00000020: ef8b 143c 7f95 ae39 7711 fc3d 1c57 cabd
00000030: 9085 20be b080 463c 1906 2f3a 7a68 843e
00000040: 37b5 0ebe 3783 35be 6498 6fbd afec ef3d
00000050: 740d 9bb9 f0ae dbbb 184d 663e f99f 5dbd
00000060: d86d 0a3e a620 073e 281b 1fbe 4421 47bd
00000070: 413b 86bb c665 6d3d 9463 48be 604e 2c3c
00000080: f14a b93a 6994 313e d5e7 613e 7ea5 633e
00000090: 9b42 fdbc d1fc 183a 9d06 bd3b f002 50bc
000000a0: e556 313a 1b91 923e 5ec3 9ebb d5f4 843e
000000b0: 4d79 f1bc eb0c 64bc 717c 48be 99e6 52bd
000000c0: ac8e 00be 0662 f83d 6b20 33bb 287d d23c
000000d0: 311c 363d e135 2f3c 413b 613b d0df 733d
000000e0: 09c4 8abe c62b cabc b6a1 dc3d 7c6b 25bb
000000f0: 25c8 b73d 3cfc 79be 59d7 98bb 0ff1 36be
00000100: b1e9 e0bf 65dc 013d 4900 623e 4696 b53e
00000110: ee99 563e eaac 28be 3fd9 e4be b5f1 3a3f
00000120: ade4 403e b6d4 973f 9db8 763e 609e b03e
00000130: 0486 0d3d 15d5 213e 5905 65be f680 b33d
00000140: 149f 4d3e ccf2 c83e 6abc 51bd 26f7 30be
00000150: 55dc 1dbf d3f7 f23f fedb 953d f6ec b0be
00000160: 4405 1fbe c7fb 323e 7be9 bb3e 1244 973f
00000170: d23d acbe 9c1e a13f e1f3 183f 56cf edbd
00000180: 297d 223e 81c3 853e eba1 e23e 821a f93e
00000190: 9d2f 033e 349b 903e a04e ac3a 8feb 0f3d
000001a0: 5c5d 57be fc16 65be f914 b9bc 2d1d 3fbd
000001b0: 0ebd b03e 828c 1e3f 847b 07bf dece 4ebc
000001c0: 55d1 a93e 1045 67be 84e2 b23f ae2d c33e
000001d0: d5a8 f5bc 8baa faba 3345 c7be b56e c0bc
000001e0: 4fb0 cc3d fe0c 4a3d b733 dabe c738 af3e
000001f0: da60 103f 448d 8a3e 8008 4b3d 445c 6a3e

straight.0.bias f4 [2]
-0.009001938 -0.008157734
00000000: dd7c 13bc 04a8 05bc

right.0.weight f4 [2, 64]
-0.14658324 -0.26147336 -0.28891927 0.20485447 0.06635079 -0.19205141 -0.07901959 -0.20513016
0.03379295 -0.0051068375 0.018190403 -0.1121086 0.27533963 -0.068202905 0.003234788 0.014320001
0.06452506 -0.1708434 -0.29401124 -0.15055957 -0.011902293 -0.11844067 -0.18483576 0.09114936
0.0336034 -0.116050005 -0.27305904 -0.23744056 0.10092709 -0.28938267 0.18861592 -0.0071729952
-0.2825705 0.025884314 0.14223145 -0.2940677 0.06882905 0.0049505453 0.20931695 -0.10599375
-0.12674741 -0.29838425 0.04188587 -0.21154694 0.2266515 0.16140716 0.037529215 0.040941887
0.00967838 0.095080875 0.08112429 -0.045375753 0.022236794 -0.09748575 -0.05040806 0.17194064
-0.23974249 -0.22912322 0.12220843 0.25937164 0.0036506788 0.08225346 0.079074904 -0.21133496
-0.35001332 -0.3032714 -0.36384955 -0.055562105 0.06726767 0.05117984 0.49259773 0.18032086
0.7885201 0.14480893 0.36166987 0.28949818 0.1075476 0.1611078 -1.3084743 0.056877654
-0.07860249 -0.37635025 0.14958353 -0.019286867 -0.546268 0.88119245 0.0140383765 -0.388003
0.059091218 0.7037848 -0.2967183 -0.04608323 0.12572108 0.22158763 0.32301468 1.7011062
-0.23649351 0.27799782 -0.0939975 0.47322884 -0.2867386 -0.07309723 0.4588942 -0.07776597
0.30277628 -0.13716882 0.008401634 -0.19096474 -0.03398365 0.12306359 -0.016291205 0.108325616
0.1886686 0.04604614 0.7688619 -0.7592086 -0.04852007 0.19829352 -0.25432646 -0.19806415
-0.2585185 0.0909689 0.07428985 0.072282605 0.06551383 -0.3163658 0.18664873 -0.08920287
00000000: eb19 16be d6df 85be 3aed 93be 5fc5 513e
00000010: ece2 873d 20a9 44be 06d5 a1bd a40d 52be
00000020: 7a6a 0a3d 4257 a7bb 0a04 953c 3299 e5bd
00000030: 51f9 8c3e f7ad 8bbd bdfe 533b 709e 6a3c
00000040: b725 843d 92f1 2ebe a488 96be 4a2c 1abe
00000050: d601 43bc 0691 f2bd 9645 3dbe 84ac ba3d
00000060: b8a3 093d a0ab edbd 65ce 8bbe 9e23 73be
00000070: ddb2 ce3d f729 94be 8824 413e 720b ebbb
00000080: 15ad 90be 570b d43c 1fa5 113e 0b90 96be
00000090: 3ff6 8c3d 2f38 a23b 2f57 563e 4013 d9bd
000000a0: 13ca 01be d2c5 98be 8590 2b3d c39f 58be
000000b0: 5517 683e eb47 253e 3cb8 193d aeb2 273d
000000c0: 1192 1e3c c3b9 c23d 7e24 a63d eddb 39bd
000000d0: f029 b63c 9ca6 c7bd af78 4ebd 3511 303e
000000e0: 0e7f 75be 479f 6abe 6a48 fa3d 5ccc 843e
000000f0: 3a40 6f3b 8174 a83d 06f2 a13d 3168 58be
00000100: f234 b3be 6446 9bbe 7d4a babe 1795 63bd
00000110: a2c3 893d f4a1 513d c535 fc3e 08a6 383e
00000120: 74dc 493f cb48 143e cb2c b93e 1b39 943e
00000130: eb41 dc3d 71f9 243e 167c a7bf 8bf8 683d
00000140: 58fa a0bd fbb0 c0be 6d2c 193e 7eff 9dbc
00000150: 38d8 0bbf d495 613f 3801 663c 54a8 c6be
00000160: a209 723d 3e2b 343f 76eb 97be c5c1 3cbd
00000170: 07bd 003e dee7 623e 2e62 a53e d9bd d93f
00000180: 5b2b 72be bb55 8e3e c381 c0bd 0d4b f23e
00000190: 67cf 92be 00b4 95bd 2ef4 ea3e c443 9fbd
000001a0: 7e05 9b3e fc75 0cbe 02a7 093c 438c 43be
000001b0: 7132 0bbd c308 fc3d 2275 85bc d2d9 dd3d
000001c0: 5732 413e e19a 3c3d 22d4 443f 7f5b 42bf
000001d0: fbbc 46bd 750d 4b3e 1437 82be 54d1 4abe
000001e0: 895c 84be e74d ba3d 4725 983d e708 943d
000001f0: 1d2c 863d b3fa a1be d820 3f3e ffaf b6bd

right.0.bias f4 [2]
-0.0010338288 0.09146107
00000000: 8a81 87ba f14f bb3d
