CS237B_Win25_HW3-main/policies/intersection_left_IL.pt (torch, 21386 bytes, 6 tensors)

fc1.weight f4 [64, 5]
000000 fb e9 59 be fa 0f 93 3c cb 52 ad 3d 6b 53 93 be
       -0.21280663 0.017951954 0.08463057 -0.2877458
000010 0b 4b 8f bd 64 28 a4 be 0d 87 53 be b7 20 ab be
       -0.06996735 -0.32062066 -0.20656987 -0.33423397
000020 6e 8e 82 3d 0c f6 be 3d 0f 7e 24 be f4 64 5d be
       0.063748226 0.093242735 -0.16063713 -0.21620542
000030 86 56 9d 3d 8c 4f 92 bd cf 4a 5b be e5 40 25 3d
       0.07682519 -0.071440786 -0.21415256 0.04034509
000040 fe 9b 21 be 51 36 89 be 39 60 94 be b6 08 94 bd
       -0.15782163 -0.26799253 -0.28979662 -0.07228224
000050 fb c4 54 3e c7 a7 f0 bd c6 9a 5a 3b c4 1a 47 be
       0.20778267 -0.11750751 0.0033356412 -0.19443804
000060 09 6c b6 bd bd 85 69 3d 0f f8 7d 3d c3 cd 84 be
       -0.08907325 0.05701231 0.062004145 -0.25938234
000070 c6 f8 63 3f c2 c4 d5 3a c0 1e 77 be 6a e3 30 3d
       0.89051473 0.0016309249 -0.24132824 0.04318563
000080 bb 26 7b be c6 6d 06 bf c9 d3 00 be 19 c4 06 3e
       -0.24526493 -0.5251125 -0.1258079 0.13160743
000090 2e 6a 96 be 10 03 eb bd 39 25 64 3d 9d d8 85 be
       -0.29377884 -0.114751935 0.05569956 -0.26141825
0000a0 9a 02 f1 3d 82 ce bb bd ec 3a 08 bf 3e f3 b6 be
       0.11768074 -0.091702476 -0.5321491 -0.35732454
0000b0 4e 92 fa 3c 4c 5a 24 3e 58 15 61 be 04 75 ed 3c
       0.030587342 0.1605007 -0.21980798 0.028986461
0000c0 d3 e2 1c bd ca 6b a1 be 91 55 cb 3d dc 72 02 3e
       -0.038302254 -0.3152755 0.0992843 0.12739128
0000d0 d5 bd 60 3e 64 9f 4a 3d a6 6a 1e be 1b f7 80 be
       0.21947415 0.049468413 -0.1547037 -0.25188527
0000e0 5f a5 8e be c9 c3 8b be 1d d9 a8 3c f0 ec 3d be
       -0.27860543 -0.2729781 0.02061134 -0.18547416
0000f0 c7 a0 90 be 0d e9 a1 3c f8 84 d0 3d 36 42 85 3e
       -0.28247663 0.019764448 0.10181612 0.26027077
000100 36 17 b8 3d 78 95 a5 38 71 37 98 3e 22 f1 0f 3d
       0.08988802 7.895654e-05 0.29729798 0.03514207
000110 70 ce 9d 3d 4d 46 77 be 8d a8 2d bd 96 d7 36 be
       0.077053905 -0.24147911 -0.04239707 -0.17855677
000120 1f bc 5d bd 10 3f 3e bd c6 a8 3d be c8 80 ab 3c
       -0.054134484 -0.04644686 -0.18521413 0.020935431
000130 c7 e8 22 be e8 b8 67 bd 38 86 ce 3e a5 f8 35 3e
       -0.1590911 -0.056572825 0.40336776 0.17770632
000140 56 fe 13 be 96 73 8a be 85 1f 2b 3e 0a 91 10 bd
       -0.1445249 -0.2704131 0.16711242 -0.03529457
000150 be 0d c5 bb 21 3c df 3d 3b a6 77 be bf 56 88 be
       -0.006013601 0.109001406 -0.24184506 -0.26628682
000160 a7 53 5c 3e 73 4c 0c be df 18 8f be a5 cd 7f be
       0.21516286 -0.13701038 -0.27948663 -0.24980791
000170 bf fe 9c 3c c7 4c ae be c7 89 33 3d dc 8d 44 bc
       0.019164441 -0.3404295 0.043832567 -0.011996713
000180 e7 c9 1c be 67 0b a1 be 1f 48 b0 be c4 a3 86 bd
       -0.15311395 -0.31454012 -0.34430024 -0.065742046
000190 46 24 3c 3e 41 02 8a 3d a6 85 b3 3a 5a 1f 7f be
       0.18373212 0.06738711 0.0013696447 -0.24914303
0001a0 be 83 e9 bd e9 f3 89 be 18 f1 7f 3d da 10 43 3e
       -0.11402081 -0.269439 0.062485784 0.19049397
0001b0 bc 6a 6d 3e 92 4c 42 be ba 3e a6 3d 09 c0 0f be
       0.23185247 -0.18974522 0.08117433 -0.140381
0001c0 71 00 1b 3d 08 a5 7f 3c 37 b3 0d 3e 4d 33 97 be
       0.037842218 0.015603311 0.13837896 -0.29531327
0001d0 5f bf 00 be 64 55 68 3e 39 3b 0d bd 81 f2 60 3e
       -0.12573002 0.22688824 -0.034480307 0.21967508
0001e0 90 63 20 be 9b a2 4a be ff f1 82 3e a8 12 8d be
       -0.1566298 -0.19788592 0.25575253 -0.27553296
0001f0 b3 81 66 be a9 fd 9c be 80 31 be bc 60 bf ae 3d
       -0.22510414 -0.30662277 -0.023216963 0.08532596
000200 33 aa 60 3e 18 ca c1 3c 19 d0 41 be 1b d3 58 be
       0.21939926 0.023655936 -0.18927039 -0.2117428
000210 6f e2 60 3e 37 08 16 be cb 01 34 be 5a d9 3c be
       0.21961378 -0.14651571 -0.17578809 -0.18442288
000220 5b 03 29 bd 9b 4f 82 3e ce 07 d2 bd 3a 8e 3d be
       -0.041262966 0.2545136 -0.10255395 -0.18511286
000230 47 cb f9 bd ff 0a 95 3d 8c 1d 03 3e 56 32 bb 3d
       -0.12196975 0.07277488 0.1280424 0.0914046
000240 a7 fc c1 3d ba 81 e4 3b 45 d3 4c 3e fd be 39 bb
       0.09472018 0.0069734724 0.20002468 -0.0028342598
000250 68 c4 e1 bd c4 8a 63 be 0b da 38 3e ed 8f 27 3e
       -0.1102379 -0.22220904 0.18051927 0.16363497
000260 55 b2 e0 bd e1 fd 19 bf c4 c8 ef bd af 73 20 bd
       -0.10971514 -0.60153013 -0.11708215 -0.039172824
000270 60 04 99 3d 74 26 40 3e 1c 8f fa 3d 2b ec 83 be
       0.074715376 0.18764669 0.12234327 -0.2576612
000280 b8 64 45 be 00 69 22 3e c4 50 2f 3e 7d 9b 93 be
       -0.19276702 0.15860367 0.17120653 -0.28829566
000290 9a 87 ac be 2e a6 30 3d 42 42 3a be d9 0f a6 be
       -0.33697206 0.04312723 -0.18189338 -0.32433966
0002a0 f6 d0 0a 3e d1 99 07 bd d2 a7 50 3e 78 10 22 3e
       0.13556275 -0.033105675 0.20376518 0.15826595
0002b0 ee b5 a0 3d c3 de 69 bf a2 16 4d be de 03 ca 3d
       0.078472 -0.9135553 -0.20028165 0.09864019
0002c0 51 f4 85 3a f4 59 99 ba 87 d4 f5 3c 5f 6d 05 bd
       0.0010219907 -0.0011699782 0.030008567 -0.032575008
0002d0 fd 65 02 3e ca e5 4c be 57 ea 49 be 1e 13 32 c0
       0.12734218 -0.20009533 -0.197183 -2.7824168
0002e0 96 af 58 3e a4 e9 63 be b2 d5 76 3d d7 24 35 3d
       0.2116073 -0.22257096 0.06026239 0.044224586
0002f0 3d ae 14 be b2 54 2a be 8d 60 0c be c4 75 24 be
       -0.14519592 -0.16633871 -0.13708706 -0.16060549
000300 e8 a8 41 be 9e 09 cc bd 5b 68 0d be b6 dd 78 bd
       -0.18912089 -0.09962772 -0.1380934 -0.060758315
000310 02 7d 95 3d e1 d1 83 bd 10 12 17 be f8 c5 ef bd
       0.07299234 -0.064365156 -0.14752984 -0.117076814
000320 8f 31 9c bd 5e 94 5f be 43 0e 3a 3c a4 d0 3d 3f
       -0.0762664 -0.21833941 0.011355939 0.74146485
000330 13 2e 7c 3e 8b dd 36 be b0 91 94 be 3a 23 18 3d
       0.24626951 -0.1785795 -0.290174 0.03714297
000340 21 be 27 be 56 e4 84 3c ae 99 02 be e2 07 2b 3d
       -0.16381122 0.01622216 -0.12753937 0.041755565
000350 74 c9 e9 bd ac 54 90 be 67 83 8f be 07 a8 00 bd
       -0.11415377 -0.281896 -0.2802994 -0.031410243
000360 74 c6 0a 3e b2 85 67 bd 11 e0 c7 be f0 85 09 be
       0.13552266 -0.056523986 -0.39038137 -0.1343
000370 a3 dd ba bc 74 9c 2e 3e a1 16 08 3e 50 04 c9 bf
       -0.022810763 0.1705187 0.13289882 -1.5704441
000380 83 bb 7e bc db 49 e6 bd f1 98 ea bb cb 55 38 3e
       -0.015547636 -0.112445556 -0.0071593453 0.18001477
000390 75 e2 ef 3c ce 07 09 be 51 41 7e be 0f a5 21 bd
       0.029282788 -0.13381884 -0.24829604 -0.039464053
0003a0 40 6b 37 be 06 fb d1 3d 78 0b 22 3e c9 d4 fa 3d
       -0.17912006 0.10252957 0.15824687 0.12247617
0003b0 58 8c 3c be 7c 17 5b be 70 a8 88 bd 68 ee fb bd
       -0.18412912 -0.21395677 -0.06672752 -0.12301332
0003c0 af 78 1f be fc fe 0c 3e 5b 64 2b 3e b2 9f 36 3f
       -0.15573381 0.13769144 0.16737501 0.71337426
0003d0 8c 47 0b be a2 d3 8f bd 46 f6 df bd cb c6 21 bd
       -0.13601512 -0.07022788 -0.10935645 -0.039496224
0003e0 36 fc 6d 3d b4 5c 7c 3c 10 e2 1e 3e a8 7d 77 be
       0.058101855 0.0154029615 0.15515924 -0.24169028
0003f0 c5 ba 68 3e 93 64 4d bf f9 60 83 3e ed 76 79 bd
       0.22727497 -0.8023159 0.25659922 -0.060904432

fc1.bias f4 [64]
000000 00 00 00 00 45 fc 75 bd 00 00 00 00 00 00 00 00
       0.0 -0.060055036 0.0 0.0
000010 71 9c 7e bd 99 34 13 3e cd 9e d3 be 00 00 00 00
       -0.062160913 0.14375533 -0.41332093 0.0
000020 37 fa 0c be ed 32 75 bd ae cb f0 bc 00 00 00 00
       -0.13767324 -0.05986302 -0.029393997 0.0
000030 92 be 71 bd 66 b5 88 be 00 00 00 00 61 37 94 3c
       -0.059019633 -0.26700896 0.0 0.018092813
000040 49 fc 75 bd f9 89 52 bd 44 a0 e1 bd e6 16 b1 bd
       -0.06005505 -0.051401112 -0.11016896 -0.08646946
000050 96 30 54 be a0 89 65 bd 9d 08 44 be 12 58 0c be
       -0.20721659 -0.056039453 -0.1914391 -0.13705471
000060 00 00 00 00 66 a0 80 3d 00 00 00 00 00 00 00 00
       0.0 0.062805936 0.0 0.0
000070 15 39 b8 bd 63 03 3e bd 20 00 a5 be 32 df 8b bd
       -0.089952625 -0.04638995 -0.32226658 -0.068296805
000080 48 fc 75 bd 57 25 2c be 98 38 47 bf 45 54 81 bc
       -0.060055047 -0.16811119 -0.7782073 -0.015787253
000090 66 eb a2 be 3a 9c ea 3d 00 00 00 00 12 a1 57 be
       -0.3182022 0.11455579 0.0 -0.21057537
0000a0 eb 0c 81 3e e7 03 5b bd 00 00 00 00 3f 69 df bd
       0.25205168 -0.05347052 0.0 -0.10908746
0000b0 d1 00 07 bf 00 00 00 00 38 9a af bd ee 9c 87 bd
       -0.5273562 0.0 -0.08574337 -0.06621729
0000c0 ea 08 4c 3f ee cc 04 be d8 b8 7c be 74 4f 6d bd
       0.797011 -0.129688 -0.24679887 -0.0579371
0000d0 00 00 00 00 00 00 00 00 00 00 00 00 00 00 00 00
       0.0 0.0 0.0 0.0
0000e0 9d 11 45 bd c2 8d 11 bd 14 3e d5 bd 8d ae 55 3d
       -0.0481125 -0.03553558 -0.10412231 0.052168418
0000f0 3f d2 64 be 4a c6 78 bd 51 59 5a be b3 29 17 be
       -0.22345828 -0.06073598 -0.21323134 -0.14762

fc2.weight f4 [64, 64]
000000 59 c7 23 bd a2 89 8f 3d 23 b8 ad ba c5 07 13 be
       -0.039985035 0.07008673 -0.001325373 -0.14358433
000010 5c ae c6 bd 4d db 26 3e ec 5b b8 3d 26 63 40 be
       -0.09701225 0.16294594 0.09001908 -0.18787822
000020 31 6d 11 be f1 5d 11 be 9f 80 51 be 70 36 1e 3e
       -0.1420181 -0.14195992 -0.20459221 0.15450454
000030 5b c3 f6 3a 55 98 05 be 60 fd 98 bd 9d 31 08 be
       0.0018826531 -0.13046391 -0.074702024 -0.13300176
000040 62 6e a9 3d ce f8 09 3e 8d 2c 04 be 91 30 5b be
       0.08273007 0.13473818 -0.1290762 -0.21405245
000050 80 ac f1 bd d4 56 56 3d d8 f8 f3 bd 79 6b b6 3d
       -0.1180048 0.0523289 -0.119126976 0.089072175
000060 f2 0f 1f bd 88 b2 b4 3b 84 1e 48 bd f0 8d 97 39
       -0.038833566 0.0055144466 -0.048857227 0.00028906716
000070 61 ef fc bd 06 ad 1d 3e b9 b2 86 3d 87 90 fd bd
       -0.123503454 0.15398034 0.065770574 -0.12381082
000080 67 cf d5 3a e4 d3 5c bd a7 93 90 3d 42 61 0d 3c
       0.0016312421 -0.053913012 0.070594124 0.008629145
000090 a6 3c 99 bd 89 0a 23 3e 0b a6 10 3e 11 68 6d 3d
       -0.07482271 0.15921988 0.1412584 0.057960574
0000a0 48 90 cb 3d 97 37 55 be 21 6f 14 3e b5 6f 8a bb
       0.09939629 -0.20821987 0.14495517 -0.0042247423
0000b0 12 bf 2d be cd a3 53 3e fe 94 cc 3c 57 11 4e bd
       -0.16967419 0.20667954 0.024973389 -0.050309505
0000c0 f8 54 b6 bd a0 5b 0a be 51 78 ed bd 51 6e 6d bd
       -0.08902925 -0.13511515 -0.11595214 -0.057966534
0000d0 63 ee 1b be 20 af 13 bd 49 4b 86 3d 01 cc 0c bd
       -0.15227656 -0.036055684 0.06557328 -0.03437424
0000e0 6e 96 d9 bd e0 19 5a bd 29 4d 29 bd 0b 0c 6e 3c
       -0.10624395 -0.053247333 -0.04133335 0.014529238
0000f0 a7 a1 85 3d 4e ca 10 be 6a 1c d9 bd 12 61 90 3d
       0.06524973 -0.14139673 -0.10601123 0.07049765
000100 05 a5 5f 3d ac 40 56 bd b0 60 24 3d 4c 76 e2 3d
       0.054600734 -0.05230777 0.04013127 0.110577196
000110 31 0e be 3d 28 44 3b 3d c3 b4 0e bd d5 e6 20 be
       0.092800505 0.045719296 -0.034840357 -0.15713055
000120 d0 46 4b 3d 46 bf be bd 2a 65 6a be bb 1c 4d be
       0.04962808 -0.09313826 -0.22890154 -0.20030491
000130 b8 4b b7 3d 6a ab 35 be 0c 3d 4b 3d 4a 7a 29 3d
       0.08949989 -0.1774117 0.049618766 0.04137639
000140 ad 5b a9 bc 6b c4 3f be 19 ff 84 be 52 4b d3 bd
       -0.020673597 -0.18727271 -0.25975874 -0.103171006
000150 cd 29 3f bd d9 b8 e8 3d ac 73 4e bd a1 fd 12 be
       -0.046670724 0.11363382 -0.050403282 -0.14354564
000160 15 c3 31 3e 02 5c b0 3d b6 a0 b2 bd 47 a5 bb bd
       0.17359574 0.08611299 -0.087220594 -0.091623835
000170 d0 54 a2 bd 56 26 15 3e dd e6 b7 bd d5 a2 d6 bd
       -0.07926333 0.14565405 -0.089795806 -0.104802765
000180 a2 6a 2c bc 89 fc 8a be 4c 16 86 bc 2d d8 12 bd
       -0.01052347 -0.27145794 -0.016368054 -0.035850693
000190 da 4b fb 3c 98 ab 77 be 4d 72 30 be 81 fa 18 be
       0.030675817 -0.24186552 -0.17231102 -0.1493931
0001a0 91 84 1e be 67 b6 43 3e 51 25 51 be 5f 40 49 be
       -0.15480258 0.1911255 -0.20424391 -0.19653462
0001b0 be 31 26 3d 0b 9a f6 3d 29 bf 60 be b2 0d 0a 3e
       0.04057478 0.120411 -0.21947922 0.13481787
0001c0 45 42 9e 3b 36 22 33 be 60 02 50 be 38 9a 39 3d
       0.0048296773 -0.17493519 -0.20313406 0.04531309
0001d0 16 20 dd bd b8 98 cf bd 00 13 02 be ac cd 8a 3b
       -0.107971355 -0.10136551 -0.1270256 0.004235944
0001e0 0f da fa 3d de 2d 51 3e 62 f4 da 3d d4 dc 00 3e
       0.122486226 0.20427653 0.106911436 0.12584239
0001f0 4d 12 5e be bc 96 6a 3d ba 7b 69 3d ef cd 1e 3e
       -0.21686669 0.057272658 0.05700276 0.15508245
000200 cf 60 f4 3d 56 14 29 be af 26 cc bb d9 b0 a4 bd
       0.11932527 -0.16511664 -0.0062301974 -0.080415435
000210 c6 89 b0 bc b0 87 61 be 8c 51 61 bd bb e5 1b be
       -0.02155007 -0.22024417 -0.05500941 -0.15224354
000220 0a 51 1f be a1 3b 3b 3e f0 10 18 3e 9a e4 46 3e
       -0.15558258 0.18284465 0.14850211 0.19423142
000230 2a dc 12 3d dc ee 74 3c 00 3e 1a 3e 19 0f 4b b9
       0.035854496 0.014949527 0.15062714 -0.00019365213
000240 75 27 e1 bd 48 82 08 be 04 c8 8a 3d 5f 1a 36 be
       -0.10993854 -0.13330948 0.06776431 -0.17783497
000250 9e 61 36 be 3b 89 31 3c 56 8d 02 bc 22 16 03 3d
       -0.17810676 0.010835941 -0.007968267 0.03200353
000260 5f 3c 1a 3e 58 e3 09 be 5d 3a f4 3d de 95 cb bd
       0.15062092 -0.13465631 0.119251944 -0.09940694
000270 7e e0 f4 bd 1c f8 c5 3d b4 2b 07 3e fe 44 e0 bd
       -0.11956881 0.09666464 0.13200265 -0.10950659
000280 21 6a e9 3c 77 55 8c be 4c 3e d6 3d 82 3c ee bb
       0.028492989 -0.27408955 0.10461101 -0.0072703967
000290 ea 44 15 be fa 62 53 3e 11 be 34 3e 6d df 47 be
       -0.1457707 0.20643225 0.1765063 -0.19518824
0002a0 69 1f 18 be b4 87 45 3e fb a4 3b 3e 8d 23 f7 bd
       -0.14855732 0.19290048 0.18324654 -0.12067328
0002b0 17 9a e2 bd 1d 4a 42 3c 78 8f 1b be 95 9c aa 3d
       -0.110645466 0.01185849 -0.15191448 0.08330647
0002c0 97 cd cb 3c b4 1a 5a be 47 f9 cf 3c 0a 1c 06 3e
       0.024878306 -0.21299249 0.02538742 0.13096634
0002d0 b4 1e 1e 3d c8 9d 48 3e d0 e9 c7 3d 1d cf a8 bd
       0.0386035 0.19591439 0.09761393 -0.08242629
0002e0 c4 05 6e be dc 66 ed 3d be f5 56 3c 53 5f 3c 3e
       -0.23244387 0.115918845 0.013120113 0.18395738
0002f0 cd cf b6 39 fc 83 28 be 1a 23 8e bd 74 72 51 be
       0.0003486857 -0.16456598 -0.06940289 -0.20453817
000300 88 25 3c be ce be c4 3d ee 73 c6 3d a3 0d 8e 3d
       -0.18373692 0.096067056 0.096900806 0.06936195
000310 56 14 0f be 7f ad b8 be 05 0d d7 be 41 ee a1 bb
       -0.13972601 -0.36069867 -0.4200212 -0.004941732
000320 30 43 2d be 46 37 f0 3c df 01 8e be 7e 1a 0b be
       -0.16920161 0.029323231 -0.27735803 -0.13584325
000330 01 13 b7 be 98 02 8d be 48 c8 1f be 97 26 94 be
       -0.35756686 -0.2754104 -0.15603745 -0.28935692
000340 94 77 8e 3b 57 cf 18 bc 44 41 ec 3d a0 49 38 3d
       0.004347751 -0.009326777 0.11535886 0.04499209
000350 50 0f 07 bf 65 e2 7d bd e6 67 ad be 20 ab d3 bd
       -0.5275774 -0.061983485 -0.3386833 -0.10335374
000360 45 09 56 3e 7c b1 cb bd fc e1 e5 3d db 13 0d 3d
       0.20901974 -0.09945962 0.11224744 0.034442764
000370 c1 9b 28 be 1e 60 38 3c 76 a3 9c be 44 3a dc bd
       -0.16465665 0.011253385 -0.3059346 -0.10753301
000380 f8 08 50 3e 9b bc d7 bc 2f 84 fb be 22 11 f0 be
       0.20315921 -0.026335051 -0.49124286 -0.4688807
000390 23 e3 c7 be ad b4 fd bd d3 18 5b be aa 3d ea be
       -0.3904048 -0.12387977 -0.21396188 -0.4575017
0003a0 4f 13 c8 be 97 2e 07 bc 31 34 42 be 97 ca c4 3c
       -0.3907723 -0.008250854 -0.18965222 0.024022384
0003b0 c1 87 1f be f0 11 9d 3d 4d 47 f4 be 11 66 02 3e
       -0.1557913 0.07669437 -0.47710648 0.12734248
0003c0 8a 16 d2 be 3e 7f 81 be a1 1f f4 be 3d a7 07 3e
       -0.4103282 -0.2529239 -0.4768038 0.1324739
0003d0 66 b8 20 be 97 04 79 3d d2 5e 2c be f5 1f d6 bd
       -0.15695342 0.060795393 -0.16833046 -0.10455314
0003e0 9b b7 c7 bd 27 e9 cd bd ed 08 7f be ad 4d d0 3c
       -0.09751817 -0.10054236 -0.24905749 0.025427664
0003f0 89 bb 83 be d1 ea ab 3d 64 62 a3 be 3a b9 d0 bd
       -0.25729015 0.08394397 -0.31911004 -0.10191579

fc2.bias f4 [64]
000000 00 00 00 00 ef 86 6c bd d4 3d 7a bd 25 55 92 be
       0.0 -0.05774587 -0.06109412 -0.28580585
000010 a6 54 92 be 00 00 00 00 4a fc 75 bd 06 6f 65 bd
       -0.28580207 0.0 -0.060055055 -0.056014083
000020 09 34 7a bd f4 e1 68 bd 93 b6 6f bd 20 1c a0 bd
       -0.06108478 -0.05685611 -0.058523726 -0.078178644
000030 a3 a9 e8 ba 43 07 8f bd c5 8a 38 be 00 00 00 00
       -0.0017750751 -0.06983807 -0.18021686 0.0
000040 ac 70 f1 bd a4 cf 57 bd 22 5b a7 bd 48 fc 75 bd
       -0.117890686 -0.052688256 -0.08171679 -0.060055047
000050 83 a3 a2 be 36 55 8e be 07 b5 93 3d 45 fc 75 bd
       -0.31765375 -0.27799386 0.072122626 -0.060055036
000060 bf 82 50 bd 35 7a 77 bd 01 02 17 be f8 66 67 bd
       -0.05090594 -0.06041928 -0.14746858 -0.056494683
000070 d3 51 01 3c 70 4c 92 be d8 0f 75 bd c1 15 0e be
       0.007893044 -0.28573942 -0.059829563 -0.13875486
000080 80 db fb 3d a5 88 eb 3b e1 de 8d 3d c9 24 81 bd
       0.12297726 0.00718792 0.069272764 -0.06305844
000090 02 10 30 bc 6f 4d 31 be 5e 1d 40 3e 0d 21 bc 3c
       -0.010746004 -0.17314695 0.18761203 0.022964979
0000a0 a5 f6 84 bd 3e 84 7d bd d4 e1 49 bd 5a 00 6b bd
       -0.06492356 -0.061893694 -0.049287632 -0.057373382
0000b0 78 d1 a7 bd 27 a1 a2 be 32 38 26 bd 57 97 0d 3f
       -0.0819425 -0.31763574 -0.040580936 0.5530905
0000c0 13 8b 60 be 52 16 30 bd 32 84 af 3e e5 7d 30 be
       -0.21928053 -0.042990036 0.34280545 -0.17235525
0000d0 9d 54 92 be 4a 25 57 bd 37 5c 92 be 9a 45 b8 be
       -0.2858018 -0.052525796 -0.2858598 -0.35990602
0000e0 7b b2 19 be 00 00 00 00 e9 60 4d bd 00 00 00 00
       -0.15009491 0.0 -0.05014125 0.0
0000f0 56 23 68 3e f7 e1 e8 bd 30 68 c8 3d 69 e8 96 bd
       0.2266973 -0.113712244 0.09785497 -0.073685475

fc3.weight f4 [2, 64]
000000 eb 79 6b 3d 99 56 4f 3d 94 af b3 bd 31 da 31 3e
       0.057489317 0.050619695 -0.08773723 0.1736839
000010 49 47 79 3e 19 91 f6 bc 04 18 14 3e 5f a7 5d 3e
       0.243436 -0.030098485 0.14462286 0.21645878
000020 4e 00 1c 3e a4 6b b0 bd 28 3f 7f 3d c5 87 35 3e
       0.15234491 -0.08614281 0.06231609 0.17727573
000030 ee c5 2b bc 4b 1b fa bc f6 a6 7d 3d 3f f6 de 3d
       -0.010484202 -0.030530592 0.061926804 0.108868115
000040 59 d5 c5 3c f2 a1 9e 3d dd 78 e2 bd 4a c1 54 3e
       0.024149584 0.07745732 -0.11058209 0.20776859
000050 b0 bf 12 be ff 89 1a 3d 3a 9e 21 3e d8 a2 01 3e
       -0.14330935 0.03772926 0.15783015 0.12659776
000060 d1 24 e7 3d 07 ec 4c be fc cf 5b bd 65 8e 9a bd
       0.11286319 -0.20011912 -0.053665146 -0.07546691
000070 63 63 0c 3e 37 78 00 bd 8f 94 40 3e 87 5e b5 3d
       0.13709788 -0.031364646 0.1880667 0.0885592
000080 ee c5 43 bc 0d db e7 bc 46 43 01 bd e2 f3 40 be
       -0.011949046 -0.028302694 -0.031558298 -0.18843034
000090 38 5e 87 3d 49 9e 16 3e 89 df b3 bd ff c5 52 3e
       0.06609768 0.14708818 -0.0878287 0.20583342
0000a0 96 61 f9 3d 27 73 d4 3d 05 11 f3 3c c7 8f ca 3c
       0.12176816 0.10373526 0.029671201 0.024726762
0000b0 28 55 b1 3d 02 57 88 be 4f 09 68 3c 03 f8 9d 3c
       0.086588204 -0.26628882 0.014162376 0.0192833
0000c0 d4 bb e2 3d 8c 2a 03 be e3 54 ee bd d9 df 38 bc
       0.110709816 -0.12809199 -0.116372846 -0.011283838
0000d0 ad ac 93 bd 4e 82 64 3e fd fe 5d be 13 8b e6 3c
       -0.0721067 0.22315332 -0.21679302 0.028142488
0000e0 9a 72 ba bc 90 89 68 be da 74 9a 3d f3 c9 8b 3e
       -0.022759724 -0.22708726 0.07541819 0.27302513
0000f0 89 f9 eb bd fe 48 e5 b9 ec 75 a1 bd 18 05 7f be
       -0.115222044 -0.00043732667 -0.0788382 -0.24904287
000100 8e 1c 4a 3b 84 88 2d 3e 1d 7c a2 bd a4 c5 bb 3d
       0.0030839774 0.16946608 -0.07933829 0.09168556
000110 3b 61 99 be a0 e4 11 bd bb 96 cc bc 48 ed 0a 3e
       -0.29956993 -0.035618424 -0.024974218 0.13567078
000120 56 c5 3a bf dc 66 a9 3d ed dd 60 be 3b 74 41 3e
       -0.7295736 0.08271572 -0.21959658 0.18891995
000130 a7 b8 dc 3d ec c4 9c 3e a0 b0 08 bd 06 4a 23 be
       0.10777407 0.3061899 -0.033371568 -0.15946206
000140 79 01 88 3e 4f 19 06 be 19 a7 74 bf 15 50 f2 3d
       0.26563624 -0.13095592 -0.9556747 0.11831681
000150 cc 40 a4 be 20 a7 7a 3e 58 21 67 3d 8f 7e 92 be
       -0.32080686 0.24477816 0.056428283 -0.28612182
000160 7c 11 01 3e bc a0 0e bc b4 6d 80 3e 1f 96 46 be
       0.12604326 -0.008705314 0.25083697 -0.19393204
000170 8f 57 c8 3e 0a e7 47 3e 1e 3d 19 bd 40 1c ba bd
       0.39129302 0.19521728 -0.0374118 -0.090874195
000180 d1 94 2f bf 34 5f 50 bc 6a dc 06 c0 86 3d 1e be
       -0.6858645 -0.012718011 -2.107203 -0.15453157
000190 eb df 87 3e 4b bc f6 bc 52 17 ed bd 8c 57 40 bf
       0.26538023 -0.030119082 -0.115767136 -0.75133586
0001a0 e3 58 cc bd 02 7d 09 3d 5b ac b7 3c 41 79 70 be
       -0.09977891 0.033566482 0.022421053 -0.23483755
0001b0 0a 74 08 bf 94 6e b0 3d b4 80 42 be fb d8 63 bf
       -0.5330206 0.08614841 -0.18994409 -0.8900296
0001c0 f8 eb 23 be e6 ed 34 3e c1 4b 0d 3e 3d 21 a7 3e
       -0.16007984 0.17668876 0.13798429 0.32642546
0001d0 12 62 b2 bd 18 87 98 be 5c 6a 85 3e 63 e3 09 bf
       -0.08710112 -0.29790568 0.26057708 -0.5386259
0001e0 ad 17 99 bc 72 a1 91 be db 91 4b 3e 93 29 9a bc
       -0.018688047 -0.28443485 0.19879858 -0.018818652
0001f0 2a dc 04 3e 7b 4c 77 3e fd 20 04 be 46 3a b5 be
       0.12974611 0.24150269 -0.12903209 -0.35396022

fc3.bias f4 [2]
000000 f4 c9 31 be 29 66 b0 3f
       -0.17362195 1.3781177
