CS237B_Win25_HW3-main/policies/intersection_straight_ILDIST.pt (torch, 22362 bytes, 6 tensors)

fc1.weight f4 [64, 5]
-0.080797516 -0.29013047 0.12283566 0.27468234 -0.19158852 0.25656262 0.2506617 0.066554144
-0.02889478 -0.07185743 0.2893026 0.27423316 -0.2785617 0.19888309 0.14031777 0.2511181
-0.16071327 0.072428845 -0.009965617 0.038819972 0.1965679 0.13143508 -0.13168551 0.06905218
0.25414678 0.19208778 0.15244605 -0.040153965 -0.24360244 0.24430402 -0.18191504 0.07598785
-0.12064025 -0.23404533 -0.29098877 0.17113775 -0.031070404 0.14219718 0.028968755 0.13839178
-0.15435787 0.14111184 0.09213089 -0.2522627 0.008106432 -0.029705284 -0.18107979 0.09223106
0.13160266 0.17780387 0.0069741267 0.26721036 0.10967562 -0.083765015 -0.25346854 0.104107715
0.2918114 -0.103463575 -0.26964632 -0.018816495 -0.22085062 0.18003446 0.11019185 -0.10089954
0.0132907415 -0.15053149 -0.03402132 -0.19815987 -0.212781 0.06731739 0.052929226 -0.01063952
-0.20560066 -0.112092346 0.15713122 0.2614523 -0.05838588 0.17960973 -0.033400193 -0.14349975
0.021897605 -0.042114332 -0.19277848 0.18968813 -0.03675438 0.19194753 0.09620534 -0.044589993
-0.18888119 -0.07485952 0.11377812 -0.22909617 0.133109 -0.18429646 -0.048609097 -0.23965718
-0.037994858 0.12169689 0.27814475 0.086708814 0.07388253 -0.064405575 0.09783912 0.2382668
0.094235 -0.14532976 -0.20037323 0.18296775 0.094861925 -0.09797561 0.28450388 -0.00091499486
0.16264309 0.2587018 0.22727823 -0.15948743 0.25057504 -0.10910292 0.19127972 0.27475232
0.20752864 -0.15338406 0.09656343 0.118933596 -0.20226727 0.18432812 0.21397518 0.11466297
-0.26733238 -0.098972745 -0.04759873 0.28073603 -0.27285042 0.10482434 0.1941192 -0.29423332
0.039830524 -0.26340216 -0.2208299 -0.0019317156 -0.0067404388 0.24917783 0.07377501 -0.13045627
-0.23180583 0.15404032 -0.048115462 0.16886427 0.25099653 0.21252216 0.08970396 0.21738236
0.05225118 -0.13522783 -0.17435941 -0.3009836 -0.06151665 -0.02127985 -0.28608245 0.2791786
0.11936079 0.20748511 -0.1056475 0.14781973 0.031055454 0.22037958 0.022118732 -0.21767646
0.09609643 0.2117919 -0.16989636 -0.1076271 0.2373896 0.30970335 0.20396154 -0.2708101
-0.13535923 -0.18483993 -0.031788275 -0.046229824 -0.047020864 -0.21077883 -0.20702004 -0.043238293
-0.19606225 0.051278863 -0.06181793 -0.043125197 0.16519924 0.19515596 -0.070848495 -0.16119504
-0.07504452 -0.19288309 -0.20226891 -0.07476403 0.09013159 -0.20953576 -0.1342612 -0.19350156
0.19653761 -0.35051802 -0.107444696 0.22441716 -0.2261288 -0.13551845 -0.123213485 -0.0009804848
0.037657756 -0.10326143 0.010452233 0.07571801 -0.26433024 0.070459604 -0.22970077 -0.046167437
0.06412449 -0.298869 0.16154402 0.1309498 0.03011578 -0.021977527 0.23372775 -0.23218247
-0.17111555 0.1271766 -0.28655604 0.22927377 0.22051819 -0.20682476 0.0020376162 -0.20445319
0.15357861 0.09637294 -0.0716482 -0.16277729 -0.12473197 0.21448942 0.11075394 0.2596688
-0.040768992 0.21114528 0.07103089 0.11505154 0.07772375 0.1286797 -0.07397602 0.02421293
-0.32694525 0.12673195 -0.090455346 0.16766335 0.04155647 -0.31700492 -0.2828223 -0.0043898732
00000000: 2b79 a5bd fb8b 94be 4391 fb3d 2aa3 8c3e
00000010: c82f 44be 2d5c 833e bb56 803e 8a4d 883d
00000020: bfb4 ecbc fd29 93bd 781f 943e 4a68 8c3e
00000030: a49f 8ebe 02a8 4b3e 76af 0f3e 8d92 803e
00000040: 0592 24be 9355 943d d446 23bc b101 1f3d
00000050: 1849 493e eb96 063e 91d8 06be 3b6b 8d3d
00000060: 871f 823e a9b2 443e d11a 1c3e 7c78 24bd
00000070: eb72 79be d52a 7a3e f047 3abe 859f 9b3d
00000080: 3c12 f7bd 94a9 6fbe 7bfc 94be bc3e 2f3e
00000090: 5c87 febc 239c 113e e24f ed3c 93b6 0d3e
000000a0: fd0f 1ebe 9f7f 103e 1faf bc3d 9428 81be
000000b0: d7d0 043c 7f58 f3bc fb6c 39be a3e3 bc3d
000000c0: d9c2 063e 3812 363e 3787 e43b cccf 883e
000000d0: 9d9d e03d fe8c abbd a1c6 81be 6d36 d53d
000000e0: 4e68 953e b6e4 d3bd 150f 8abe 0d25 9abc
000000f0: aa26 62be f45a 383e 44ac e13d 6ba4 cebd
00000100: 69c1 593c ed24 1abe f159 0bbd 6cea 4abe
00000110: 43e3 59be b3dd 893d 51cc 583d 6251 2ebc
00000120: fb88 52be ac90 e5bd 02e7 203e 13dd 853e
00000130: 0826 6fbd 9deb 373e a4ce 08bd 99f1 12be
00000140: 9b62 b33c 1480 2cbd b967 45be 9b3d 423e
00000150: c38b 16bd e58d 443e 4e07 c53d ffa3 36bd
00000160: 126a 41be f34f 99bd 8104 e93d 3098 6abe
00000170: ba4d 083e 36b8 3cbe 551a 47bd b168 75be
00000180: 7fa0 1bbd 383c f93d fd68 8e3e 6494 b13d
00000190: b94f 973d 12e7 83bd e05f c83d 36fc 733e
000001a0: 48fe c03d 53d1 14be a42e 4dbe e65b 3b3e
000001b0: f846 c23d 70a7 c8bd 7eaa 913e 44dc 6fba
000001c0: e98b 263e 9074 843e a0bb 683e ac50 23be
000001d0: 5f4b 803e 5a71 dfbd d5de 433e 56ac 8c3e
000001e0: 6382 543e b610 1dbe 0cc3 c53d 7593 f33d
000001f0: 271f 4fbe 83c0 3c3e 4f1c 5b3e 6bd4 ea3d
00000200: cadf 88be 39b2 cabd e3f6 42bd a2bc 8f3e
00000210: 0db3 8bbe 25ae d63d 2fc7 463e c0a5 96be
00000220: 5525 233d a6dc 86be 3c21 62be 9f31 fdba
00000230: e6de dcbb 7928 7f3e 5a17 973d 5496 05be
00000240: 825e 6dbe bfbc 1d3e b814 45bd c1ea 2c3e
00000250: 9e82 803e 699f 593e b6b6 b73d 7b99 5e3e
00000260: 5505 563d 2a79 0abe 468b 32be 861a 9abe
00000270: e2f8 7bbd 1453 aebc 6679 92be 7ff0 8e3e
00000280: 6e73 f43d fa76 543e b75d d8bd 0e5e 173e
00000290: 0268 fe3c 2fab 613e 5832 b53c 94e6 5ebe
000002a0: 35ce c43d fadf 583e 50f9 2dbe 996b dcbd
000002b0: 4216 733e 7091 9e3e 4bdb 503e 9fa7 8abe
000002c0: 9c9b 0abe ae46 3dbe 6c34 02bd 7c5b 3dbd
000002d0: f398 40bd 68d6 57be 10fd 53be a31a 31bd
000002e0: 8bc4 48be c909 523d cc34 7dbd 0ca4 30bd
000002f0: fd29 293e f7d6 473e 0419 91bd 5010 25be
00000300: f1b0 99bd 2583 45be 951f 4fbe e21d 99bd
00000310: e996 b83d 8b90 56be c57b 09be 4625 46be
00000320: 2841 493e 1977 b3be f70b dcbd 9dcd 653e
00000330: 4f8e 67be 59c5 0abe 5a57 fcbd 9c83 80ba
00000340: 053f 1a3d bb7a d3bd d83f 2b3c 0b12 9b3d
00000350: 4b56 87be 204d 903d ae36 6bbe 111a 3dbd
00000360: b353 833d 5c05 99be cc6b 253e b417 063e
00000370: 5eb5 f63c 370a b4bc 5456 6f3e 3ec1 6dbe
00000380: ea38 2fbe 953a 023e 79b7 92be bec6 6a3e
00000390: 85cf 613e dfc9 53be 8789 053b 2d5c 51be
000003a0: b643 1d3e 2d5f c53d 4bbc 92bd 17af 26be
000003b0: 7a73 ffbd 1da3 5b3e f6d2 e23d 4ff3 843e
000003c0: 63fd 26bd 7836 583e a578 913d 24a0 eb3d
000003d0: a12d 9f3d 9cc4 033e bd80 97bd 325a c63c
000003e0: 5e65 a7be 05c6 013e a740 b9bd f1af 2b3e
000003f0: 1e37 2a3d 784e a2be 16ce 90be edd8 8fbb

fc1.bias f4 [64]
-0.00014232367 0.025185987 0.0 -0.027877845 0.0 0.0 -0.005921251 0.00024470722
0.000893129 0.022419984 0.02326242 0.015040761 0.021034824 0.021940552 0.040383745 0.0051764566
-0.009836118 -0.023429701 -0.008718142 0.031283353 -0.0068890243 -0.0017431066 0.0 0.064135686
0.06926057 -0.03594173 0.015935762 -0.009990653 0.049109705 0.0 0.013322459 -0.014050041
-0.008225708 0.0 0.047768056 0.0 -0.0005019727 0.019597072 0.0 0.0009264251
-0.05609912 0.0 -0.017212348 -0.005905558 -0.023030838 0.038266744 -0.020545883 4.856208e-06
-0.05337014 -0.03666516 -0.10933232 0.07746723 0.0 -0.002287219 0.019503532 0.030278599
-0.04521042 -0.010479096 0.0 0.036205176 0.031600606 0.02399353 -0.0177804 -0.016278027
00000000: b83c 15b9 d852 ce3c 0000 0000 1460 e4bc
00000010: 0000 0000 0000 0000 0e07 c2bb 0c4c 8039
00000020: df20 6a3a 1daa b73c d590 be3c 866d 763c
00000030: 3951 ac3c acbc b33c 6d69 253d 449f a93b
00000040: ab27 21bc a5ef bfbc 8ad6 0ebc f922 003d
00000050: 53bd e1bb f478 e4ba 0000 0000 9259 833d
00000060: 7cd8 8d3d a337 13bd b78b 823c d6af 23bc
00000070: 4227 493d 0000 0000 7146 5a3c 2532 66bc
00000080: 1fc5 06bc 0000 0000 70a8 433d 0000 0000
00000090: d196 03ba 0a8a a03c 0000 0000 56db 723a
000000a0: 31c8 65bd 0000 0000 e900 8dbc 6983 c1bb
000000b0: 2bab bcbc 97bd 1c3d d74f a8bc 82f2 a236
000000c0: a69a 5abd 352e 16bd a0e9 dfbd 24a7 9e3d
000000d0: 0000 0000 2be5 15bb dfc5 9f3c d30a f83c
000000e0: 902e 39bd 84b0 2bbc 0000 0000 e14b 143d
000000f0: a36f 013d 148e c43c 34a8 91bc 7f59 85bc

fc2.weight f4 [64, 64]
0.14925125 -0.10153015 -0.08463272 -0.17826742 -0.21432796 0.022171322 0.23101607 0.020907015
0.053683996 -0.18447874 0.030578684 -0.19600347 0.04686001 -0.013192416 -0.05930519 -0.11371847
-0.19003339 -0.17880872 0.12020136 -0.124182716 0.12999669 -0.052924596 -0.21736047 0.04485419
-0.19163515 0.19006462 0.042982835 0.17379406 -0.08446687 -0.17104098 -0.12916273 -0.18815078
-0.01249108 0.015962673 -0.20548575 -0.124009304 -0.121177435 -0.21970618 0.0035626187 -0.007097558
-0.0663995 -0.07935519 -0.045358244 0.028539903 -0.021258961 0.1418269 0.116968855 -0.107745536
0.1587684 -0.043222617 0.23042049 -0.1758888 0.12073718 0.17552058 0.013373365 0.16621715
0.101918094 0.04922447 -0.16863391 0.08967563 0.16585542 0.10199677 -0.07586861 0.05439623
0.039060794 -0.20731495 0.12331149 0.017188022 -0.0822147 0.1229806 0.019961901 0.022835914
-0.19192538 0.022409094 0.20024718 0.0016394322 0.024959387 -0.060483884 -0.075870425 0.095601946
-0.08042519 -0.14118193 0.017662197 0.18162218 0.11582046 -0.05426756 -0.21319678 0.052625418
0.061348036 -0.16385062 0.16080841 0.10775259 0.0053094756 0.034037217 -0.1280978 -0.022556249
-0.12676552 0.006019051 0.11024882 0.057040308 -0.07138783 -0.16752815 -0.10915889 0.06300354
-0.18561773 0.0993635 -0.20827281 -0.18674451 -0.10375012 -0.14695086 -0.13200231 0.18684204
-0.008777371 -0.026408264 0.040088244 -0.18312284 0.1266685 -0.05749893 -0.10301393 0.13101265
-0.14458515 0.18612856 0.13412502 0.0045904233 0.18225643 0.1572354 -0.21333687 0.1791353
0.18635547 -0.15668257 -0.19695976 0.20402119 -0.096176706 0.16334492 -0.20641926 0.2190889
-0.10172936 -0.18554156 0.042385258 -0.18625584 0.07522938 -0.05983539 0.0026127852 -0.17042495
0.12297695 -0.0678212 -0.04668672 0.17034353 -0.11548047 0.16635294 -0.09124153 -0.05277199
0.105641805 0.19957669 0.17077185 0.0019533439 0.09081153 0.13754849 0.027228877 -0.12097196
-0.17059213 -0.0524916 -0.2153463 0.16738406 -0.09706775 -0.19440874 -0.15350826 -0.003970861
-0.04982915 -0.20053163 -0.046014447 0.15397105 0.008752466 0.04467247 0.075855404 -0.20263104
-0.18392383 0.07816068 0.08010823 0.126988 -0.055693693 0.14741105 0.14928007 -0.14383283
0.17950504 -0.15525116 -0.09240488 -0.11979482 -0.1441825 0.14167543 -0.12619774 -0.08991027
-0.16787486 0.028481245 0.14072408 -0.19238445 -0.08445843 0.18541437 0.1579434 -0.17188816
-0.096745156 -0.114840016 -0.19834886 0.03223829 0.1065263 -0.04613199 0.0663157 0.0027160111
-0.1632971 -0.09272698 0.10331853 0.18478626 0.112304136 -0.14716116 0.13661751 -0.07777542
-0.14931354 -0.18066211 -0.16930746 0.017209433 0.1730812 0.0045669656 -0.123455085 0.07072519
-0.12028602 0.0054033743 0.19911967 0.19135907 0.17734887 -0.05497607 -0.035786025 0.09099093
-0.10671881 0.054989934 0.18104748 -0.19258638 -0.048636544 -0.06323083 -0.17385848 0.06839977
-0.074587114 -0.16621326 0.053990558 -0.10228889 -0.09688127 0.052824892 0.06184918 0.086177684
0.0988832 0.17727497 0.1812928 -0.16577631 0.1707706 0.17835297 0.13298236 -0.1327836
00000000: 52d5 183e 0aef cfbd eb53 adbd bc8b 36be
00000010: ca78 5bbe a2a0 b53c 7a8f 6c3e 3045 ab3c
00000020: c0e3 5b3d ffe7 3cbe 2680 fa3c 22b5 48be
00000030: 48f0 3f3d 0125 58bc 00ea 72bd 3be5 e8bd
00000040: 1d98 42be a219 37be 212c f63d 8253 febd
00000050: da1d 053e 76c7 58bd be93 5ebe 07b9 373d
00000060: 013c 44be 4da0 423e c50e 303d 12f7 313e
00000070: f7fc acbd 5e25 2fbe 3c43 04be 99aa 40be
00000080: 63a7 4cbc 27c4 823c db6a 52be 97f8 fdbd
00000090: e02b f8bd a8fa 60be d37a 693b a292 e8bb
000000a0: 76fc 87bd f984 a2bd 91c9 39bd 84cc e93c
000000b0: 4627 aebc 123b 113e 5e8d ef3d b1a9 dcbd
000000c0: 2f94 223e 330a 31bd 59f3 6b3e 321c 34be
000000d0: 0e45 f73d abbb 333e f51b 5b3c d434 2a3e
000000e0: 6fba d03d 999f 493d 5eae 2cbe dba7 b73d
000000f0: 01d6 293e afe3 d03d 0061 9bbd 95ce 5e3d
00000100: 36fe 1f3d 5f4a 54be bc8a fc3d e5cd 8c3c
00000110: 2e60 a8bd 41dd fb3d 2487 a33c 6212 bb3c
00000120: 1688 44be 4793 b73c 990d 4d3e 37e2 d63a
00000130: a177 cc3c f3bd 77bd f461 9bbd f4ca c33d
00000140: f6b5 a4bd ff91 10be 50b0 903c 2afb 393e
00000150: 4733 ed3d a947 5ebd 4250 5abe c08d 573d
00000160: 1448 7b3d 75c8 27be f6aa 243e 64ad dc3d
00000170: 1cfb ad3b 9c6a 0b3d 122c 03be e2c7 b8bc
00000180: d2ce 01be 763b c53b 22ca e13d 19a3 693d
00000190: c833 92bd 808c 2bbe b28e dfbd 0008 813d
000001a0: 9312 3ebe 177f cb3d 7845 55be f439 3fbe
000001b0: f17a d4bd 497a 16be 9d2b 07be 8553 3f3e
000001c0: f6ce 0fbc 2556 d8bc 9233 243d 8e84 3bbe
000001d0: 63b5 013e ff83 6bbd f8f8 d2bd 2e28 063e
000001e0: 210e 14be 7c98 3e3e 1258 093e 436b 963b
000001f0: 6ea1 3a3e 5102 213e fb74 5abe 3e6f 373e
00000200: f8d3 3e3e 6571 20be d2af 49be eeea 503e
00000210: 4bf8 c4bd e443 273e 925f 53be d758 603e
00000220: 7c57 d0bd 9bfe 3dbe 2a9c 2d3d dab9 3ebe
00000230: dc11 9a3d f415 75bd 433b 2b3b e183 2ebe
00000240: 57db fb3d d7e5 8abd 933a 3fbd 896e 2e3e
00000250: 0681 ecbd 6d58 2a3e d7dc babd 7127 58bd
00000260: bb5a d83d d55d 4c3e d1de 2e3e ac03 003b
00000270: 65fb b93d 83d9 0c3e 180f df3c 26c0 f7bd
00000280: b4af 2ebe 6f01 57bd be83 5cbe ba66 2b3e
00000290: 75cb c6bd 1613 47be 4531 1dbe ff1d 82bb
000002a0: a719 4cbd 2a58 4dbe a579 3cbd 96aa 1d3e
000002b0: 8166 0f3c 7bfa 363d 145a 9b3d 837e 4fbe
000002c0: 8756 3cbe b512 a03d c90f a43d 2409 023e
000002d0: 121f 64bd ecf2 163e e0dc 183e ea48 13be
000002e0: 2bd0 373e 29fa 1ebe c53e bdbd fd56 f5bd
000002f0: 94a4 13be 5d13 113e fb39 01be e022 b8bd
00000300: 63e7 2bbe 8051 e93c f919 103e 6e00 45be
00000310: 8bf8 acbd 44dd 3d3e eabb 213e 7303 30be
00000320: 5322 c6bd 3e31 ebbd f71b 4bbe 4c0c 043d
00000330: 762a da3d e6f4 3cbd 87d0 873d 1bff 313b
00000340: 5b37 27be a5e7 bdbd aa98 d33d 9c38 3d3e
00000350: b6ff e53d 6ab1 16be 76e5 0b3e b848 9fbd
00000360: a6e5 18be 7dff 38be ef5e 2dbe ccfa 8c3c
00000370: 333c 313e 7ca6 953b 05d6 fcbd 5ed8 903d
00000380: 8458 f6bd ca0e b13b 07e6 4b3e a2f3 433e
00000390: f19a 353e 962e 61bd 5e94 12bd 7459 ba3d
000003a0: 648f dabd 203d 613d 8364 393e 5d35 45be
000003b0: 1d37 47bd 2a7f 81bd f507 32be 2e15 8c3d
000003c0: 21c1 98bd cf33 2abe 3425 5d3d d67c d1bd
000003d0: b069 c6bd ea5e 583d 9155 7d3d ed7d b03d
000003e0: 4683 ca3d 9287 353e d2a4 393e 44c1 29be
000003f0: 7dde 2e3e 29a2 363e 872c 083e 6df8 07be

fc2.bias f4 [64]
-0.016269788 0.0027395985 0.0063857855 0.00908159 -0.000791256 0.029293347 0.004668088 -0.0014993683
-0.008180444 0.008343362 0.03164433 -0.005958006 -0.005350803 0.008436165 0.0021034211 0.0053676255
-0.019194106 -0.0055553187 0.005626867 0.028555833 0.0026967938 -0.005305719 -0.004056464 -0.021341337
-0.00987802 -0.014468169 -0.0156088825 0.0061938763 -0.024242755 -0.006032551 -0.0024904169 0.0021061532
0.004394214 0.003070109 -0.014141187 0.005267862 0.0022495964 0.0024229267 0.016547734 -0.00982559
0.010426492 0.024823327 0.011436653 -0.0014730408 -0.026121652 0.011759687 -0.010886152 -0.011388147
-0.007057952 0.0072466107 -0.020174773 -0.007657851 -0.007796104 0.025408648 0.006579686 -0.004484619
0.0062129404 0.0026660862 0.0046358467 0.011550373 -0.009184683 -0.016151544 -0.013201288 0.01807601
00000000: 3848 85bc d68a 333b da3f d13b f3ca 143c
00000010: 4b6c 4fba 9af8 ef3c c3f6 983b 7486 c4ba
00000020: 4507 06bc 99b2 083c 7c9d 013d 603b c3bb
00000030: ca55 afbb d737 0a3c 8dd9 093b e8e2 af3b
00000040: f53c 9dbc 6409 b6bb 9561 b83b eced e93c
00000050: b1bc 303b 99db adbb 16ec 84bb 07d4 aebc
00000060: 6bd7 21bc e60b 6dbc 66bc 7fbc 00f6 ca3b
00000070: be98 c6bc b5ac c5bb 4336 23bb 6307 0a3b
00000080: 57fd 8f3b e233 493b 70b0 67bc 089e ac3b
00000090: f76d 133b f7c9 1e3b 1d8f 873c 83fb 20bc
000000a0: e1d3 2a3c 4a5a cb3c cd60 3b3c 0c13 c1ba
000000b0: 13fd d5bc b4ab 403c d55b 32bc 5a95 3abc
000000c0: 6546 e7bb fa74 ed3b 9145 a5bc b6ee fabb
000000d0: 7676 ffbb cc25 d03c 689a d73b b6f3 92bb
000000e0: ec95 cb3b 81b9 2e3b 4de8 973b c73d 3d3c
000000f0: 5a7b 16bc 3e50 84bc 374a 58bc 2414 943c

fc3.weight f4 [5, 64]
0.16471134 0.17675754 0.12909278 -0.11901686 -0.21144228 -0.23331688 -0.25972483 -0.112968564
0.2482656 -0.09569829 -0.09723069 0.09332699 -0.1985486 -0.010316704 -0.11484524 0.19192007
-0.11377915 0.16371985 -0.20142104 -0.015803987 0.19188744 -0.15676545 -0.13251893 -0.053688508
0.036813494 0.047968205 0.09085887 0.0024193143 -0.012538262 -0.11120045 0.013975954 -0.16696014
0.13753974 0.09037336 -0.027066637 0.20918994 0.070370354 0.25989354 -0.21667574 0.07378
-0.17109145 0.07030578 0.04334492 -0.041552763 -0.011539849 -0.16848035 -0.24745825 0.18435527
-0.25987116 -0.17040458 0.15937206 -0.27308345 0.21620135 -0.022065992 -0.28097096 -0.19233747
-0.098293 -0.11255297 0.018011209 0.09133708 0.23134509 0.2084154 -0.0899945 -0.14113922
-0.22863093 0.5105728 0.3673541 0.29487106 0.27393416 0.11201352 0.38754123 0.034696277
-0.55457014 -0.34777877 0.17979655 -0.16518854 -0.17739637 -0.012031779 0.09354383 -0.085791074
0.17914851 -0.37639943 0.14763214 -0.3059515 -0.25558415 0.13711964 0.1025549 -0.27759308
-0.16204113 0.41322142 0.0016299486 0.020738335 -0.28959882 0.1470518 -0.10208971 0.10751105
0.13605343 -0.021575477 0.09603276 0.3682515 0.21481536 0.022043597 -0.0806533 -0.088374585
0.11178795 0.19181268 0.30837622 -0.25468308 0.17258424 0.045502726 -0.122104235 0.038792588
-0.13558139 -0.22410429 -0.17290045 0.14624235 -0.055131935 0.04749272 0.06476932 0.008077039
-0.3574836 -0.0007134897 -0.19206558 0.030046588 -0.09481906 0.07771382 -0.1421714 0.4507195
0.023614503 -0.025198897 -0.07762423 -0.028095566 0.14170016 -0.36155787 -0.15205112 -0.15032595
0.30946127 -0.22542025 -0.19976357 -0.25419894 0.2375649 0.115325764 -0.1731714 0.018675765
0.28431776 -0.23601301 -0.055235963 -0.22070655 -0.2329681 0.18150884 0.049048513 0.2818213
-0.0881044 0.2583704 0.2145181 0.19167037 0.1991449 0.2359168 0.1512149 0.13907827
-0.039070304 0.06798694 0.23391011 -0.15964487 0.013189874 -0.04086964 0.040558267 0.073243104
-0.23678172 -0.1601828 -0.21493131 0.24331552 0.24279918 0.11305507 0.0049977633 0.293026
-0.03179243 -0.12201717 0.30958775 -0.053259432 -0.04194407 -0.1503103 -0.31963876 0.037358407
0.041201595 -0.087669246 0.28280994 -0.29542482 0.13107152 0.15799733 0.14220926 -0.26302037
-0.10519043 -0.18546067 -0.12787567 0.21552439 -0.06819706 0.105609775 -0.055425 0.02371145
0.17772268 -0.033563312 0.08549579 0.015589388 -0.022422705 0.114542335 0.15634313 -0.07878894
0.06845786 0.056331478 0.06722243 0.059139203 0.29552412 0.1615675 -0.014044949 -0.02219887
-0.05374835 0.1424895 -0.19439691 0.03559686 0.07515395 0.22516316 0.0018971366 -0.21284069
-0.15616542 0.17717494 -0.07159131 0.21819118 0.09533395 0.046267424 -0.12379682 0.09495203
-0.26266187 0.24277504 -0.09048702 0.080559984 0.20973918 0.16186482 0.13995421 0.18808466
-0.05893317 0.09196094 -0.013870017 0.2675444 -0.24088044 0.22807513 -0.2056843 0.071372904
-0.22153021 0.018704716 -0.014374671 0.2459854 -0.14767812 0.26180863 -0.13079876 0.017070482
00000000: 17aa 283e eeff 343e e630 043e 1dbf f3bd
00000010: 5384 58be 9fea 6ebe a7fa 84be 105c e7bd
00000020: 5639 7e3e 77fd c3bd e220 c7bd 3922 bf3d
00000030: 5350 4bbe 6507 29bc fb33 ebbd b286 443e
00000040: 0b05 e9bd 2da6 273e 5141 4ebe 5d77 81bc
00000050: 247e 443e 1f87 20be 0bb3 07be 7be8 5bbd
00000060: bfc9 163d 4f7a 443d 3714 ba3d 5c8d 1e3b
00000070: 486d 4dbc 10bd e3bd 66fb 643c 99f7 2abe
00000080: 38d7 0c3e ab15 b93d daba ddbc e335 563e
00000090: 551e 903d c410 853e 3fe0 5dbe f819 973d
000000a0: 9932 2fbe 7afc 8f3d 718a 313d 3b33 2abd
000000b0: a311 3dbc 1d86 2cbe b265 7dbe a1c7 3c3e
000000c0: d50d 85be 8a7e 2ebe 6e32 233e 98d1 8bbe
000000d0: e363 5d3e bdc3 b4bc 6ddb 8fbe 1df4 44be
000000e0: d74d c9bd 2c82 e6bd 3e8c 933c ef0e bb3d
000000f0: bae5 6c3e d96a 553e 094f b8bd cd86 10be
00000100: 3a1e 6abe e6b4 023f d615 bc3e 57f9 963e
00000110: 1941 8c3e 5867 e53d ce6b c63e af1d 0e3d
00000120: 4ff8 0dbf 0f10 b2be 961c 383e 2f27 29be
00000130: 65a7 35be f020 45bc e893 bf3d 3bb3 afbd
00000140: b572 373e 6db7 c0be e12c 173e ada5 9cbe
00000150: eddb 82be 1769 0c3e 4e08 d23d ae20 8ebe
00000160: 1cee 25be c291 d33e 00a4 d53a 71e3 a93c
00000170: 4c46 94be bf94 163e 6914 d1bd c12e dc3d
00000180: 9751 0b3e 0ebf b0bc d3ac c43d 768b bc3e
00000190: 8ff8 5b3e c694 b43c 8f2d a5bd bcfd b4bd
000001a0: 15f1 e43d 8b6a 443e 7de3 9d3e d265 82be
000001b0: ecb9 303e 1161 3a3d c911 fabd fae4 1e3d
000001c0: d9d5 0abe 987b 65be d10c 31be 8ec0 153e
000001d0: 06d2 61bd ba87 423d c7a5 843d 8f55 043c
000001e0: 1708 b7be 7c09 3bba d7ac 44be 4324 f63c
000001f0: 7f30 c2bd 6c28 9f3d 6195 11be b5c4 e63e
00000200: 3473 c13c eb6d cebc 74f9 9ebd ac28 e6bc
00000210: d919 113e 1d1e b9be 4ab3 1bbe 0cef 19be
00000220: b571 9e3e 91d4 66be d28e 4cbe 5d26 82be
00000230: 3744 733e ea2f ec3d d853 31be ebfd 983c
00000240: 1992 913e 65ad 71be 1b3f 62bd e600 62be
00000250: 318f 6ebe 74dd 393e 18e7 483d e24a 903e
00000260: 1470 b4bd 2049 843e a2aa 5b3e 3d45 443e
00000270: a4ec 4b3e 2c94 713e 14d8 1a3e 896a 0e3e
00000280: 2f08 20bd bd3c 8b3d 2286 6f3e f279 23be
00000290: 571a 583c ec66 27bd 6d20 263d 7b00 963d
000002a0: e876 72be f606 24be f416 5cbe b427 793e
000002b0: 59a0 783e 6b89 e73d 47c4 a33b 8107 963e
000002c0: c738 02bd 23e4 f9bd 4982 9e3e 9026 5abd
000002d0: 8ccd 2bbd f1ea 19be b1a7 a3be 2105 193d
000002e0: 01c3 283d ef8b b3bd 77cc 903e ec41 97be
000002f0: 9d37 063e 0dca 213e 4e9f 113e 9baa 86be
00000300: 156e d7bd 67e9 3dbe d7f1 02be 6db2 5c3e
00000310: e6aa 8bbd f049 d83d 5305 63bd 843e c23c
00000320: effc 353e af79 09bd 6b18 af3d a26a 7f3c
00000330: d2af b7bc 2c95 ea3d 6a18 203e 195c a1bd
00000340: a233 8c3d d6bb 663d eaab 893d f33b 723d
00000350: f04e 973e f371 253e c91c 66bc 68da b5bc
00000360: 3b27 5cbd c4e8 113e fc0f 47be 03ce 113d
00000370: 50ea 993d 2c91 663e 57a9 f83a e9f2 59be
00000380: d4e9 1fbe 596d 353e 779e 92bd 826d 5f3e
00000390: 723e c33d e982 3d3d 3089 fdbd 3676 c23d
000003a0: 9e7b 86be 059a 783e 4251 b9bd a2fc a43d
000003b0: dec5 563e e4bf 253e 2850 0f3e 4499 403e
000003c0: e863 71bd 0456 bc3d 113f 63bc 94fb 883e
000003d0: 5da9 76be 878c 693e e89e 52be f52b 923d
000003e0: d1d8 62be a23a 993c bd83 6bbc 99e3 7b3e
000003f0: ef38 17be c80b 863e 1cf0 05be 65d7 8b3c

fc3.bias f4 [5]
-0.0019110773 0.027401205 -0.03981435 0.014768781 0.0035149471
00000000: 1d7d faba 7e78 e03c 5f14 23bd c2f8 713c
00000010: 075b 663b
