CS237B_Win25_HW3-main/policies/intersection_right_IL.pt (torch, 21396 bytes, 6 tensors)

fc1.weight f4 [64, 5]
000000 66 fb a7 3c 32 fb 36 be 22 09 af bd 85 e4 8b be
       0.020505618 -0.17869261 -0.08546664 -0.27322784
000010 ca 61 ca 3d 46 ef b1 be 96 be ba be 74 fc c6 3c
       0.09881933 -0.34752864 -0.3647353 0.0242903
000020 3f 40 d4 bc 2a 1e 32 3e b6 62 af bc b5 c8 23 3e
       -0.025909541 0.17394319 -0.021409374 0.15994532
000030 fa cb 5f bd a8 85 80 3e 5f f9 43 be d0 03 a6 3d
       -0.054637887 0.25101972 -0.19138096 0.08106196
000040 d2 6d 26 be 8a d6 c8 3d 70 c3 45 3b d2 b4 86 be
       -0.1625283 0.09806545 0.0030176304 -0.2630983
000050 88 27 e5 3c 1c 49 13 be 0f 68 c5 3e 2d db 09 3f
       0.027972952 -0.14383358 0.38555953 0.5385006
000060 67 08 0c 3e b9 98 8b be f5 b1 2e be 91 64 6e be
       0.1367508 -0.27264956 -0.17060073 -0.2328055
000070 43 e0 03 3e 1b a2 86 be d7 b6 a9 be c0 b4 bf 3d
       0.12878518 -0.26295552 -0.33147308 0.09360647
000080 85 74 07 3e 13 a0 6e be 58 d3 0c 3b f8 e6 27 be
       0.13228042 -0.23303251 0.0021488275 -0.16396701
000090 45 d7 9e be 45 16 9b be 09 17 70 ba 4b c6 c5 3d
       -0.31023613 -0.30290428 -0.0009158706 0.09656962
0000a0 53 ad 98 bc f7 0c a7 3d 87 3a 2e be d7 4b 27 3f
       -0.018637335 0.0815677 -0.17014514 0.653501
0000b0 b2 19 37 be 52 0c 15 3d 84 1b 49 be 97 15 a3 bd
       -0.17880896 0.036388703 -0.19639403 -0.07963102
0000c0 9f 8e 23 be 7a b2 f6 bc f0 ba 12 3e 71 ff aa bd
       -0.15972374 -0.030114401 0.14329123 -0.08349503
0000d0 c8 d3 50 be 4b 87 55 bd 5f d2 91 be 11 3a 73 3d
       -0.20393288 -0.05213098 -0.28480813 0.05938155
0000e0 0f 6b 5d bd ed 32 69 bd e7 ba 97 be a9 cd 78 be
       -0.054057177 -0.056933332 -0.29634783 -0.24297203
0000f0 a8 7c 11 be 90 3a 02 be 01 bf 06 be 61 60 13 be
       -0.14207709 -0.12717652 -0.131588 -0.14392234
000100 83 4d 77 3d c2 61 ae be 89 3b 00 3e 8c f6 8f bc
       0.060376655 -0.34058958 0.12522711 -0.017573617
000110 a1 0c 56 3e bb 2f 1f 3d 9e 24 8e be cf 63 7c 3e
       0.20903255 0.03886388 -0.27762312 0.24647449
000120 9b d8 61 3e 3a 26 d8 3c 95 71 47 be 16 a1 9a be
       0.22055285 0.026385415 -0.19476922 -0.30201024
000130 96 f3 05 be 29 e9 31 be 59 17 a1 be c8 c2 dd 3d
       -0.13081202 -0.173741 -0.31463125 0.10828167
000140 f9 1d 6a 3b 9b f0 1e be 74 d4 13 be 3f b0 d0 bd
       0.0035723432 -0.15521471 -0.14436513 -0.10189866
000150 b9 2f dc bc fa 90 a6 be 54 80 72 3e 01 68 53 be
       -0.026878225 -0.32532483 0.23681766 -0.20645143
000160 b5 68 c5 3d 91 33 78 bd 22 e3 00 3e 39 c5 fd bd
       0.09639112 -0.060596053 0.12586644 -0.12391133
000170 c9 48 89 be 69 45 35 be 7d a4 9d be e8 fd 94 bd
       -0.26813343 -0.17702259 -0.30789557 -0.07274991
000180 ba 37 79 be 8a be 95 be d2 f7 1c 3e a4 d9 e3 bd
       -0.24337664 -0.29246932 0.15328911 -0.11125496
000190 34 9b fe 3d c3 13 0e be 81 6a ac be c9 4b 26 3e
       0.124319464 -0.13874726 -0.33675006 0.16239847
0001a0 2e 3a 09 3e 0a 69 5f 3b ed a6 04 bf 69 ae 84 be
       0.134011 0.0034089708 -0.5181721 -0.25914314
0001b0 16 16 48 bf 77 2e 06 3f 4f b9 81 3d c1 18 81 be
       -0.781587 0.5241465 0.06334173 -0.25214198
0001c0 d8 e5 8d be 23 c8 4c be 55 69 4f be 15 e1 25 3d
       -0.2771442 -0.19998221 -0.20255025 0.040497858
0001d0 60 74 a6 be f8 62 ab bf 92 44 b0 3e ba 0a 98 3e
       -0.32510662 -1.3389578 0.34427315 0.29695684
0001e0 56 96 af be 35 76 93 3d 26 00 ff bd bc 63 bd be
       -0.34294385 0.072002806 -0.124512 -0.36990154
0001f0 3c 23 80 b9 57 b0 19 3d a7 3f 03 3c 3e ee 04 3d
       -0.00024440314 0.037521686 0.008010781 0.032453768
000200 89 41 ee be 47 ba d8 bd ad eb eb bd 9c 7c 27 be
       -0.46534374 -0.105824046 -0.11519561 -0.16356128
000210 76 c5 3a bd 46 79 28 3e 4c 29 0d 3e 89 f2 8f be
       -0.04559847 0.16452512 0.13785285 -0.28114727
000220 9e c6 3c 3e 5c 63 25 bd 5c 7e b3 bd 5b 07 a0 bd
       0.18435141 -0.04037796 -0.087643355 -0.07813903
000230 55 93 57 3d 84 54 8a be f2 9a 86 bf 7a 7a e4 bd
       0.05263074 -0.27017605 -1.0516036 -0.11156173
000240 52 78 f9 3d d0 89 9b bd 83 1c dd bd e1 ac 34 be
       0.121811524 -0.07594645 -0.10796454 -0.17644073
000250 13 ad a8 39 7a 86 cf bc f2 1d 71 bd 04 1f d5 3d
       0.00032172407 -0.025332678 -0.05886645 0.104063064
000260 0f 46 00 3e f9 bf 72 be 29 4f 86 be 65 c5 46 be
       0.12526725 -0.23706044 -0.2623227 -0.19411238
000270 13 b7 7d 3d ed 60 87 bc e8 00 44 3f 5f b5 e2 bc
       0.06194217 -0.01652571 0.7656388 -0.027674375
000280 ee 3a b8 3d 94 f2 b0 be 52 44 a8 3e f8 50 04 3e
       0.08995615 -0.34560072 0.32864624 0.12921512
000290 30 ca 94 3d 54 70 03 3e d7 8c 18 be d0 0e 17 3e
       0.07265127 0.12835819 -0.14897476 0.14751744
0002a0 25 e9 d5 be ce 85 7c be 54 6f 09 be f7 5e e9 3d
       -0.41779438 -0.24660417 -0.13421375 0.11395066
0002b0 86 d7 90 3e a0 88 8e 3e 32 cf f9 bd de 33 ab 3d
       0.2828943 0.27838612 -0.121977225 0.08359502
0002c0 a8 f0 89 be aa 85 f3 3c 33 ca 2f 3e 54 3c 8d 3e
       -0.2694142 0.029726822 0.17166977 0.2758509
0002d0 42 23 9f be a6 19 64 3e d5 3f 66 be 9b 75 98 3e
       -0.31081587 0.22275409 -0.22485287 0.29777226
0002e0 3e 4e 9c bd 8f 69 2c 3d 23 7e c0 bd 35 39 f3 3c
       -0.07632111 0.042092856 -0.09399059 0.029690364
0002f0 1c 85 18 bd ba 73 78 bd 48 25 f4 3d b4 23 0f be
       -0.037236318 -0.06065724 0.11921173 -0.13978463
000300 fc 3b af bd 66 5a 5a 3e dc 38 8c be ad 69 8c be
       -0.08556363 0.21323547 -0.2738713 -0.27424374
000310 28 87 36 bc 40 dc 3a 3d d9 85 3b be 89 c3 bf 3d
       -0.011140622 0.045620203 -0.18312778 0.09363467
000320 66 9f 26 bd 58 dc 36 be 4b bb 34 bf 92 22 7a 3e
       -0.040679358 -0.17857492 -0.70598286 0.2442725
000330 48 10 1b 3e d6 84 9f bd a4 b8 62 3e 67 52 20 3c
       0.1514293 -0.07789008 0.22140747 0.009785271
000340 ea b7 c3 bd c1 3b 5e be 23 33 2e be f1 d4 9d be
       -0.09556563 -0.21702482 -0.17011695 -0.30826524
000350 b6 e9 83 bd ab 5e c7 3d 6c 43 2c 3d ab 98 85 3d
       -0.06441061 0.09734853 0.042056486 0.0652326
000360 8e 57 dc bd 35 b0 b6 be ab 0e 48 be c0 d9 ae be
       -0.10758887 -0.3568131 -0.19536845 -0.34150505
000370 d7 08 3c bc e2 ae 8f 3c e5 28 84 3e 29 23 7d 3a
       -0.011476717 0.017539445 0.2581245 0.00096564234
000380 5f 12 64 be 10 f1 d5 b9 63 ad 83 bc 61 a0 2b 3e
       -0.22272633 -0.0004080613 -0.016073888 0.16760398
000390 c1 25 65 3e 16 c9 a6 be 9f e9 76 bc 33 44 53 3d
       0.22377683 -0.3257529 -0.015070348 0.05157871
0003a0 df 49 28 3e 46 2b ce be 3d e5 85 bd 13 d4 19 3e
       0.1643443 -0.4026739 -0.06537864 0.15022306
0003b0 67 15 41 be 8d 6b a8 3b 01 0e 9d c0 d5 53 34 3e
       -0.1885582 0.005139774 -4.9079595 0.17610104
0003c0 8c 73 9a 3d d9 c7 9d bd 2a a1 0e bd b4 a1 f8 bc
       0.0754157 -0.077041335 -0.034821667 -0.030350544
0003d0 9f 34 dd bd 5c e8 fc bd f7 4f c2 3b 10 3d bc bd
       -0.10801052 -0.123490065 0.0059299427 -0.09191334
0003e0 23 88 01 be cb 67 32 be 9a f6 ca 3d c5 42 9e bd
       -0.12649588 -0.17422406 0.09910317 -0.07727579
0003f0 e1 13 ad be 4b d0 5a be 74 c6 ef bd 25 33 f5 3c
       -0.3380423 -0.2136852 -0.11707774 0.029931614

fc1.bias f4 [64]
000000 1a 81 cc be 23 65 af bd 0f bc 1a 3f 00 00 00 00
       -0.39942247 -0.08564212 0.60443205 0.0
000010 70 71 4c c0 00 00 00 00 55 6d 8e 3e 20 73 b0 bd
       -3.1944237 0.0 0.2781779 -0.08615708
000020 e6 db 43 bc 00 00 00 00 00 00 00 00 e6 5f 52 bd
       -0.011954283 0.0 0.0 -0.051360987
000030 00 00 00 00 ef ae 80 bd 00 00 00 00 44 40 82 bd
       0.0 -0.06283366 0.0 -0.06359914
000040 00 00 00 00 5b 4b 25 bd 11 f5 40 bd 00 00 00 00
       0.0 -0.040355068 -0.047108714 0.0
000050 3c 88 4f c0 22 db 89 bf 00 00 00 00 90 e6 ab bd
       -3.24269 -1.0769999 0.0 -0.08393586
000060 73 d8 c5 bd 5f 12 87 be 8c c9 94 be 00 00 00 00
       -0.09660425 -0.26381204 -0.29060018 0.0
000070 b2 45 d3 be ab 66 52 bd 00 00 00 00 b1 a5 b0 bd
       -0.4126411 -0.051367443 0.0 -0.08625353
000080 fd fd 7f 3e 23 e0 f2 bd 00 00 00 00 04 6c 6c c0
       0.24999233 -0.11859157 0.0 -3.6940928
000090 88 e9 0a 3d a4 d7 8a 3d 74 4a da bc 00 00 00 00
       0.03391412 0.067794114 -0.02664683 0.0
0000a0 cd 4b be 3d cd 25 a1 40 11 4e 2b be a7 5b 9d be
       0.092918016 5.0358644 -0.16728999 -0.30733988
0000b0 ed 5c 14 bd 31 7a 7d bd cd a7 24 be 10 68 71 c0
       -0.036221433 -0.06188411 -0.16079636 -3.7719765
0000c0 62 46 a7 bd 00 00 00 00 26 0d a1 bd c0 77 13 bf
       -0.08167721 0.0 -0.07863836 -0.576046
0000d0 00 00 00 00 25 46 ed be da 58 58 bd 8c d8 e9 bf
       0.0 -0.4634258 -0.05281911 -1.826921
0000e0 4d 2d 29 bd 00 a4 df be a9 2e 6c 3e ed 31 cb bd
       -0.041302968 -0.4367981 0.23064674 -0.09921632
0000f0 d2 15 0e be 1c 4a 17 be 00 00 00 00 48 b0 8e bd
       -0.13875511 -0.14774364 0.0 -0.06967217

fc2.weight f4 [64, 64]
000000 be 48 bf bd f4 7f 40 bc 20 c6 1f 3d c0 c2 01 be
       -0.09340046 -0.011749256 0.039007306 -0.12671947
000010 f2 6a 24 bd b9 da e6 bd 4e d1 c6 bc 01 2f 31 be
       -0.040141053 -0.11272187 -0.024269726 -0.17303087
000020 90 8a ca 3c 07 25 16 be 9d 23 0d 3e fa 95 11 be
       0.024724275 -0.14662562 0.13783117 -0.14217368
000030 c3 56 86 3d 1e f1 16 be f4 0d 5a be b4 96 07 3c
       0.06559517 -0.14740416 -0.21294385 0.0082756765
000040 83 7a 13 3e 55 c1 10 3d 7b 3c 87 3c 86 6f 3a 3c
       0.14402203 0.035340626 0.016508332 0.011379128
000050 dd b3 32 3d c6 a3 3f be 94 8e 7d 3d ff 8e 40 be
       0.043628562 -0.18714818 0.06190355 -0.18804549
000060 ea bb 57 3c 12 a8 45 bc 6e b4 25 bd 95 cd aa 3d
       0.013167361 -0.012063997 -0.040455274 0.08339993
000070 35 dc ac bd 93 9d 29 3e 5a 9b 27 be 73 83 98 3d
       -0.08440439 0.16564016 -0.16367856 0.07446947
000080 d0 e0 44 bd 74 60 8e bd fb 3f ec 3d 82 7f 76 3e
       -0.04806596 -0.06951991 0.11535641 0.24072078
000090 0e 12 b1 3c 2f 47 ff 3d 74 b9 50 3c 1c ac f6 bd
       0.021615054 0.12464749 0.012739528 -0.12044546
0000a0 b1 10 32 be c6 3d 46 bf a0 e9 ba 3c 0b 2b 27 3d
       -0.1738918 -0.7743801 0.02281648 0.040812533
0000b0 ae b1 80 3d 9d 6e 6a bb 73 82 92 3d 8d cf c8 3d
       0.0628389 -0.0035771497 0.071537875 0.09805212
0000c0 d9 b6 ec 3c da e2 0d be f8 5c 31 3d ec b8 53 bd
       0.028895782 -0.13856068 0.043301553 -0.051690027
0000d0 40 0c fc bd c1 b2 35 3d 53 93 4b 3e ac d6 43 be
       -0.12307024 0.044359926 0.19880418 -0.1912486
0000e0 46 de 6a 3e 67 98 e1 3d 99 34 8a 3d 12 62 e9 3a
       0.22936353 0.110153966 0.067483135 0.0017805716
0000f0 b8 12 5f be 46 b4 dc 3d ab d4 09 be 96 7b 20 be
       -0.21784484 0.10776572 -0.13460033 -0.15672144
000100 cf 56 c6 be 38 bc 26 be 4d 51 f2 bd ad 36 21 be
       -0.38738105 -0.16282737 -0.11831913 -0.15743513
000110 f0 01 45 be 05 33 28 be 15 be 0e 3c 5e ef 16 3e
       -0.1923902 -0.16425712 0.008712311 0.14739749
000120 91 8c 99 be 69 6f c3 bd 45 30 52 3d 49 e8 1d 3e
       -0.29990056 -0.09542734 0.051315565 0.15420641
000130 9c c2 50 3e fa 67 4b be b4 ee 5d bd d2 9d 39 be
       0.20386738 -0.19863883 -0.054182723 -0.1812661
000140 2b 1a d4 3d c1 a7 7c bc 98 4a 33 3e d4 b5 1b be
       0.10356554 -0.015420855 0.17508924 -0.1520608
000150 8e 3e 72 be ad 3b 68 3c 29 24 44 be 7b 07 8e bc
       -0.23656675 0.014174384 -0.19154419 -0.017337551
000160 b1 a8 03 3e 9c 61 b9 be 96 35 ba bd 1e ac 06 be
       0.1285732 -0.36207283 -0.09092252 -0.13151595
000170 be 20 de 3d 7c 71 10 3e 39 b6 31 be 77 9f c7 be
       0.10846089 0.14105791 -0.17354669 -0.3898885
000180 54 dd 27 be 06 2e 4d be 20 e7 12 be bb 39 5d bd
       -0.16393024 -0.20037088 -0.1434598 -0.054010134
000190 50 3e 10 be b6 ec 13 3e 3d 9e 3a be 05 22 08 3e
       -0.1408627 0.14445767 -0.18224426 0.13294227
0001a0 12 2c a3 bd a0 cf de bd 1f 5b 61 bd 9f f9 55 3d
       -0.0796739 -0.10879445 -0.05501854 0.05224001
0001b0 d8 b4 b9 3c b6 49 c6 3d e5 c7 cc be 56 c1 97 be
       0.02266924 0.09682028 -0.39996257 -0.2963969
0001c0 5c 76 09 be 4a e8 1c bd 78 1e c1 be 24 fd 8a bc
       -0.13424057 -0.038307466 -0.37718558 -0.01696641
0001d0 12 a8 15 3d 9e 1e 99 bd 18 7e e0 3b 9e ae c1 be
       0.036537237 -0.07476543 0.006850969 -0.37828535
0001e0 48 53 fa 3b 1f 8e b5 3d 70 8f a9 bd 5f 3a 5e 3d
       0.0076393224 0.08864998 -0.08279312 0.054254886
0001f0 74 0b 16 be 1d b4 19 3e b7 97 b0 3c bf e2 cc bd
       -0.14652807 0.15010114 0.021556718 -0.10004186
000200 77 90 73 bc ce 7a fe 3d cd 26 ce bc 64 45 11 3e
       -0.014865986 0.12425767 -0.025164986 0.14186627
000210 fe d3 89 3d bd ed bb bd 91 c7 6b 3d 52 3a 47 3e
       0.067298874 -0.09176204 0.05756337 0.19455841
000220 42 72 fc 3d 7d 6f 48 3d 26 74 f5 3c c3 0e 5c be
       0.123264804 0.04893445 0.02996261 -0.21490006
000230 c9 09 56 be e3 3e 61 bd 5a 67 44 3d 12 ac ff bd
       -0.2090217 -0.054991614 0.047950126 -0.12483992
000240 20 11 18 be 41 02 df bb 95 ac 17 be e4 b8 3c be
       -0.14850283 -0.0068056886 -0.14811929 -0.18429905
000250 07 93 03 3e 47 19 17 be 85 04 4e be 21 db 02 be
       0.12849055 -0.14755736 -0.20118912 -0.12778904
000260 29 bf a1 3d 52 e0 6c 3d 72 bd 8d bd c2 14 71 3c
       0.07897789 0.057831116 -0.069208995 0.014714422
000270 e0 fc 47 3c 45 0a 29 3e 0d f4 3d be 55 03 b1 3d
       0.012206286 0.16507824 -0.18550129 0.08643214
000280 b3 5c 0e 3a 51 75 f8 3d d5 18 8f bd f3 8b cd 3b
       0.00054306834 0.12131751 -0.06987158 0.0062727868
000290 74 3d c6 bd c4 37 69 3d f4 14 b7 3d 20 36 fb bd
       -0.0967969 0.056937948 0.08939543 -0.12266183
0002a0 74 45 d7 3d 7c 00 bd be 0d c6 22 bd 39 00 ab bd
       0.10511294 -0.36914432 -0.039739657 -0.08349652
0002b0 95 b0 13 be c8 92 93 bd 81 fd f6 3d 33 99 25 be
       -0.1442283 -0.07205731 0.12060071 -0.16171722
0002c0 fb 0f 4c be 74 0c 0f bd fa 90 86 3d e9 7b a5 3d
       -0.19927971 -0.034923986 0.06570621 0.080802746
0002d0 e9 3b 4a be e7 fb 0f bd f9 2b da 3c f6 e4 d4 bd
       -0.19749416 -0.035152342 0.026632296 -0.10395233
0002e0 b6 11 dd bd 1e 6c 82 bc 11 c8 1d be 09 ad f1 bd
       -0.10794394 -0.015920695 -0.1540835 -0.11800582
0002f0 8b b4 04 be e6 30 a5 3d 74 52 30 3e 48 4c d1 bd
       -0.12959497 0.08065967 0.17218953 -0.102196276
000300 04 8a be be a5 c2 6d 3c 4a 8f a9 3d eb a2 4d 3e
       -0.37214673 0.014511739 0.08279283 0.2008168
000310 19 8a ea be 68 5f b4 bd 11 4e e6 be 3b 2e 58 be
       -0.45808485 -0.0880726 -0.44981435 -0.21111386
000320 fe 26 5c be 5d d1 cd bc f0 40 b5 bc 40 33 db bd
       -0.2149925 -0.025124246 -0.022125691 -0.107031345
000330 5c 8f 1f 3d 74 26 9d 3c f1 52 05 be c1 59 2b 3d
       0.038955078 0.019183375 -0.13019921 0.041833643
000340 86 77 9b bd b7 dd 23 be af c8 cc 3c 57 fc b6 3c
       -0.07591157 -0.16002546 0.024998037 0.022337122
000350 d6 6d 0e be 9c 3a c4 be 8e 04 b4 bd 43 a1 1a 3d
       -0.13909087 -0.38325965 -0.08789931 0.037751447
000360 e6 a7 06 bd a7 ab 00 bf 7e 16 f9 bd 1e fe be 3d
       -0.032874964 -0.5026192 -0.12162493 0.09325813
000370 72 d9 61 be 66 1b 93 bd c2 fb 4d be a1 61 cf bc
       -0.22055605 -0.0718296 -0.20115569 -0.025315108
000380 60 42 01 be f7 c5 d1 bc dc 07 25 bd d4 6c e3 be
       -0.12622976 -0.025607092 -0.0402907 -0.44418967
000390 a8 87 06 be 66 90 ec 3c 21 c1 97 bd 4d fe c5 3d
       -0.13137686 0.028877448 -0.07409883 0.09667645
0003a0 3c f1 dd bd a5 ad c6 be ae f5 e1 bc df 7f 51 3e
       -0.108370274 -0.38804355 -0.02758297 0.20458935
0003b0 92 c1 91 3b 42 51 dc bd 8d 37 14 3d 3d fa 8d be
       0.004448124 -0.10757686 0.03618579 -0.2772998
0003c0 8a 19 a7 3c fc 50 d1 3d 99 b5 21 3e ac 38 df 3d
       0.02039792 0.10220525 0.1579193 0.10899481
0003d0 0e ae e6 bb 61 5c f5 be c2 5b 30 3e 6c e9 02 bf
       -0.007039792 -0.47922042 0.17222503 -0.51137424
0003e0 f1 ce c3 bd 1f ef 50 be b4 8c 44 be e2 5c 74 bd
       -0.09560955 -0.20403717 -0.19194299 -0.059658892
0003f0 df b2 4d be 3a 44 12 be bb 3d 46 3e 3c ce 4b be
       -0.20087765 -0.14283839 0.19359486 -0.19902891

fc2.bias f4 [64]
000000 d6 c7 70 bf 09 b8 45 be 75 b9 97 be 7a 12 a1 be
       -0.94054925 -0.19308485 -0.2963368 -0.3145941
000010 c9 51 3e be 46 b8 f3 be 0f a2 ab be 17 17 ea be
       -0.18585886 -0.47601527 -0.33522078 -0.4572074
000020 26 22 af be d3 e6 21 be d8 42 24 3f 02 48 bc bc
       -0.3420574 -0.15810709 0.64164495 -0.022983555
000030 d7 46 91 be 8d 13 11 be ef 72 85 be 6d f2 7e be
       -0.2837436 -0.14167614 -0.2606425 -0.24897166
000040 0f ed 52 bd 4b bd fa bd b3 cf c6 3e 73 15 c9 bd
       -0.051495608 -0.12243136 0.38830337 -0.09818544
000050 45 27 a2 be 06 bd 6c be a2 bf 16 be 87 06 ad be
       -0.31670585 -0.23118982 -0.1472154 -0.33794042
000060 2f ff 90 be 72 71 05 3e 4b 7d 33 be ad 58 e6 be
       -0.2831969 0.13031557 -0.17528264 -0.4498953
000070 b5 c0 bc be 03 5f 04 be 3b 06 34 be a8 96 9e be
       -0.36865774 -0.12926869 -0.17580502 -0.30974317
000080 36 35 e5 3f 9a bb 00 bf 6c 3c f9 be 14 e0 42 3f
       1.7906864 -0.5028626 -0.4867891 0.76123166
000090 c0 6b ac 3f 8b 6b 07 3e 46 3b 5d bd 33 3b 33 be
       1.3470383 0.13224618 -0.054011606 -0.17503051
0000a0 d0 c8 65 be 7b af a1 be ac 3f 3a bd 36 76 24 be
       -0.22439885 -0.31579193 -0.04547088 -0.16060719
0000b0 ae 39 03 bf a5 cf 9c bd f6 d3 45 be 07 47 6b 3d
       -0.5125989 -0.076567926 -0.19319138 0.057440784
0000c0 db 89 5f bd 32 26 27 be cc 47 8a be c4 cf 80 3c
       -0.05457483 -0.16323164 -0.27007902 0.01572407
0000d0 4b 6c 83 be 5c 59 fa be a5 2b 6a be 22 82 94 bd
       -0.25668558 -0.488963 -0.22868212 -0.07251383
0000e0 72 93 83 be 0e af f8 be e8 9b 49 3e f7 e3 0f bf
       -0.2569843 -0.48571056 0.1968838 -0.5620722
0000f0 f0 b0 87 bd 49 a9 f0 bc 14 44 f2 be d2 e4 52 be
       -0.06625545 -0.029377596 -0.47317564 -0.205951

fc3.weight f4 [2, 64]
000000 0f b9 97 bd 94 07 f1 3d e8 1a d1 3c 79 e0 4b bd
       -0.07408344 0.117690235 0.025525525 -0.04977462
000010 11 92 17 bd e9 17 86 3b 5c ff 85 be 1f f3 43 3e
       -0.037004534 0.004092206 -0.26171386 0.19135712
000020 0a 7b 8a be f1 b7 03 bb 70 c1 9c 38 33 0f 5e 3c
       -0.27046996 -0.0020098651 7.47469e-05 0.013553428
000030 2c 39 8f bc 7f 12 27 bd 7a 25 49 3e f4 3d 15 3e
       -0.017483316 -0.040789124 0.19643202 0.14574414
000040 40 55 00 3e 58 51 d5 bc cd 76 29 3c 78 8d 2e be
       0.1253252 -0.026039764 0.010343266 -0.17046154
000050 d4 b9 f6 bc ba 5a 10 be 9e 1c 08 3e ee 9e b7 3d
       -0.030117907 -0.1409711 0.13292167 0.0896586
000060 24 7c e3 bd 26 2d e6 3b 0c e2 a2 bd d5 b3 86 3c
       -0.11107662 0.007024425 -0.07953271 0.016443172
000070 f2 ce 47 3c fd 94 84 3d 34 48 a5 3c fb 8e 15 be
       0.012195336 0.0647373 0.02017603 -0.14605324
000080 f3 81 7e bf c6 20 14 3d e3 a2 04 3c ae f7 2a 3d
       -0.99417037 0.036164068 0.008095476 0.041740112
000090 62 24 72 3f 83 70 01 3d f9 ed 20 3d 9b 7e 09 bd
       0.94586766 0.03160144 0.03928945 -0.033568006
0000a0 c9 a3 02 be 6a 6f 31 3e 70 e7 1f be b2 cf af 3a
       -0.12757792 0.17327657 -0.1561563 0.0013413338
0000b0 96 e9 63 3e 01 f0 90 be 36 ab ae bc 18 43 00 3d
       0.22257075 -0.28308108 -0.021321874 0.031313986
0000c0 f8 dd 85 bd 8b 5f 61 3e 3a 67 27 bc 59 b3 43 3d
       -0.06536478 0.22009103 -0.010217482 0.04777846
0000d0 b1 ea f6 3d b7 26 a1 bd 02 2f 40 3d 16 ce b0 bc
       0.120564826 -0.078687124 0.04691983 -0.021582644
0000e0 39 8b c1 3c de c0 cc 3d c0 75 27 bd be a9 2e bc
       0.023625957 0.09997724 -0.04088378 -0.010660587
0000f0 97 9c 38 3d 9c 08 bc bb 8e fe ee 3d 05 c8 1f be
       0.04507121 -0.005738331 0.11669646 -0.15603645
000100 d7 0f 42 be 57 62 62 be a0 e0 1d 3f a7 fc 18 bf
       -0.18951355 -0.22107826 0.61670876 -0.59760517
000110 6f 50 2a 3d bf f8 55 3e 50 de ff bd f9 8c 71 3e
       0.041580614 0.2089567 -0.124935746 0.23588933
000120 af 3e d6 3d 39 92 3b 3e 76 ee 8d bf 4d 3b 6d 3f
       0.10461175 0.18317498 -1.1088398 0.9266861
000130 de ea a9 bf 25 c2 39 3d 30 e3 d1 3e 29 32 17 bd
       -1.3274801 0.045351166 0.40993643 -0.03691307
000140 5b 1c c0 bd 30 c8 1d be a4 08 5e 3e be 8f 3f 3e
       -0.093804084 -0.15408397 0.21682984 0.18707177
000150 b7 6f 6a bd 09 b4 80 3d be 8f 30 bd e9 63 88 be
       -0.057235446 0.06284339 -0.043105833 -0.26638725
000160 47 16 26 3e 1f 3e 29 bf 7e 4b aa bd f5 f0 5c 3d
       0.16219436 -0.66110414 -0.0831518 0.053940732
000170 68 cd 0d be e8 e8 72 be fd 13 9e 3c 47 82 ae 3e
       -0.13847888 -0.23721659 0.01929664 0.3408377
000180 91 16 d2 be 23 71 64 bf 97 73 95 3c c3 ae 0a be
       -0.41032842 -0.8923513 0.018243594 -0.13543229
000190 6f 1b a4 3e d9 80 3d 3e 01 66 92 3e 0a 69 cd bd
       0.3205218 0.18506183 0.28593448 -0.100298
0001a0 a3 e4 4b be 98 bd 15 3f 9c a8 40 bd 71 4f 20 3f
       -0.19911437 0.5849242 -0.0470358 0.6262122
0001b0 3f e8 c0 be 2f 0a 6a bf aa 91 c2 bf 69 df 1a 3f
       -0.3767719 -0.9142179 -1.5200703 0.60497147
0001c0 50 56 fe be ff dd 7d be d1 bc 15 3e 63 36 58 3f
       -0.49675226 -0.24791716 0.14622809 0.8445799
0001d0 85 e2 bf 3e a5 c6 a3 bc 80 d1 ef 3e d2 99 0e 3f
       0.37477508 -0.019992182 0.46839523 0.5570346
0001e0 5b 85 c6 3e 71 c4 a1 bf ff a7 fe 3e 53 68 3b bf
       0.38773617 -1.2638074 0.49737546 -0.7320606
0001f0 37 42 19 be c1 db 45 bf 9f d9 9d be e7 e2 c2 3d
       -0.14966665 -0.7728844 -0.30830094 0.095159344

fc3.bias f4 [2]
000000 24 9c 0e 3b 2f db 5f 3f
       0.0021760548 0.8744382
