CS237B_Win25_HW3-main/policies/intersection_left_ILDIST.pt (torch, 22322 bytes, 6 tensors)

fc1.weight f4 [64, 5]
0	0xbcebbf29	-0.028777676
1	0xbe467f7a	-0.19384566
2	0x3e90e301	0.2829819
3	0xbdd38558	-0.10328168
4	0x3da16150	0.07879889
5	0x3dab313e	0.083590016
6	0x3d15071f	0.036383744
7	0x3e79bf7a	0.24389449
8	0x3e862e5e	0.2620725
9	0x3e819179	0.253063
10	0xbcee30d3	-0.029076016
11	0x3e56aa9f	0.20963524
12	0x3d9ec317	0.07752054
13	0xbdf9db0f	-0.12199985
14	0x3c4dfdaf	0.01257269
15	0xbec93fe8	-0.3930657
16	0x3dbb5fc2	0.09149124
17	0x3e18d090	0.1492331
18	0x3d18a0ea	0.037262835
19	0xbdd50fae	-0.10403381
20	0x3dc652f5	0.096837915
21	0xbe75f573	-0.24019413
22	0xbd7f6fcd	-0.06236248
23	0x3e9fbe6c	0.31199968
24	0xbe52f722	-0.20602086
25	0x3dc2bace	0.095082864
26	0xbea485ae	-0.3213324
27	0xbe8099ee	-0.2511744
28	0xbeb7eb4b	-0.35921702
29	0xbe5bc4f1	-0.21461846
30	0x3e6000ed	0.21875353
31	0xbdc9c32c	-0.09851679
32	0x3e826022	0.2546397
33	0x3e854f35	0.26036993
34	0x3e9d0cfc	0.3067397
35	0x3e26ee42	0.16301826
36	0xbd6aaea4	-0.057295457
37	0xbe317b88	-0.1733228
38	0x3dd0681c	0.10176107
39	0x3e7f1875	0.24911673
40	0xbce70cba	-0.02820431
41	0x3ea4cbe4	0.32186806
42	0xbe6e8ee5	-0.23296697
43	0x3ea138b9	0.31488588
44	0x3e227c6d	0.15867777
45	0xbcc8f9fe	-0.024533268
46	0xbe59303a	-0.21209803
47	0xbe04bcab	-0.12962596
48	0x3e360c55	0.17778142
49	0x3e53bf97	0.20678554
50	0x3e891c07	0.26779196
51	0x3ea4a451	0.32156613
52	0x3e49ab25	0.19694193
53	0x3c1e1c49	0.009650298
54	0xbe6206d5	-0.22072919
55	0xbe4d13ab	-0.20027034
56	0x3e04eaa9	0.12980141
57	0xbe265f4b	-0.16247289
58	0x3de0adb2	0.1097063
59	0xbb9ad390	-0.0047249272
60	0x3e23bd90	0.15990281
61	0x3d58d946	0.052941583
62	0x3e7a24ed	0.24428149
63	0x3ddca2d9	0.10773248
64	0x3e2b6280	0.16736794
65	0xbe09bdc4	-0.13451296
66	0xbe185c00	-0.14878845
67	0xbd5c57c1	-0.053794626
68	0x3dc1d430	0.094643
69	0xbe052a86	-0.13004503
70	0xbe7266f5	-0.23672087
71	0x3e1c13ce	0.1524193
72	0x3e5a6e36	0.21331105
73	0x3e20e7a7	0.15713368
74	0xbe18eaef	-0.1493337
75	0x3ec07000	0.3758545
76	0xbc8f917e	-0.01752543
77	0x3add3932	0.0016878007
78	0xbebaf342	-0.36513716
79	0x3d0d5d5f	0.034512874
80	0x3e006dc9	0.1254188
81	0x3e7d279d	0.24722143
82	0xbe03061b	-0.12795298
83	0x3d19eebd	0.037581194
84	0x3e2aae00	0.16667938
85	0xbe8f5afc	-0.27999103
86	0xbebbebaa	-0.36703235
87	0xbac3d360	-0.0014940314
88	0x3e0e38f1	0.13888909
89	0x3e5af05e	0.21380755
90	0x3e31dd64	0.1736961
91	0xbe5ae858	-0.21377695
92	0xbe8934b2	-0.26798016
93	0xbda2d4e5	-0.07950763
94	0xbe1df468	-0.15425265
95	0xbdbfffe0	-0.09374976
96	0xbe60091f	-0.2187848
97	0x3d94eef3	0.072721384
98	0x3eed1c88	0.4631083
99	0x3e840222	0.25782877
100	0xbe7440f9	-0.2385291
101	0xbe182587	-0.14858066
102	0x3e835745	0.2565252
103	0xbdb327fa	-0.08747859
104	0xbe968dd5	-0.29405084
105	0x3e70654e	0.23476145
106	0x3dade70b	0.084913336
107	0xbd934240	-0.071903706
108	0xbea159b4	-0.3151375
109	0xbd9c1280	-0.07620716
110	0x3e3acca2	0.18242124
111	0x3e04eeff	0.12981795
112	0x3df4185a	0.11918707
113	0xbe8d0425	-0.27542225
114	0x3e7172ae	0.23578903
115	0xbbfb39b1	-0.0076667895
116	0xbe600333	-0.2187622
117	0x3e29e2cb	0.16590421
118	0x3db54ca2	0.08852507
119	0x3a093d00	0.0005235225
120	0x3dee703d	0.116425015
121	0x3ea3ea62	0.32014757
122	0x3e130e2d	0.14360876
123	0xbeacdd5c	-0.33762634
124	0xbde1dc20	-0.11028314
125	0xbe92d189	-0.28675488
126	0xbe48c44c	-0.19606131
127	0x3e692feb	0.22772186
128	0xbc911645	-0.017710814
129	0x3dd83220	0.105564356
130	0xbd6c61cb	-0.05771045
131	0x3e67a6b7	0.2262219
132	0xbddc996c	-0.107714504
133	0x3e0f195a	0.13974515
134	0x3da1d794	0.079024464
135	0xbdb7957f	-0.08964061
136	0xbe897978	-0.26850486
137	0xbedc1ed9	-0.42992285
138	0x3dfb62a7	0.12274676
139	0x3e54ddae	0.20787689
140	0x3bfabc45	0.007651838
141	0xbe1b8937	-0.15189062
142	0xbf26e4d2	-0.651929
143	0x3e7cd548	0.24690735
144	0x3e1b0cc2	0.15141585
145	0x3e01cab4	0.12674981
146	0xbe2f0991	-0.17093493
147	0xbe1b2797	-0.15151821
148	0x3c8b7acc	0.017026328
149	0x3e171b1e	0.14756438
150	0xbd0d8318	-0.03454885
151	0xbe4a8d95	-0.19780572
152	0xbd7e6de8	-0.062116534
153	0xbca96227	-0.020676685
154	0x3e5313ef	0.20613073
155	0x3d3c2626	0.04593482
156	0x3dd61970	0.104540706
157	0x3e8e5050	0.2779565
158	0xbe591762	-0.21200326
159	0xbe45570e	-0.1927149
160	0xbe61158b	-0.21980874
161	0x3e145777	0.1448649
162	0x3e10b144	0.14130121
163	0xbeb70e70	-0.35753202
164	0xbcef4f61	-0.029212655
165	0x3ddcc161	0.107790716
166	0xbd61d5cd	-0.055135537
167	0xbeca985e	-0.39569372
168	0x3e95777b	0.2919272
169	0xbdf1547b	-0.117836915
170	0x3e80a141	0.25123027
171	0x3dec33f0	0.11533344
172	0xbd5f0cea	-0.054455675
173	0xbd080b56	-0.033213936
174	0x3e52e745	0.20596035
175	0xbe6b25d5	-0.2296365
176	0xbe2294dd	-0.158771
177	0xbe26894b	-0.1626331
178	0xbe902035	-0.28149572
179	0xbe6ef688	-0.23336232
180	0xbdd2ea57	-0.10298603
181	0x3c0418fd	0.008062598
182	0x3e1934cf	0.14961551
183	0x3e820062	0.25390917
184	0x3e4498ba	0.19198886
185	0xbe8e9200	-0.27845764
186	0xbe54ae34	-0.20769578
187	0x3e25e85f	0.16201924
188	0xbe229c2f	-0.15879892
189	0xbdccb039	-0.09994549
190	0xbd8ed59a	-0.06974335
191	0x3e546c30	0.20744395
192	0x3d37e383	0.044894706
193	0x3dceaf08	0.10091978
194	0x3e87c57b	0.26517853
195	0xbe4a2f9d	-0.19744726
196	0xbe455da1	-0.19273998
197	0x3ecb7412	0.39736992
198	0xbe850380	-0.25979233
199	0x3ddd5b53	0.10808434
200	0x3d91be73	0.071164034
201	0xbe05a1be	-0.13049981
202	0x3e74b0fc	0.23895639
203	0x3da0c96d	0.07850919
204	0xbca30fef	-0.019905059
205	0xbe4b0e91	-0.19829775
206	0xbd84d5d4	-0.06486097
207	0xbe3a111f	-0.18170594
208	0xbe62da8c	-0.22153682
209	0xbe1a9c13	-0.150986
210	0xbe2bfbf1	-0.16795327
211	0xbc63331e	-0.013867168
212	0xbc06e738	-0.008233838
213	0xbdb613a2	-0.088904634
214	0x3dbaf497	0.09128683
215	0x3ac4aadf	0.0015004537
216	0xbe261f48	-0.1622287
217	0xbea87ee4	-0.3290931
218	0xbd86f212	-0.0658914
219	0xbd92431b	-0.071417056
220	0xbde85996	-0.11345212
221	0x3d8667d2	0.06562771
222	0xbd96a61d	-0.07355902
223	0x3eba4a1d	0.3638467
224	0xbc424ccb	-0.011859129
225	0xbe22364b	-0.15841024
226	0x3db352e2	0.08756043
227	0xbe017dea	-0.12645689
228	0xbe8fa380	-0.28054428
229	0x3d85af3e	0.065275654
230	0xbde92a24	-0.11384991
231	0x3dea9110	0.1145345
232	0xbe100343	-0.14063744
233	0x3d116767	0.035499003
234	0xbdbf8176	-0.093508646
235	0xbade2706	-0.0016948886
236	0xbe970d67	-0.29502413
237	0x3eab52f4	0.33461726
238	0x3d6b4d46	0.05744674
239	0xbbdfe234	-0.0068323854
240	0xbe02b4d1	-0.12764288
241	0xbde1cca4	-0.1102536
242	0xbe4e51e4	-0.20148426
243	0xbdf47676	-0.11936657
244	0x3cc67984	0.024227865
245	0xbe05063c	-0.1299066
246	0xbe9096ea	-0.28240138
247	0x3dce9685	0.10087303
248	0x3dd0c348	0.10193497
249	0x3b2457e0	0.0025076792
250	0xbe2039e2	-0.1564708
251	0xbe7f4c1e	-0.2493138
252	0xbe2073cc	-0.15669173
253	0x3e0eaa8b	0.13932244
254	0xbe7b192e	-0.24521324
255	0x3e52677a	0.20547286

fc1.bias f4 [64]
0	0xbca2efc1	-0.019889714
1	0x00000000	0.0
2	0xbd4f16ff	-0.05055904
3	0x3ce66747	0.028125418
4	0x3c630ad0	0.013857558
5	0xbdc91f65	-0.09820441
6	0x3c75f58e	0.015012158
7	0x3d6d1419	0.057880495
8	0x3cee20b2	0.029068325
9	0x3c28df5c	0.010307159
10	0x3c2fc293	0.010727542
11	0xbdaf1c3c	-0.08550307
12	0x37ffeba1	3.0508092e-05
13	0x00000000	0.0
14	0x3d5d0b61	0.05396593
15	0xbe0b256c	-0.13588494
16	0x00000000	0.0
17	0xbcb8aa35	-0.022542099
18	0xbbf85690	-0.0075786784
19	0x3e2b2714	0.16714126
20	0x00000000	0.0
21	0xbc808c51	-0.015691908
22	0x00000000	0.0
23	0x3d987235	0.07443658
24	0xbdb0715b	-0.08615371
25	0xbd07e356	-0.03317579
26	0xbbaf106d	-0.0053425343
27	0x3e10b00b	0.14129655
28	0x3e0108d2	0.12601021
29	0xbd53571a	-0.05159674
30	0x3dd12958	0.10212964
31	0xbcb3491a	-0.021885443
32	0xbda5eea2	-0.08102156
33	0x3d0b3f15	0.033995707
34	0x00000000	0.0
35	0x00000000	0.0
36	0x3c054ea3	0.008136424
37	0xba4ac9f9	-0.0007735785
38	0x3cf13f7d	0.029449219
39	0xbe2cf776	-0.16891274
40	0x3c7a556c	0.015279155
41	0x00000000	0.0
42	0xbc37fff8	-0.011230461
43	0xbd83c571	-0.06434143
44	0x3e536685	0.20644577
45	0xbac04910	-0.0014670212
46	0x3d057bb2	0.03258867
47	0x3cd72240	0.026261449
48	0xbbf5ec4e	-0.0075049764
49	0xbc8edde5	-0.017439792
50	0x00000000	0.0
51	0x3c5977f1	0.013273225
52	0xbd0b9dbc	-0.034085974
53	0xbc895fbd	-0.016769284
54	0x00000000	0.0
55	0x3d677b66	0.056514166
56	0x3d005d61	0.031339053
57	0xbe9ae7f9	-0.30255106
58	0xbbb7ea74	-0.005612666
59	0x3d8791e7	0.066196255
60	0x3c44638d	0.011986625
61	0x00000000	0.0
62	0xbc808755	-0.015689531
63	0x3c9ae1bf	0.018906472

fc2.weight f4 [64, 64]
0	0x3d49021c	0.049074277
1	0xbd050abf	-0.03248095
2	0x3e0b31e4	0.1359325
3	0x3cb2467b	0.021762123
4	0xbda84483	-0.082161926
5	0xbe49cb10	-0.19706368
6	0x3dbc4393	0.09192576
7	0x3d3574f1	0.044300977
8	0x3e4ec36b	0.20191734
9	0xbe35cdb4	-0.17754251
10	0xbdcae742	-0.0990739
11	0xbe1cd9e0	-0.15317488
12	0xbd8474f5	-0.0646762
13	0x3e294487	0.16530047
14	0xbd2e5d1e	-0.042569272
15	0x3dce4122	0.10071017
16	0x3e4b3d45	0.19847591
17	0x3e07e0ff	0.13269423
18	0xbe3beb0c	-0.18351382
19	0x3c3b190e	0.011419548
20	0xbd5f9d5a	-0.05459342
21	0x3dbe0203	0.092777275
22	0xbb05183e	-0.002030864
23	0x3d6f14a1	0.058369283
24	0xbdf38898	-0.118912876
25	0xbe290841	-0.16507055
26	0xbe0f1682	-0.1397343
27	0x3d26d37f	0.040729042
28	0x3da4b974	0.08043185
29	0xbda0c789	-0.07850558
30	0xbe281fe6	-0.16418418
31	0x3e106257	0.14100014
32	0xbdb9e6e2	-0.090772405
33	0xbde66a6b	-0.11250766
34	0xbd8bc6a5	-0.06824998
35	0x3cccd278	0.025002703
36	0xbd7fc2f8	-0.062441796
37	0x3dafaaa3	0.08577468
38	0xbe3e6122	-0.1859174
39	0x3d9dd4b4	0.077065855
40	0xbe438bc5	-0.19096287
41	0x3e201998	0.15634763
42	0x3ded954f	0.11600744
43	0x3e6376b2	0.22213247
44	0x3e2751e4	0.16339833
45	0x3cb4fb44	0.022092469
46	0xbdcb6f5f	-0.09933352
47	0xbe2e43b2	-0.17018011
48	0x3e04ec52	0.12980774
49	0x3e5db317	0.21650349
50	0xbd77c5fd	-0.06049155
51	0xbe340bca	-0.17582622
52	0xbc33acae	-0.010966463
53	0x3e380642	0.17971137
54	0xbe39f34e	-0.1815922
55	0xbdf07ca3	-0.117425226
56	0xbd373053	-0.04472382
57	0xbe233494	-0.15938026
58	0xbe51171d	-0.20418973
59	0x3d00b4df	0.031422492
60	0xbd29c319	-0.041445825
61	0x3e120ad5	0.14261945
62	0xbc1f3a05	-0.009718423
63	0xbe607da6	-0.21922931
64	0x3dd3e577	0.10346501
65	0x3db8d58d	0.090251066
66	0xbbdd7772	-0.0067586238
67	0x3d8e319d	0.06943057
68	0x3c94bb68	0.018155769
69	0xbc79ef5f	-0.015254824
70	0x3d8f3683	0.06992819
71	0xbd10ad30	-0.035321414
72	0x3e026150	0.12732434
73	0x3e1a66e1	0.15078308
74	0xbdafcc69	-0.0858391
75	0x3d7d0054	0.06176789
76	0xbced759b	-0.028986743
77	0xbdb23f4d	-0.0870348
78	0x3e051f90	0.13000321
79	0xbe18f5a6	-0.14937457
80	0x3d408522	0.047001965
81	0x3dd43049	0.10360772
82	0xbd720f26	-0.059096478
83	0x3973a63b	0.00023236212
84	0x3e3bbbae	0.18333313
85	0xbab7b341	-0.0014015214
86	0xbdcd1aa1	-0.10014845
87	0xbdddc439	-0.10828442
88	0xbe0beb37	-0.13663946
89	0xbe4f9745	-0.20272548
90	0xbe047184	-0.12933928
91	0x3db713f4	0.08939353
92	0x3d9bb9f3	0.076038264
93	0x3df5abaf	0.11995637
94	0x3de98205	0.114017524
95	0xbdb5db8c	-0.08879766
96	0xbde8af36	-0.11361544
97	0x3e449989	0.19199194
98	0x3e3b15ea	0.18270078
99	0xbd744d8c	-0.059644267
100	0x3e3b1254	0.1826871
101	0xbcce826d	-0.025208676
102	0x3dfa51bc	0.12222621
103	0x3d9ed620	0.07755685
104	0xbdfb0670	-0.12257087
105	0x3b1b1e30	0.0023669116
106	0xbd44bfa1	-0.048034314
107	0xbdeec5fd	-0.11658857
108	0xbdc5d4ea	-0.09659751
109	0xbde825c8	-0.11335331
110	0x3e3b28e9	0.18277325
111	0xbdd0c10e	-0.10193072
112	0x3e472f9b	0.19451754
113	0x3e366340	0.17811298
114	0x3c95762d	0.018244827
115	0xbcdda8b3	-0.027057981
116	0xbdefaa97	-0.11702459
117	0xbd45b75e	-0.048270576
118	0xbd9e967b	-0.077435456
119	0x3e0bdb95	0.13657983
120	0xbe0097fb	-0.12557976
121	0xbe365626	-0.178063
122	0x3e5508d4	0.20804149
123	0x3b867487	0.0041032466
124	0x3c99e9e5	0.018788287
125	0xbe0f55e1	-0.13997604
126	0xbd3a73eb	-0.045520704
127	0x3e0bfdbe	0.13671014
128	0xbe8ddd15	-0.27707735
129	0x3d5d1330	0.053973377
130	0x3e18f495	0.1493705
131	0xbe1615ce	-0.14656755
132	0xbb4d55d5	-0.0031331677
133	0xbb884267	-0.0041583064
134	0x3dfb6bfa	0.12276454
135	0xbe54e806	-0.20791635
136	0xbe1da061	-0.15393211
137	0x3e3633e8	0.17793238
138	0xbe381de3	-0.17980151
139	0x3d9d820b	0.07690819
140	0xbd2f07d0	-0.04273206
141	0xbdde34cd	-0.10849915
142	0xbe1c64cc	-0.15272826
143	0xbe37cac8	-0.17948449
144	0xbcf66f2f	-0.030082313
145	0xbd8a6359	-0.0675723
146	0xbb184747	-0.0023235844
147	0x3e12aa30	0.14322734
148	0x3be39198	0.0069448464
149	0xbe5435ef	-0.20723699
150	0xbdb63808	-0.08897406
151	0xbd0297a2	-0.03188289
152	0xbe7f8238	-0.24952018
153	0x3bc7a3c7	0.006092522
154	0x3e0ec811	0.13943507
155	0xbbc36c78	-0.005963858
156	0xbe073c5d	-0.1320662
157	0xbd670647	-0.05640247
158	0x3d225903	0.03963567
159	0xbcf99d0e	-0.030470397
160	0xbe5803d0	-0.21095204
161	0xbd90f47a	-0.0707788
162	0x3d83113a	0.0639977
163	0x3a9832a1	0.0011611768
164	0x3e2c917a	0.1685237
165	0x3db3d964	0.08781698
166	0x3d2368f3	0.03989501
167	0x3d9c8df9	0.07644267
168	0xbe127e83	-0.14306073
169	0xbd973848	-0.07383782
170	0x3df047a4	0.11732414
171	0xbd9d77f9	-0.076888986
172	0x3d181f5d	0.037139285
173	0x3ce9836c	0.02850505
174	0x3cbaa22a	0.022782404
175	0xbc125874	-0.008932222
176	0x3e24c355	0.16090138
177	0x3e099c3e	0.13438508
178	0xbda942f9	-0.08264727
179	0xbdfb786b	-0.12278827
180	0x3c829205	0.015938768
181	0xbd0f74df	-0.035023566
182	0xbe06e4d0	-0.13173223
183	0x3ea27f57	0.31737778
184	0xbdbb56e9	-0.09147436
185	0x3d32fee9	0.043700133
186	0xbd15e6fe	-0.036597244
187	0x3ccc2bda	0.024923254
188	0x3d912339	0.07086796
189	0x3e21cf61	0.15801765
190	0x3dda77b8	0.10667366
191	0x3e3f6678	0.18691432
192	0xbdcf0200	-0.10107803
193	0xbe2bd059	-0.16778697
194	0xbd8b31a0	-0.067965746
195	0x3cb47aed	0.022031272
196	0x3e4364cd	0.19081421
197	0xbe5ccc32	-0.2156227
198	0x3e66a880	0.22525215
199	0x3dac0f7e	0.084013924
200	0x3dff7858	0.124741256
201	0x3d9caa6b	0.07649692
202	0xbe053b96	-0.13011011
203	0x3d61a8f1	0.055092756
204	0x3c7bd619	0.015370869
205	0xbdcca739	-0.09992833
206	0xbdcad725	-0.09904317
207	0x3e35ecb6	0.1776608
208	0x3e4ba4b6	0.19887051
209	0x3e265ba0	0.1624589
210	0xbd34b25d	-0.044115413
211	0xbdea57f4	-0.11442557
212	0xbe2c8d4d	-0.16850777
213	0xbd34e1ea	-0.04416076
214	0xbe1cd20d	-0.15314503
215	0x3dbe14a5	0.092812814
216	0x3db99935	0.09062425
217	0x3e17ea2d	0.14835425
218	0xbe047d8d	-0.12938519
219	0x3de61e3c	0.112362355
220	0x3e252975	0.16129096
221	0x3e48d941	0.19614126
222	0x3e7f9ec7	0.24962912
223	0x3d2469e1	0.040140036
224	0xbc8637aa	-0.016383965
225	0x3d83542a	0.064125374
226	0xbe367633	-0.17818527
227	0x3d322bd0	0.043498814
228	0x3da54890	0.08070481
229	0x3b345b59	0.0027520268
230	0xbde8f313	-0.11374488
231	0xbd635128	-0.05549732
232	0x3dc9d79a	0.09855576
233	0xbe60b282	-0.21943095
234	0x3db26c96	0.087121174
235	0xbe47e018	-0.19519079
236	0xbe42979e	-0.1900315
237	0xbcb81e9d	-0.022475535
238	0x3e0ce6ae	0.13759872
239	0x3dc936ad	0.09824882
240	0xbe34d614	-0.1765979
241	0xbdde5ae2	-0.10857178
242	0x3c4b8d4e	0.012423826
243	0xbe35d81c	-0.1775822
244	0xbe514670	-0.20437026
245	0x3cbd9d81	0.023146393
246	0x3d531506	0.05153372
247	0xbcdfc08d	-0.027313495
248	0x3e42c28b	0.19019525
249	0x3d05b2c0	0.032641172
250	0xbe366504	-0.17811972
251	0x3ddb91aa	0.107211426
252	0x3de9c2ff	0.11414146
253	0x3c8326c5	0.016009698
254	0xbe35a565	-0.17738874
255	0xbcb07f7f	-0.02154517

fc2.bias f4 [64]
0	0xbc006ed6	-0.007838925
1	0x3b9cc417	0.004784118
2	0xbcd0a4a0	-0.025469124
3	0x3c8f64f2	0.01750419
4	0xbc8fdba9	-0.017560797
5	0xbb16182c	-0.002290259
6	0xba09f261	-0.00052622525
7	0x3c81622f	0.015793888
8	0xbc206a91	-0.009791032
9	0x3a820c71	0.0009921921
10	0x3c3781e4	0.011200402
11	0xbc1c9d13	-0.009558934
12	0xbcff3c84	-0.031156786
13	0x3c268151	0.010162667
14	0x3c2d9656	0.010594925
15	0xbc70c2d2	-0.014694886
16	0xbb432c1f	-0.0029780937
17	0xbb55942f	-0.0032589545
18	0xbbca097f	-0.006165683
19	0xbbd0c47e	-0.00637108
20	0xbb8a98b9	-0.0042296317
21	0x37f66b08	2.9375326e-05
22	0x3d204717	0.039130297
23	0x3c347a95	0.011015554
24	0x3b8d0675	0.0043037483
25	0x3c1443d4	0.009049375
26	0xbcd63fc5	-0.026153455
27	0xbcc5c82a	-0.024143297
28	0x3c325cf4	0.01088642
29	0xbb8872d8	-0.004164081
30	0x3c14a3ef	0.009072288
31	0xbc460ff0	-0.012088761
32	0x3c149928	0.009069718
33	0x3bb16b87	0.0054144296
34	0xbbb6bf5c	-0.005577011
35	0x37af424d	2.08925e-05
36	0xbc4e2755	-0.01258262
37	0xbc77ff6b	-0.01513658
38	0x3b0bd6ff	0.0021337864
39	0x3c83699a	0.016041566
40	0xbc912fce	-0.01772299
41	0x3bae3f9c	0.0053176414
42	0xbc111aa9	-0.008856454
43	0xbb9d84ec	-0.0048071053
44	0x3ce344de	0.0277428
45	0x3ba6bbea	0.005088319
46	0x3c044497	0.008072994
47	0xbb0d631a	-0.0021573962
48	0x3c47be1a	0.01219132
49	0x3b7b803c	0.0038375994
50	0xbc914f77	-0.017738087
51	0x3ce4ca9b	0.027928641
52	0x3a71c356	0.0009222528
53	0xbb8bf993	-0.004271695
54	0x3ba19785	0.0049313926
55	0x3c8b26d9	0.016986297
56	0x3cbb43d4	0.022859491
57	0xbb08925b	-0.0020839188
58	0x3b728f4a	0.0037011676
59	0x3a298be0	0.00064676814
60	0x3ac472ca	0.0014987823
61	0xbacf5b4f	-0.0015820059
62	0xbcd86f4d	-0.02642026
63	0x3c119ffb	0.00888824

fc3.weight f4 [5, 64]
0	0x3e37e254	0.17957431
1	0x3d8e3eee	0.06945597
2	0xbc1c73ce	-0.009549094
3	0xbe6c24e1	-0.23060943
4	0xbe531b4a	-0.20615879
5	0x3d6b50f2	0.057450242
6	0x3e5349f2	0.20633677
7	0xbe1372b8	-0.1439923
8	0xbd8ec8b5	-0.069718756
9	0x3c5e499a	0.013567353
10	0x3d92824f	0.07153761
11	0x3d9f781d	0.07786582
12	0xbe4cd41c	-0.20002788
13	0x3e903eb3	0.28172836
14	0xbe389784	-0.18026549
15	0x3e416478	0.18885982
16	0xbdaf8475	-0.08570186
17	0xbe40bd09	-0.18822111
18	0x3e637091	0.2221091
19	0xbe84b6b2	-0.25920635
20	0x3e2afacc	0.16697234
21	0x3df3c4b3	0.11902752
22	0xbb9eabf2	-0.004842275
23	0xbe601f54	-0.2188695
24	0xbd6b7e5d	-0.057493556
25	0x3e80ff10	0.25194597
26	0xbe09824a	-0.13428608
27	0x3e471394	0.19441062
28	0xbe4059c6	-0.18784246
29	0xbe242071	-0.16028
30	0xbe1eb8f4	-0.15500242
31	0x3e488a1f	0.19583939
32	0xbe6a7f44	-0.2290011
33	0x3da46f69	0.08029062
34	0x3dbe2ce4	0.09285906
35	0xbe81b011	-0.2532964
36	0xbdbaffec	-0.091308445
37	0xbdf22f15	-0.118253864
38	0xbe774144	-0.2414599
39	0xbe887b38	-0.26656508
40	0x3e90f343	0.28310594
41	0x3ddc6118	0.10760707
42	0x3e75142e	0.23933479
43	0x3d9dbe6d	0.077023365
44	0x3dfc389f	0.12315487
45	0x3e985f05	0.29759994
46	0x3e1c3d31	0.15257718
47	0x3e1bf771	0.1523111
48	0xbdd9fe62	-0.10644223
49	0xbe3b3c6c	-0.18284768
50	0xbda8f8a3	-0.08250549
51	0x3e7a5cf4	0.24449521
52	0xbe525c8b	-0.20543115
53	0xbe53a6c3	-0.20669083
54	0x3e149510	0.14509988
55	0xbde022f0	-0.10944164
56	0xbdf766fd	-0.1208019
57	0xbe70b19b	-0.23505251
58	0xbe7766c2	-0.24160293
59	0x3e5e87c5	0.2173148
60	0x3e667eb9	0.22509278
61	0x3e87fc51	0.2655969
62	0x3d98b80a	0.07456978
63	0xbe804152	-0.25049835
64	0x3ec13942	0.37738997
65	0xbe545531	-0.20735623
66	0x3dc07ef4	0.093992144
67	0xbe81139c	-0.25210273
68	0xbe07aeb2	-0.13250235
69	0x3e40dd34	0.18834382
70	0x3e2dad04	0.16960531
71	0xbe356e6f	-0.17717908
72	0x3dd5c665	0.104382314
73	0x3e55a7b2	0.20864752
74	0x3d13ed04	0.036114708
75	0x3d8f0fba	0.069854215
76	0xbe1daf79	-0.15398969
77	0x3e3d111b	0.18463556
78	0x3ea0e4cd	0.3142456
79	0x3e4c2ef1	0.19939782
80	0xbda7becc	-0.081906885
81	0xbe7408a3	-0.2383142
82	0xbe6bb978	-0.2301997
83	0xbe4ae763	-0.1981483
84	0xbecb7ca7	-0.3974354
85	0xbe237eb1	-0.15966298
86	0x3dbe494d	0.09291325
87	0x3e134a26	0.14383754
88	0xbeb40965	-0.35163417
89	0xbd73fae6	-0.059565447
90	0x3e80331b	0.2503899
91	0x3e1984bb	0.14992039
92	0x3e38be7c	0.18041414
93	0x3e51c9e0	0.20487165
94	0xbd52a5cf	-0.05142766
95	0xbe451ac7	-0.19248496
96	0x3e1e5610	0.15462518
97	0x3e6e9ddd	0.23302408
98	0x3dc4ef06	0.096159026
99	0xbe3be636	-0.18349537
100	0x3e20003f	0.15625094
101	0xbe40bafd	-0.1882133
102	0x3eae0ac3	0.33992586
103	0x3e950af2	0.29109913
104	0xbe8ca9a8	-0.27473187
105	0x3e0c4268	0.13697207
106	0xbe610140	-0.21973133
107	0x3dc27dd0	0.09496653
108	0xbe6f57c4	-0.23373324
109	0x3e922a48	0.28547883
110	0x3e3b4f55	0.18291982
111	0xbe307d00	-0.17235184
112	0xbd6a7099	-0.057236288
113	0x3e568a9f	0.20951317
114	0xbe23ad0c	-0.15983981
115	0xbd644678	-0.055731267
116	0xbdc34873	-0.09535303
117	0x3d8cff19	0.068845935
118	0x3ecf3571	0.4047046
119	0xbe0ab7d3	-0.13546686
120	0xbdcad623	-0.099041246
121	0x3e105ad9	0.14097156
122	0x3e89291d	0.2678918
123	0xbea737a4	-0.32659638
124	0xbe05a200	-0.1305008
125	0x3ce89a2b	0.028393826
126	0x3d65246f	0.05594295
127	0xbdcfc1d9	-0.101443954
128	0xbc87ab2f	-0.016561119
129	0xbe95d5e9	-0.29264763
130	0xbdc2adfe	-0.095058426
131	0xbe1386e2	-0.14406922
132	0x3e31eae1	0.17374755
133	0x3dc12f58	0.09432858
134	0xbe3f52b8	-0.18683898
135	0xbe8a6e58	-0.2703731
136	0x3e31bcba	0.1735715
137	0xbdec98cc	-0.11552581
138	0xbda48a17	-0.08034151
139	0x3e6fd02a	0.23419252
140	0x3e4449cc	0.19168776
141	0x3c907b4a	0.017636914
142	0x3df0d28c	0.11758909
143	0x3d87dde4	0.06634119
144	0x3e8cc602	0.27494818
145	0x3ea930f8	0.33045173
146	0xbe5b9456	-0.21443304
147	0x3e0ebdef	0.13939641
148	0xbe726f95	-0.23675378
149	0xbe18884b	-0.14895742
150	0xbe757e19	-0.23973884
151	0x3cce8ad6	0.025212687
152	0x3ebee377	0.37282917
153	0xbe0f3293	-0.13984136
154	0x3e8d8b5e	0.2764539
155	0xbd62e8c5	-0.055397768
156	0xbe2a0b3a	-0.16605845
157	0x3d8875e0	0.06663108
158	0x3e870107	0.2636797
159	0x3e66ec27	0.22551022
160	0xbc2aaa14	-0.010416526
161	0xbcd9fe6c	-0.026610576
162	0xbc8b7378	-0.017022833
163	0x3eae7ab4	0.3407799
164	0x3ead17ea	0.33807307
165	0x3e6133a3	0.21992354
166	0x3d77b036	0.060470782
167	0x3dc36f03	0.09542658
168	0x3e69425a	0.22779217
169	0xbcfb6c12	-0.03069118
170	0x3e88c5df	0.26713464
171	0x3db84fd4	0.08999601
172	0xbe803bc1	-0.2504559
173	0xbeb37ec2	-0.35057646
174	0x3e3f3deb	0.18675964
175	0xbe245209	-0.16046919
176	0xbeacbefe	-0.33739465
177	0xbdfba987	-0.12288194
178	0x3e1c4206	0.15259561
179	0xbe7a3a23	-0.2443624
180	0x3e4222c1	0.1895857
181	0x3ed6ac61	0.4192839
182	0xbe5227ca	-0.20522991
183	0xbdb7d334	-0.08975831
184	0xbe72a7ba	-0.23696795
185	0x3e15a584	0.1461392
186	0xbe7b00b2	-0.24511984
187	0xbe3f4aa2	-0.18680814
188	0xbda654b6	-0.08121626
189	0xbe40f6cd	-0.18844147
190	0x3e84dd77	0.25950214
191	0xbdea1d26	-0.11431341
192	0x3e472820	0.194489
193	0x3e2a7ee0	0.16649961
194	0xbc8c356d	-0.01711532
195	0x3d8e0129	0.06933815
196	0x3c544135	0.012955
197	0x3e38097e	0.17972371
198	0x3e6115e8	0.21981013
199	0x3e2d6277	0.16932093
200	0x3e078a55	0.13236363
201	0xbe10980a	-0.14120498
202	0x3d46f7a7	0.048576023
203	0xbd9a2cee	-0.07528101
204	0xbda81344	-0.082067996
205	0xbe63ef35	-0.22259219
206	0xbe5e7f82	-0.21728328
207	0xbbc044c3	-0.005867572
208	0x3e24da06	0.16098794
209	0xbe7d80e5	-0.247562
210	0xbe2ec623	-0.1706777
211	0x3ce4a330	0.027909845
212	0xbd5a711a	-0.05333052
213	0x3de8035a	0.11328764
214	0x3e56c516	0.2097362
215	0xbdab5e2e	-0.08367573
216	0xbdf6bab5	-0.1204733
217	0xbdd6b129	-0.10483009
218	0xbe0eefed	-0.13958712
219	0x3e349ca4	0.17637879
220	0x3d0eae54	0.03483422
221	0x3c89409c	0.016754441
222	0xbdcb1d14	-0.099176556
223	0x3d95563b	0.07291838
224	0x3ddbfe5a	0.10741873
225	0x3db9590a	0.09050186
226	0x3de50072	0.111817256
227	0xbe0572a3	-0.13032012
228	0xbe406341	-0.18787862
229	0xbe06b910	-0.13156533
230	0x3da4e74b	0.08051928
231	0xbe227ea9	-0.1586863
232	0x3c93d053	0.018043673
233	0xbe097160	-0.13422155
234	0x3de5e03b	0.11224409
235	0x3c709870	0.014684781
236	0x3dde1c00	0.10845184
237	0xbe83d14b	-0.25745615
238	0xbdaeb00e	-0.085296735
239	0x3e6f3c44	0.23362833
240	0xbd40c34d	-0.047061253
241	0xbe0b1199	-0.13580932
242	0x3e61b321	0.22040989
243	0x3e72651d	0.23671384
244	0xbe25040a	-0.16114822
245	0xbe159638	-0.14608085
246	0x3e7700cf	0.24121402
247	0xbcc8ee1f	-0.024527607
248	0xbe3c5dd7	-0.18395172
249	0xbea40ec2	-0.3204251
250	0x3c2fd704	0.010732416
251	0x3d8de0b2	0.06927623
252	0x3e266bcc	0.16252059
253	0xbd5f6e6d	-0.05454867
254	0x3b8f1d25	0.004367488
255	0x3e744bb4	0.23857003

fc3.bias f4 [5]
0	0xbbd314a3	-0.006441669
1	0xbc8c36c0	-0.01711595
2	0xbd13e71a	-0.036109067
3	0xbb51e7f4	-0.0032029124
4	0xbb22224e	-0.0024739685
