CS237B_Win25_HW3-main/policies/intersection_all_IL.pt (torch, 21376 bytes, 6 tensors)

fc1.weight f4 [64, 5]
000000 cd 59 4d be 4e 82 fc 3d f1 cb b8 bd 51 e8 1b bf
       -0.20053788 0.12329541 -0.09023274 -0.6090136
000010 e8 a5 db be cf 26 40 be d5 54 0c 3e a8 ae ee bd
       -0.42900014 -0.18764804 0.13704236 -0.11654407
000020 1e e8 b7 bc 27 9a 8a be 1a f9 1a be 65 02 af 3d
       -0.02244955 -0.27070734 -0.15134087 0.085453786
000030 14 0a 21 be 0c 29 08 3c e4 1d 11 be 1f 15 d4 bd
       -0.15726501 0.008310568 -0.14171559 -0.10355591
000040 32 68 86 bd 72 d1 4e be 94 fd 85 3e 59 9b 1c be
       -0.065628424 -0.20197085 0.26170027 -0.15293635
000050 f4 e1 25 be a6 8f 52 3f d2 d8 db 3e e7 f3 c2 40
       -0.16199476 0.8225044 0.42938858 6.092273
000060 bc 54 5e bf d0 49 00 3e 72 fa bc bd 28 0c 8a bd
       -0.86848044 0.12528157 -0.09227456 -0.067406
000070 17 b1 46 be 79 b3 50 be 9c 4d f1 bd 63 ba a5 bd
       -0.19403492 -0.20380963 -0.11782381 -0.08092191
000080 ec 6f da bd ec 55 4f be f8 00 db bd 0a 2d a3 bf
       -0.10665879 -0.2024762 -0.10693544 -1.274812
000090 cf ba 2a 3f 06 e9 65 40 62 9e 05 40 3b 9c 3f bf
       0.666913 3.5923476 2.087792 -0.74847764
0000a0 4e ad df 3d 16 af 06 be de e8 8c be f3 ed 54 3e
       0.10921727 -0.13152727 -0.27521414 0.20793895
0000b0 d3 4d 07 be 95 fb 51 ba 28 59 e2 be 9e 61 b8 3e
       -0.13213281 -0.0008010206 -0.44208646 0.36011976
0000c0 dc cf 7b be 87 d9 f2 bc ad 51 69 be e3 4e 79 be
       -0.24591011 -0.02964474 -0.22785063 -0.24346499
0000d0 85 9e 12 be 0a 1a 1f be 9f 1f ed bc 1e f6 b8 bd
       -0.14318283 -0.15537277 -0.028945742 -0.09031318
0000e0 21 f2 0c be 04 c5 b2 be 32 5e 36 3e d7 0c 40 3d
       -0.1376424 -0.34915936 0.1780937 0.046887245
0000f0 72 bf 23 be a7 9f cd bd db ef 36 3e 94 8e 36 3e
       -0.15991 -0.10040217 0.17864935 0.17827827
000100 43 c8 d8 3b 02 5e cc 3d c4 f0 a8 bc 48 69 4e 3d
       0.00661567 0.09978868 -0.020622618 0.050393373
000110 6b c3 ec bb 66 2f 8c be 13 89 1d 3e 9f 21 30 be
       -0.007225444 -0.27379912 0.15384321 -0.17200325
000120 58 7e 68 bd 2c d0 68 3c b9 e7 5d be db 8d 06 3e
       -0.056761116 0.014209788 -0.21670426 0.13140051
000130 f7 90 50 be fa 86 4e 3e 7c 8f 37 3e c3 4b a2 be
       -0.203678 0.20168677 0.17925829 -0.31698427
000140 ac 1c 91 be ef b2 3c be 19 4b 2b 3e 07 2c 88 3e
       -0.28342187 -0.18427633 0.16727866 0.2659609
000150 01 e1 c0 3d c7 dc 85 be c7 49 25 be b4 7e 1b 3e
       0.09417916 -0.26145002 -0.16141425 0.15185052
000160 eb 79 95 3d 8d 86 90 3c d8 90 0e 3d 4d 64 7f bd
       0.07298645 0.017642284 0.034806103 -0.062351514
000170 99 69 40 bd be 93 a5 bd b2 d2 01 be f1 c4 b4 3c
       -0.046975706 -0.0808482 -0.1267803 0.022066565
000180 55 1c 83 be 78 2e ff bd d6 96 58 bd fb 94 e6 bc
       -0.25607553 -0.12460035 -0.052878223 -0.028147211
000190 24 13 f3 bd 81 b3 8f 3c fd 55 b5 bd c1 40 a8 3d
       -0.11868885 0.017541649 -0.088542916 0.08215476
0001a0 b1 64 71 be 3f 4a 5a 3e 03 1a 7c 3e 2a f7 21 3c
       -0.23573567 0.21317385 0.24619298 0.009885589
0001b0 c7 c1 c8 c0 28 7d 7d be 30 c1 cf 3d 66 f1 6c be
       -6.2736545 -0.24754775 0.101442695 -0.23138961
0001c0 01 e4 24 bd 43 a5 3b 3e 79 0b 23 be 42 c4 27 be
       -0.040256504 0.18324761 -0.15922345 -0.1638346
0001d0 cc 26 89 be 0a bd a2 bd 36 54 38 3d 65 6f 42 3c
       -0.26787412 -0.079462126 0.045002185 0.011867379
0001e0 c5 25 b0 bc e1 87 3c 3d d0 0a 7c 3b 2e da f3 bd
       -0.021502385 0.04602802 0.0038458593 -0.11906849
0001f0 ef 2a d7 be 58 cf d8 bd b4 15 20 3c f3 05 21 bf
       -0.42024943 -0.10586423 0.009770799 -0.628997
000200 21 f5 9e 3f 12 34 4b bd 1b 55 ff bd 8e b7 86 be
       1.2418557 -0.049610205 -0.124674045 -0.26311916
000210 5a a8 7b be 56 10 0d 3d ac f5 8b 3d c2 bb 6c be
       -0.2457594 0.034439407 0.068339676 -0.23118499
000220 3d 7f 86 be 8e bd c6 3d 85 00 24 3e 90 36 e0 3a
       -0.2626895 0.097041234 0.16015823 0.0017106105
000230 43 b6 74 be 3f 75 51 bc be cd 87 3d 3c 2e 46 be
       -0.23897652 -0.012784301 0.06631039 -0.19353575
000240 a4 7f b5 bd df 8f 8d be 5f df 12 3d 64 e4 fc bd
       -0.08862236 -0.27648827 0.035857555 -0.123482496
000250 58 ac 1e 3e 95 23 fa bd 8f 07 3f 3d ac 49 a0 bd
       0.15495431 -0.12213818 0.046638068 -0.07826552
000260 ca 05 05 3c 62 4d bb be fe 03 47 bd 39 0a a0 be
       0.008119056 -0.36582476 -0.04858779 -0.312578
000270 a1 e1 81 3c e6 fb 81 bd a1 e5 a3 be d1 de de bc
       0.015854659 -0.06346874 -0.3201113 -0.027205857
000280 b4 fa df bc 55 f8 8c be 86 28 b9 3c c1 76 8a be
       -0.027341224 -0.27533212 0.02260233 -0.27043727
000290 8f 32 0c be 21 1d 8a bd fb 90 91 3d 46 cd 92 be
       -0.13691162 -0.06743837 0.07107731 -0.28672236
0002a0 67 0b eb 3b 37 88 cc bd 9d 86 10 be 04 6d cf bd
       0.00717299 -0.099869184 -0.14113851 -0.10128215
0002b0 44 55 1e be 1f 99 45 bd d2 29 9b 3c 81 49 19 be
       -0.15462214 -0.04824173 0.01894084 -0.14969446
0002c0 fe e7 c1 bd 86 c3 81 be 6b 46 37 3d 3e c4 98 3d
       -0.09468077 -0.25344485 0.04474489 0.07459305
0002d0 13 b7 bb bd a2 20 2d 3f a8 ac 80 bd 03 ad e3 3f
       -0.09165778 0.6762792 -0.062829316 1.7787174
0002e0 9e 9a 2c bf 80 23 10 be 19 46 5a be d1 68 02 3f
       -0.6742343 -0.14076042 -0.21315803 0.5094119
0002f0 f7 a8 d4 3e 9a 01 17 bd b6 15 1a be e1 46 b1 be
       0.4153516 -0.03686676 -0.15047345 -0.3462439
000300 85 c4 e8 bd 1a 66 83 be a9 1f 95 3d b3 78 73 be
       -0.11365608 -0.25663835 0.07281429 -0.23776512
000310 38 57 87 bd 73 6f 5d 3c 4d 6c eb bc 3a 52 1e be
       -0.066084325 0.013515341 -0.028738165 -0.15461054
000320 e7 bd fb bd 2e 87 b0 bd 2a f3 98 bd ed 7a 13 be
       -0.122920804 -0.086195335 -0.07468255 -0.14402361
000330 ef 3f e7 3c f3 44 ba 3d f2 de 3e 3f c1 a8 1a c0
       0.028228728 0.09095182 0.7455894 -2.41655
000340 68 a3 9a be 78 bd 2c bf b6 ed 01 3e 36 b9 67 be
       -0.30202794 -0.67476606 0.12688336 -0.22629246
000350 30 01 3c 3d 3c 1e af be 78 99 21 be 3a 0e 1f bc
       0.04589957 -0.34202754 -0.157812 -0.009707982
000360 d5 9f 06 3e c7 65 7b bf 03 2b 23 3d 0f f8 7a be
       0.13146909 -0.98202175 0.03983594 -0.2450869
000370 2d ef 8e be 95 0e 91 bd ca 8c 71 bb 69 a2 46 be
       -0.27916852 -0.070828594 -0.0036857598 -0.19397892
000380 aa 52 82 3d a9 62 7b bd 53 c4 81 3d 79 17 bb bd
       0.06363423 -0.061373387 0.06336274 -0.091353364
000390 6c 4e 93 be d7 cb 25 be 4c 97 cb 3d 64 54 bf bc
       -0.2877077 -0.1619104 0.09940967 -0.02335567
0003a0 81 46 f6 bd 65 7c ad 3d 20 26 54 be 9c 6c 0f be
       -0.12025166 0.08470992 -0.20717669 -0.14006275
0003b0 58 62 6c bd 15 b8 c2 bd 6b 46 03 3e e5 db 87 3d
       -0.057710975 -0.09507767 0.12819831 0.066337384
0003c0 43 8e c0 bd 90 93 12 bd e5 74 e8 3c 09 53 a7 be
       -0.09402134 -0.035785258 0.028376052 -0.32680538
0003d0 0f fe 2e 3d 82 67 4f be 51 c4 89 bd ef 6a 91 be
       0.042722758 -0.20254329 -0.067268975 -0.28401896
0003e0 13 c6 7b be 99 17 31 bc 49 9e f2 be 1d 59 5b 3f
       -0.24587278 -0.010808849 -0.47386387 0.8568285
0003f0 02 92 6a c0 f1 36 3d 3f 70 08 1c bf 54 6c 87 be
       -3.6651616 0.7391196 -0.60950375 -0.26449835

fc1.bias f4 [64]
000000 46 ff ca be 2b df bd bd 00 00 00 00 00 00 00 00
       -0.39647883 -0.092710815 0.0 0.0
000010 23 74 23 bf 3a f0 b6 be 00 00 00 00 27 ce 9f 3f
       -0.63849086 -0.35730153 0.0 1.2484788
000020 b5 9d 80 be 6e 62 41 be 00 00 00 00 e9 7b d4 bd
       -0.2512032 -0.18885204 0.0 -0.103751965
000030 f6 19 3d bd 70 18 1f bd 12 00 df bd ee 70 75 bd
       -0.046167336 -0.038841665 -0.10888685 -0.05992215
000040 ba 9c c0 3d 0a 95 a0 bd ea f5 55 bd 8a f3 04 be
       0.09404893 -0.07840927 -0.052236475 -0.12983528
000050 00 00 00 00 d4 af 0c 40 00 00 00 00 46 fc 75 bd
       0.0 2.1982317 0.0 -0.06005504
000060 2f 25 46 be 6d 54 d4 3d 45 42 fb bd 00 00 00 00
       -0.19350122 0.103676654 -0.12268499 0.0
000070 00 00 00 00 2d 10 4e bd 33 56 a9 bd d8 08 52 bd
       0.0 -0.050308395 -0.08268394 -0.051277965
000080 00 00 00 00 31 43 9b bd 00 00 00 00 c5 e7 82 bd
       0.0 -0.07581175 0.0 -0.06391863
000090 46 a4 ba 40 e7 8c 54 bf 16 b8 70 bd 00 00 00 00
       5.832553 -0.830275 -0.058769308 0.0
0000a0 00 00 00 00 a7 06 53 3f 4e 6b 64 bd ac 0d 1a 3e
       0.0 0.82432026 -0.055766396 0.15044278
0000b0 e8 1d 39 bd d4 5f 32 bd cd 67 97 bd ca 9b 9d bd
       -0.045194536 -0.04354842 -0.07392845 -0.0769573
0000c0 3f 58 81 3d 00 00 00 00 51 b5 d1 be 46 ac b4 bd
       0.0631566 0.0 -0.40958646 -0.08821921
0000d0 00 00 00 00 ff 99 29 be 14 aa 6b bd 16 4f 4c 40
       0.0 -0.16562651 -0.057535246 3.192327
0000e0 93 27 25 be 35 6c be bd 6a be 1d be 08 b2 9c bd
       -0.16128378 -0.092979826 -0.15404668 -0.07651144
0000f0 54 a7 20 bd ad 1e 05 be 16 65 49 bd 22 bf d5 3e
       -0.039222077 -0.12999983 -0.04916867 0.41747385

fc2.weight f4 [64, 64]
000000 9a b5 48 be d9 ac 0f 3e 1e 3d 11 be de cc 39 3e
       -0.19600525 0.1403078 -0.1418347 0.18144557
000010 5a e1 2b be 69 57 ea be 53 64 c5 3d 2a 51 8a be
       -0.16785184 -0.45769814 0.09638276 -0.27015048
000020 72 cc 3f bd f0 fb e9 bc 47 13 88 bd 41 96 31 be
       -0.046825834 -0.028562516 -0.06644302 -0.17342474
000030 5e 88 51 be 38 df 48 be 50 28 a5 3c 52 c8 57 3e
       -0.20462176 -0.19616401 0.020160824 0.2107251
000040 0d 8e 3c be 76 c5 87 be cc a3 15 be 76 b4 a9 bc
       -0.18413563 -0.26517838 -0.14613265 -0.020715933
000050 27 46 85 bb 5f 74 65 3f d0 23 33 3e b9 f6 84 be
       -0.0040672007 0.89630693 0.1749413 -0.25969484
000060 01 1d 66 bd 6d 0c 4b be 4b 8a 0d be f9 2e 01 be
       -0.056180004 -0.19828959 -0.13822286 -0.12615575
000070 8d 05 49 3e bc 49 f4 3d d3 b0 80 bd 87 5d 5e be
       0.19631024 0.11928126 -0.062837265 -0.21715365
000080 e4 54 1d bd b2 89 a5 bd b5 5c 19 be 80 3a c9 3d
       -0.038411036 -0.08082904 -0.14976771 0.09825611
000090 98 24 a4 be 98 58 90 bd 99 0d 7d 3d 23 36 05 be
       -0.3205917 -0.07048148 0.061780546 -0.13008933
0000a0 47 28 56 bc 7d b1 a9 bd de d4 28 be ba 27 54 be
       -0.013071126 -0.08285806 -0.16487452 -0.2071828
0000b0 d9 92 c8 bb 17 00 d4 3d 70 4c 0d 3e 5c cb 70 be
       -0.006121021 0.1035158 0.1379869 -0.23515075
0000c0 8b b2 08 3a d8 0f 0d be bd 9c aa be 21 52 99 bb
       0.0005214593 -0.13775575 -0.33322707 -0.00467898
0000d0 79 ff 29 be 33 0d d4 bd 0b ec 22 3e e6 2e 67 bc
       -0.16601361 -0.1035408 0.15910356 -0.014110303
0000e0 c5 f5 6c 3d 38 c0 18 3e e2 78 b8 bd 29 03 2f be
       0.05785157 0.14917076 -0.090074316 -0.17091049
0000f0 60 a8 91 3d 58 22 82 be dd ba d9 be 58 d1 33 3d
       0.07112193 -0.25416827 -0.42525378 0.043900818
000100 42 3c 35 be 66 16 1d be 15 c5 c4 3d 07 21 98 bd
       -0.17698768 -0.15340576 0.09607903 -0.074281745
000110 e2 50 0c be 64 1c 96 be 79 1c 06 be 65 ea 0f be
       -0.1370273 -0.29318535 -0.13096799 -0.14054258
000120 09 08 0a be 65 db c0 3d 40 67 3e be f1 f2 5b be
       -0.13479628 0.09416846 -0.18594074 -0.21479394
000130 37 22 39 bc f3 36 f5 3d 17 4f 27 be d7 47 77 3d
       -0.011299661 0.11973371 -0.16338764 0.060371246
000140 6b d6 2c 3e 6d ac b3 bd 3b f7 0a be a9 4b 5f 3d
       0.16878669 -0.08773122 -0.13570873 0.054515515
000150 d7 c3 d9 bc 89 78 26 bf 2b 93 0e 3e 6a 45 7d 3e
       -0.026582642 -0.6502767 0.13923328 0.2473351
000160 8f 6f 11 be 74 0e f6 bd 28 06 35 be 62 e8 ae 3d
       -0.14202712 -0.120144755 -0.1767813 0.08540417
000170 fb 7e 30 bd 52 d3 59 3d d9 d3 1a be 4e e9 39 3e
       -0.043089848 0.053180046 -0.15119876 0.18155405
000180 ca 3f 23 bb 81 9e 1d be 81 db 04 be 61 e9 27 be
       -0.0024909847 -0.15392496 -0.12974359 -0.1639762
000190 1a f0 5c be 3f e9 8a 3d 01 b4 ad bd 32 b7 1f 3e
       -0.21575966 0.067827694 -0.08481599 0.15597227
0001a0 7e b6 8f bc 8f 5a a5 3d 6f 11 b8 3d 95 07 ae bd
       -0.017543074 0.08073913 0.089877 -0.0849754
0001b0 db b8 71 be c0 4e f4 bd 1a 27 cb 39 d7 18 37 3e
       -0.23605673 -0.11929083 0.0003874831 0.1788057
0001c0 09 74 75 bd 95 03 33 be 22 dc 29 bf d6 8c 40 3e
       -0.059925113 -0.17481835 -0.6635152 0.18803725
0001d0 d8 c5 25 bb d7 89 86 bd e5 e8 a0 bd 08 9a d5 3d
       -0.0025294926 -0.065692596 -0.07856921 0.1042977
0001e0 03 f4 b1 bc c2 dd cb 3d dd f2 d9 bd 2c 58 92 3d
       -0.0217228 0.09954406 -0.106420256 0.07145724
0001f0 d9 e7 62 3e 6f a7 42 3e 5b 10 3d be 65 09 33 3e
       0.22158755 0.19009183 -0.1846327 0.17484052
000200 c8 31 af be f8 22 33 bd 76 a2 00 be 4f ce 34 3e
       -0.34217668 -0.04373452 -0.12561974 0.17656825
000210 5f 87 ef be 8e b4 9e 3e 35 e3 cc 3c 1f f0 90 be
       -0.46782967 0.30997127 0.025010685 -0.28308198
000220 01 78 53 3c 43 57 70 be c1 c9 a8 bd a3 03 24 be
       0.012907029 -0.23470788 -0.082416065 -0.16017012
000230 41 6c 19 3e 32 d3 10 3c 5b f5 b0 bc 63 4f cc bc
       0.14982702 0.008839415 -0.02160137 -0.024940198
000240 92 e9 e4 bd 77 33 51 be 37 e5 ec bd 4a f9 33 bd
       -0.111773625 -0.20429789 -0.11567157 -0.043938912
000250 60 53 10 bd da ea 91 bd 25 85 07 be 89 47 33 3e
       -0.035235763 -0.071248725 -0.13234384 0.17507757
000260 c3 9b c6 be 7d 94 82 be 3c 69 8e 3c c0 51 cb 3c
       -0.38790712 -0.25503913 0.017384164 0.024819255
000270 64 27 5f bd 4c d6 3c 3c 67 6c 8c 3e 4e 35 24 bb
       -0.054480925 0.011525702 0.27426454 -0.0025056186
000280 ad 76 74 3c 00 c5 58 be ec da 52 be 0e 12 28 3e
       0.014920873 -0.211689 -0.20591325 0.16413137
000290 da 6c e5 bd f8 46 b5 be dd 5e 9d 3d 42 2e d6 3d
       -0.112024024 -0.35405707 0.07684109 0.10458042
0002a0 13 42 1a be 0f 50 1c be 9c f4 13 3e e0 e8 11 be
       -0.15064268 -0.15264915 0.1444878 -0.14248991
0002b0 36 3f 55 be 1a e9 08 bd 61 94 59 be 52 a6 91 3d
       -0.20824894 -0.033425428 -0.21248008 0.07111801
0002c0 4a 30 af bd 7f 6a 0c be a5 38 e9 be c8 e8 f8 3d
       -0.08554132 -0.137125 -0.4555103 0.121537745
0002d0 a6 76 50 bd 02 70 9b 3e fb 86 50 3e 11 1e 61 be
       -0.050894402 0.30358893 0.20363991 -0.21984126
0002e0 21 61 4f be 79 20 56 be ad 6c 9c bc c7 35 2d be
       -0.20251895 -0.20910825 -0.01909479 -0.16915046
0002f0 48 e5 73 be 60 71 50 be 6b a7 f9 3d 39 ad 87 be
       -0.23817933 -0.20355749 0.121901356 -0.26499346
000300 7c 09 4a 3c 50 85 4a bd 84 65 3d 3e 98 dd 0d be
       0.012331363 -0.049443543 0.18495756 -0.13854063
000310 96 c3 87 be d9 52 de 3d 52 8d 47 bc 23 c7 c0 bd
       -0.26516408 0.10855646 -0.0121796895 -0.09412982
000320 e2 a1 e1 3d 99 d1 e5 3c 0c 0c dd bd 87 e3 1b be
       0.11017205 0.028054046 -0.107933134 -0.15223514
000330 6b 6f 1d be fd 17 00 3e 5e cb 56 be eb d8 ce 3d
       -0.15374534 0.12509151 -0.20976016 0.100999676
000340 f9 7c 95 3d bd 19 0d bb a0 61 aa 3d ce e1 45 be
       0.07299227 -0.0021530234 0.08319402 -0.19324419
000350 7b 1d 56 be c8 63 df bc e7 68 2d be af f9 88 be
       -0.20909683 -0.02726926 -0.16934548 -0.26752993
000360 e9 ef 1a 3e 31 ec 25 be 61 35 22 be 67 03 3a be
       0.15130581 -0.16203381 -0.15840675 -0.1816536
000370 98 f5 9a bb 85 b0 84 be 7d 56 79 bd 12 ee 0f be
       -0.004728984 -0.25915924 -0.060873497 -0.1405566
000380 f0 25 eb bd f2 f6 f0 3d 4e bc 0d be 2e b3 15 3e
       -0.114818454 0.11765851 -0.13841364 0.14619133
000390 4c b2 47 3b 2b 51 af bd a0 b4 55 be c0 76 eb 3d
       0.0030471263 -0.085604034 -0.20869684 0.11497259
0003a0 c7 09 af 3c e0 93 2f bd 42 03 01 be 5c 85 13 bd
       0.021366967 -0.042865634 -0.12598899 -0.036015853
0003b0 f6 20 fc 3d 97 7a 88 3d 50 55 74 3c 1f 1f 67 bd
       0.12310974 0.06664007 0.014912918 -0.056426164
0003c0 41 f9 11 3d b8 f5 e6 bc d5 38 51 be 45 1a 9d 3d
       0.035638098 -0.02819334 -0.20431836 0.07671026
0003d0 3d 0d 3d be 05 45 7c bb 8b 8b c8 bd 1b c9 f4 3b
       -0.18462081 -0.0038493287 -0.09792241 0.0074702627
0003e0 a9 41 04 be fe e8 3e 3d 49 c7 ee bd 12 89 d2 bd
       -0.12915672 0.046608917 -0.116591044 -0.1028005
0003f0 3b 0b 2f be 97 37 d8 bd ac f8 b1 3d f1 a2 84 bd
       -0.17094128 -0.10557478 0.086900085 -0.06476391

fc2.bias f4 [64]
000000 d3 81 d3 bd cb e2 75 be bd 5a 9b be 0f 69 9b be
       -0.103274964 -0.24012296 -0.30342665 -0.3035359
000010 ea 14 d6 be 37 4f 92 be 0c e7 c0 be dd 09 43 be
       -0.4181283 -0.2857606 -0.37676275 -0.19046731
000020 de a1 43 bf 7a 9b 14 c0 27 87 69 be 97 c3 14 c0
       -0.76418865 -2.3219895 -0.22805463 -2.3244379
000030 bd 64 50 be d2 70 f5 3c a4 a3 d4 bb 5a 07 2b bf
       -0.20350929 0.029961023 -0.006489234 -0.6680809
000040 6e 31 a4 be 22 e7 8c bf 30 27 5f bf dd d8 e2 bd
       -0.32068962 -1.1008036 -0.8716917 -0.1107652
000050 57 f2 04 bf bc d3 67 c0 d4 51 17 be b3 e2 65 3f
       -0.5193228 -3.6222982 -0.14777309 0.8979904
000060 48 59 02 bf b0 d1 a7 be 48 10 41 be f8 76 13 be
       -0.5091748 -0.32777166 -0.18853867 -0.14400852
000070 ad 00 00 bf 1b 55 8f 3f 52 04 25 bf 23 af 25 bd
       -0.5000103 1.1197847 -0.6445972 -0.040450227
000080 2a c0 4e bf 6a d4 cc be 1b 7c bf bd c9 a5 47 bf
       -0.8076197 -0.4000581 -0.09349843 -0.77987343
000090 9a e6 42 bf 5c fb 5a be 19 77 ad be 3d ec 7d bf
       -0.7613312 -0.21384948 -0.33879927 -0.99188596
0000a0 ea e4 b2 be 67 06 9b be db 91 ab bb 33 53 07 bf
       -0.34940273 -0.30278322 -0.005235893 -0.52861327
0000b0 a7 24 0b 3e 6a 99 c7 be 3a 6c 5e be 36 e0 9f bd
       0.135882 -0.38984233 -0.21720973 -0.07806437
0000c0 13 33 85 be b8 8f 0c bf c6 48 67 be eb c3 65 bd
       -0.2601553 -0.549068 -0.22586355 -0.056095045
0000d0 25 7a a5 bd 9f c3 d6 be 73 2c fd be 60 d4 b2 be
       -0.08079938 -0.41946122 -0.49447975 -0.34927654
0000e0 99 6f e4 be 96 d6 20 be 08 a0 a2 bf 93 ab d3 be
       -0.44616392 -0.15706858 -1.2705088 -0.41341838
0000f0 26 5d 68 bf ee f4 9a bc f9 44 c0 be be 49 e9 be
       -0.90767133 -0.01891562 -0.37552622 -0.45564073

fc3.weight f4 [2, 64]
000000 03 db b4 be 0f 38 35 bc e4 3b 8a 3e 5a 8a 63 3e
       -0.35323343 -0.011060729 0.26998818 0.22220746
000010 85 54 8b 3e a4 1d 66 bd 46 f7 84 be ff 1a b2 bd
       0.2721292 -0.05618061 -0.25969905 -0.08696555
000020 64 a1 da 3e c9 dc 3e 3c b9 6f 2f 3c 57 cb 45 3e
       0.42701256 0.011649319 0.010707789 0.19315849
000030 17 5b df 3d d0 12 9f bc 60 b2 0e 3d 0d 5d 8d 3d
       0.10906046 -0.01941815 0.03483808 0.06902514
000040 e6 7b cf bd 60 82 c4 3b 9c 65 cc bd fb 58 fe bc
       -0.101310536 0.005996987 -0.09980318 -0.031048289
000050 40 c1 cc 3e 07 59 9b be ba 26 74 3d fa dd 62 be
       0.39991188 -0.3034136 0.059607245 -0.2215499
000060 c5 45 2b 3e 47 84 b1 bc c2 6d 38 3e ce 74 e2 3c
       0.16725834 -0.02166952 0.1801062 0.027643587
000070 f0 01 7b 3d 57 8d 33 3e 79 72 91 3e cb f4 d4 bb
       0.061281145 0.17534386 0.28407648 -0.006498908
000080 9a fc 1b 3e f4 30 a9 3d 29 de 36 bb 6c be 1a be
       0.15233079 0.0826129 -0.0027903414 -0.15111703
000090 6c 10 97 3a 44 ac 2e 3e 67 17 89 3e c9 4c cf 3e
       0.001152528 0.17057902 0.26775667 0.4048827
0000a0 29 c1 a3 ba 96 69 8f 3d e6 4e 7d ba fc f6 0c be
       -0.0012493479 0.07002561 -0.0009662941 -0.13766092
0000b0 b6 5c d3 bb 40 f1 12 3d ea 12 bc 3d 7b 76 13 3c
       -0.006450261 0.035874605 0.09183295 0.009000416
0000c0 2e 9f e0 bd 1c 0c 8e be c6 44 0c 3d fa 19 24 be
       -0.10967861 -0.27743614 0.034245275 -0.16025534
0000d0 40 95 38 3c 2a de 74 be 60 90 88 bd 4c e0 59 bd
       0.011266053 -0.23912874 -0.06668162 -0.05319242
0000e0 30 35 36 3e c3 6d 7f bc da 8c 74 3d 1d de 7b be
       0.17793727 -0.015590134 0.05970464 -0.24596448
0000f0 f9 a2 53 bc 04 57 3b ba cd 6a 7b 3d ab 68 95 be
       -0.012917274 -0.000714645 0.06138115 -0.29181418
000100 71 1c 80 bf 27 89 d1 3f 67 af 50 3e 0f da 9f bd
       -1.000868 1.636998 0.2037941 -0.07805263
000110 8e 1c 72 3e 6c 8c 16 bd 34 21 fc be f2 62 98 be
       0.23643705 -0.03675501 -0.49244082 -0.2976299
000120 8c 35 a6 3f 3f 46 40 be 56 f0 4f 3e 25 4c f4 3d
       1.2985091 -0.18776797 0.20306525 0.11928586
000130 d8 19 c3 3d d9 cc e2 3f 66 80 f6 be 0d e3 bd 3e
       0.09526414 1.7718765 -0.48144835 0.37087288
000140 65 45 35 be 4f c6 50 3c e9 53 e9 3e a7 25 7d be
       -0.17702253 0.012742593 0.4557183 -0.24721394
000150 0e bb c8 3c 47 9b c4 be 17 b1 df 3e 61 88 2d bf
       0.024503257 -0.38399717 0.43689796 -0.6778622
000160 90 23 d2 3e d5 1e 59 bd 1d bd 7d be 67 07 00 c0
       0.41042757 -0.05300792 -0.24779172 -2.0004518
000170 73 fd 87 bc d4 97 89 be a7 4d 20 be 2b 70 12 3f
       -0.016600346 -0.26873648 -0.15654622 0.57202405
000180 04 a8 11 bf ff 45 d3 be 77 c1 a1 be 6f a7 55 3e
       -0.56896996 -0.4126434 -0.31592914 0.20864652
000190 f4 ec 58 3d af f3 80 bd b9 5d c3 3e 88 6a 6e 3f
       0.05296035 -0.06296479 0.38157442 0.93131304
0001a0 6a 96 cf 3e 7d ad a6 3e 79 c4 1e 40 b3 c7 d2 bc
       0.40544444 0.32554236 2.4807417 -0.02572999
0001b0 42 a4 7a 40 f3 e3 f6 be cd 14 5c 3e aa 65 af bf
       3.9162755 -0.48220786 0.2149231 -1.37029
0001c0 4d d1 33 3e 1a f2 ca be 24 a3 c5 3d 7d 0a 17 3e
       0.1756031 -0.39637834 0.09650257 0.14750095
0001d0 ee 03 81 bf e2 10 d3 3e df 08 15 40 6f 2e 9e bf
       -1.0079324 0.41223818 2.3286664 -1.235792
0001e0 80 97 80 be 9a b5 18 3e d2 72 59 bc 22 14 a6 be
       -0.25115585 0.14913025 -0.013272004 -0.32437235
0001f0 d7 e0 0e 3f 60 4a f1 be 23 52 65 3e ac 0c 12 3f
       0.5581183 -0.47127056 0.22394614 0.57050586

fc3.bias f4 [2]
000000 33 10 a5 ba cc 3c ae 3f
       -0.0012593329 1.3612304
