CS237B_Win25_HW3-main/policies/intersection_straight_IL.pt (torch, 21554 bytes, 6 tensors)

fc1.weight f4 [64, 5]
0	0x3d4ea32d	0.050448585
1	0x3c8d2b8c	0.017232679
2	0x3ea94889	0.33063152
3	0x3d1b55b8	0.037923545
4	0xbd8a7979	-0.0676145
5	0xbe123a2e	-0.14280006
6	0xbe8190d2	-0.25305802
7	0xbdf55638	-0.119793355
8	0xbc307f4f	-0.01077254
9	0x3d98433c	0.07434699
10	0xbd5d0db2	-0.05396814
11	0xbd671990	-0.056420863
12	0xbe213cb3	-0.15745811
13	0x3d189cfc	0.037259087
14	0xbdea7e08	-0.1144982
15	0xbdc1f459	-0.09470434
16	0xbe76214f	-0.24036144
17	0xbe154cd3	-0.14580087
18	0x3e6e9070	0.23297286
19	0xbe6b9b47	-0.23008452
20	0xbe05f42b	-0.13081424
21	0xbe32917b	-0.17438309
22	0x3de074c6	0.10959773
23	0xbd239bff	-0.03994369
24	0x3d774477	0.060368028
25	0x3e1b7aee	0.15183613
26	0x3d35a156	0.044343315
27	0xbd825115	-0.063631214
28	0x3d9972d4	0.07492605
29	0xbebc83b1	-0.36819223
30	0xbe223be6	-0.15843162
31	0x3da97650	0.082745194
32	0x3f874898	1.0569029
33	0xbe093f80	-0.1340313
34	0xbe5a13ea	-0.21296659
35	0xbe2098ab	-0.15683238
36	0x3daf0d1f	0.085474245
37	0xbc6deb63	-0.014521453
38	0x3d0e65f4	0.0347652
39	0xbe38534c	-0.18000525
40	0xbca7f4ad	-0.020502413
41	0xbe78ae9c	-0.24285358
42	0xbf124ad1	-0.5714541
43	0xbe40652a	-0.18788591
44	0x3e7d1854	0.24716312
45	0x3dde2b04	0.10848048
46	0xbeaa76fa	-0.33293897
47	0xbe0f56f7	-0.13998018
48	0x3dae60b5	0.08514539
49	0xbe5fedd1	-0.21868064
50	0xbc3ac189	-0.011398681
51	0xbea89e1a	-0.32933122
52	0x3d884a9e	0.06654857
53	0xbed79447	-0.42105314
54	0x3ea713f2	0.32632405
55	0xbd21e524	-0.039525166
56	0xbd12bb36	-0.03582307
57	0xbe783e0a	-0.24242416
58	0x3e17f7cd	0.14840622
59	0x3d959e45	0.07305578
60	0xbe1801cf	-0.1484444
61	0xbde035a9	-0.10947735
62	0x3e2b316a	0.16718069
63	0xbe0d0c48	-0.13774216
64	0x3d11d9b0	0.035607994
65	0x3d81570a	0.063154295
66	0xbdd64e4f	-0.10464155
67	0xbea5ec01	-0.3240662
68	0xbcb83557	-0.022486372
69	0xbbb5ce60	-0.0055482835
70	0xbea968aa	-0.33087665
71	0xbd897ee7	-0.06713658
72	0x3f45b73e	0.7723273
73	0xbefddb0e	-0.49581188
74	0x3daa6330	0.083197
75	0x3d00a0b1	0.031403247
76	0xbe1fe5b4	-0.15614969
77	0xbe5f094b	-0.21780889
78	0x3e86691c	0.26252067
79	0xbd2c1819	-0.04201517
80	0xbe048d45	-0.12944515
81	0x3daa178e	0.08305274
82	0x3e1c4e0f	0.15264152
83	0xbe489912	-0.19589642
84	0xbe8b6e10	-0.2723241
85	0xbe4bc3cd	-0.19898911
86	0xbe8b686c	-0.27228105
87	0xbe125de0	-0.14293623
88	0xbe2f89c6	-0.171424
89	0xbe050d2d	-0.12993307
90	0xbd245955	-0.040124256
91	0xbe5e9472	-0.21736315
92	0xbe2b1188	-0.16705906
93	0xbd3b23fa	-0.045688607
94	0x3d8bcea7	0.06826525
95	0xbcd92a11	-0.026509317
96	0x3e1d9d0a	0.15391937
97	0xbf2e3c3d	-0.68060666
98	0x3cf973f7	0.030450804
99	0xbe2c69c4	-0.16837221
100	0xbe86c788	-0.26324105
101	0xbe5656df	-0.20931576
102	0xbf310470	-0.69147396
103	0xbeb67c0b	-0.35641512
104	0x3e11774e	0.14205667
105	0xbdb15c52	-0.08660187
106	0xbe22d7f2	-0.15902689
107	0x3da752c4	0.08170083
108	0xbc906e11	-0.017630609
109	0xbd115d81	-0.035489563
110	0xbe36921f	-0.17829178
111	0xbdd88421	-0.105720766
112	0x3cc0e612	0.023547206
113	0xbe10a76b	-0.14126365
114	0xbdec2750	-0.11530936
115	0xbea5c404	-0.3237611
116	0xbde65de1	-0.11248375
117	0xbddadaba	-0.1068625
118	0xbea74bdf	-0.32675073
119	0x3e17158f	0.14754318
120	0xbe42f549	-0.19038881
121	0xbd941dbd	-0.072322346
122	0xbd4073f3	-0.046985578
123	0x3e254aca	0.16141811
124	0xbdea78ba	-0.11448808
125	0xbef00423	-0.46878156
126	0x3e7f9009	0.24957289
127	0x3d9746f0	0.07386577
128	0xbf57b159	-0.84254986
129	0xbda4978d	-0.080367185
130	0xbeabd73d	-0.3356265
131	0x3c95d423	0.018289631
132	0x3ef4c1cc	0.47804105
133	0x3d1dc47f	0.03851747
134	0x3df969e7	0.121784024
135	0xbe4c9486	-0.19978532
136	0xbe17899e	-0.1479859
137	0x3e8cfdaf	0.27537295
138	0xbe1781ea	-0.14795652
139	0x3be32556	0.006931941
140	0xbeb84806	-0.3599245
141	0xbe026fde	-0.12737986
142	0x3ed12510	0.4084859
143	0xbe0a9f30	-0.13537288
144	0x3e94335d	0.28945437
145	0x3e089af0	0.13340354
146	0xbe4c0b92	-0.19926289
147	0xbcaaffaa	-0.020873863
148	0x3c6eed1d	0.014582899
149	0xbe944a41	-0.289629
150	0xbe6da9c1	-0.23209287
151	0x3e4a8ab4	0.19779474
152	0xbe8f54e7	-0.27994463
153	0xbe8f0b7a	-0.27938443
154	0xbeaf2e19	-0.34214857
155	0xbd204a9a	-0.039133646
156	0x3e107b6d	0.14109583
157	0xbce44593	-0.027865207
158	0x3d33b571	0.043874208
159	0xbdc87f5f	-0.09789919
160	0x3e3e7cf0	0.18602347
161	0xbe867792	-0.262631
162	0xbe912733	-0.2835022
163	0xbcdc1611	-0.02686599
164	0xbe60c41a	-0.21949807
165	0x3ec6cb19	0.38826826
166	0x3cc2d2b9	0.023782121
167	0xbedfae23	-0.43687543
168	0x3ebd439a	0.36965638
169	0xbebf5883	-0.37372217
170	0xbd4a67ed	-0.049415518
171	0xbe9a699f	-0.30158707
172	0xbfa010f4	-1.2505174
173	0xbec44093	-0.38330516
174	0x3ea54a4a	0.3228324
175	0x39743cf0	0.00023292354
176	0xbe2f218c	-0.17102641
177	0xbfbadbfc	-1.4598384
178	0xbbf429f5	-0.0074512907
179	0x3e818431	0.25296167
180	0x3ba657a6	0.0050763665
181	0xbf756429	-0.9585596
182	0x3fb9f45a	1.4527695
183	0xbecc77da	-0.3993519
184	0x3b88fdab	0.00418063
185	0xbde7f6fc	-0.113264054
186	0xbe0c820d	-0.13721485
187	0x3d7660a5	0.06015076
188	0x3e2c55a3	0.16829543
189	0x3cf9712f	0.030449478
190	0x39e1d81e	0.00043076364
191	0xbe605d86	-0.21910676
192	0x3e41224d	0.18860741
193	0xbe8221b2	-0.25416332
194	0xbd89808d	-0.06713972
195	0xbb4f1b65	-0.0031602022
196	0x3d8c220a	0.0684243
197	0xbe29823a	-0.16553584
198	0xbebdaf3a	-0.3704775
199	0xbe3fc17a	-0.18726149
200	0xbe0cf3eb	-0.13764922
201	0xbc6b751c	-0.014371183
202	0x3dc01c2b	0.093803726
203	0x3e3d3b31	0.18479611
204	0xbdc1177b	-0.09428307
205	0x3e0ac34f	0.13551067
206	0xbdb6a7b3	-0.08918705
207	0xbf372f0f	-0.7155618
208	0x3d8447c7	0.06459003
209	0xbe3ae8ad	-0.18252821
210	0x3d80e398	0.0629341
211	0xbe24d5aa	-0.16097131
212	0xbe1b994c	-0.15195197
213	0x3e786bca	0.24259868
214	0xbe1041bf	-0.1408758
215	0x3d2ec28e	0.04266601
216	0xbcaddc20	-0.021223128
217	0xbf351369	-0.7073274
218	0xbdcc1a65	-0.09965972
219	0x3de6b6dd	0.11265347
220	0x3e811a04	0.2521516
221	0xbd764db7	-0.06013271
222	0xbe88650d	-0.26639596
223	0x3eabcbf6	0.33554047
224	0xbdb51660	-0.08842158
225	0xbe4f35cf	-0.2023537
226	0xbe4dc26c	-0.20093697
227	0xbb951fac	-0.0045508947
228	0x3e81987b	0.25311646
229	0xbdc42a6f	-0.09578406
230	0xbeabd66b	-0.33562025
231	0x3dba044a	0.09082849
232	0x3e1d7c8d	0.15379544
233	0xbe515bdc	-0.20445198
234	0xbe7d2166	-0.24719772
235	0xbda8ade1	-0.0823629
236	0xbdd434c9	-0.103616305
237	0x3dac240f	0.08405315
238	0xbd98dccf	-0.07463991
239	0xbd20ed17	-0.039288606
240	0xbcc39c5b	-0.023878267
241	0xbc7520e5	-0.014961456
242	0xbe9fa201	-0.31178287
243	0xbee69ae2	-0.4504004
244	0x3cbb54c0	0.02286756
245	0xbde8541e	-0.11344169
246	0xbdc49328	-0.0959838
247	0x3e32548d	0.17415066
248	0x3e023a3c	0.12717527
249	0x3cf9e352	0.030503903
250	0x3d602b9a	0.05472908
251	0x3e7b93a6	0.24568042
252	0xbfa735a0	-1.306324
253	0x3f24774e	0.64244545
254	0xbe5b925a	-0.21442547
255	0xbdcf2e30	-0.101162314

fc1.bias f4 [64]
0	0xbe366adb	-0.178142
1	0xbd466c72	-0.048443265
2	0x00000000	0.0
3	0x00000000	0.0
4	0xbdac5f45	-0.08416609
5	0xbdd3e3a0	-0.103461504
6	0xbead7a51	-0.33882383
7	0x00000000	0.0
8	0xbda842a5	-0.082158364
9	0xbd658a43	-0.05604006
10	0xbe5e2882	-0.2169514
11	0xbdc6e41e	-0.09711479
12	0xbdb8562c	-0.09000811
13	0x3c1f2b9b	0.009714986
14	0xbe8537f7	-0.2601926
15	0x00000000	0.0
16	0xbdb99d0a	-0.09063156
17	0x00000000	0.0
18	0xbe8eceed	-0.27892247
19	0x3db13f94	0.08654705
20	0xbda8f55a	-0.08249922
21	0xbd7e2566	-0.062047385
22	0x00000000	0.0
23	0xbd673e86	-0.05645611
24	0x00000000	0.0
25	0xbf357de4	-0.7089522
26	0xbe1d2714	-0.15346938
27	0x00000000	0.0
28	0xbea4381b	-0.32074055
29	0x00000000	0.0
30	0xbd4e35a7	-0.050344136
31	0xbd089cc7	-0.03335264
32	0xbd705f3c	-0.058684573
33	0x3ed84105	0.42237106
34	0xbe3c64f3	-0.18397884
35	0xbdd6a2f9	-0.10480303
36	0xbe938e06	-0.28819293
37	0x00000000	0.0
38	0x00000000	0.0
39	0xbe36c7f3	-0.17849712
40	0xbd6be946	-0.057595514
41	0xbdcbee65	-0.099575795
42	0xbcd490a3	-0.025947874
43	0xbe8b2e6f	-0.27183864
44	0x3d876901	0.06611825
45	0x00000000	0.0
46	0xbd987171	-0.07443512
47	0x00000000	0.0
48	0xbe29722d	-0.16547461
49	0xbdc84a9d	-0.09779856
50	0x3f041c79	0.51605946
51	0x00000000	0.0
52	0xbdd4bda9	-0.10387737
53	0xbe588903	-0.21146016
54	0x00000000	0.0
55	0xbd62e5de	-0.055395
56	0xbb1a7bb5	-0.002357227
57	0xbd63be5a	-0.055601455
58	0xbd68711b	-0.05674849
59	0x00000000	0.0
60	0xbe8cb22f	-0.27479693
61	0xbd7cc406	-0.06171038
62	0xbd9a041c	-0.07520315
63	0xbd7f2a5b	-0.062296253

fc2.weight f4 [64, 64]
0	0xbe582847	-0.21109115
1	0x3be301fc	0.006927727
2	0x3de446c9	0.11146314
3	0xbe36bceb	-0.17845504
4	0xbe7176ba	-0.23580447
5	0xbe237b6c	-0.1596505
6	0xbe7b9059	-0.24566783
7	0xbe294d79	-0.1653346
8	0xbe86ad18	-0.26303935
9	0x3dd3d91c	0.10344145
10	0xbdf9f02b	-0.122040115
11	0xbe1f8674	-0.15578634
12	0x3e1b1d39	0.15147866
13	0xbe7cbaf3	-0.2468069
14	0xbe285c8f	-0.16441558
15	0xbe24603f	-0.1605234
16	0x3df384d8	0.11890572
17	0x3e3588b7	0.17727934
18	0xbccdcffe	-0.025123592
19	0xbe48fa79	-0.19626798
20	0xbdc3e052	-0.0956427
21	0x3dfb8dd3	0.1228291
22	0xbdb37e5c	-0.087643355
23	0xbbb46b93	-0.005505988
24	0xbe32cef6	-0.17461762
25	0x3d82b1c2	0.06381561
26	0xbe4551bd	-0.19269462
27	0xbe4612a9	-0.19343056
28	0xbb609b55	-0.0034272273
29	0xbd2beca1	-0.041973714
30	0xbe4e31ac	-0.20136136
31	0xbdfe626e	-0.12421118
32	0x3cb6c7ad	0.02231201
33	0xbe123088	-0.14276326
34	0xbdaa534f	-0.08316671
35	0xbd6254e6	-0.055256747
36	0xbdccd10c	-0.1000081
37	0xbded66b6	-0.11591856
38	0xbd6db16f	-0.058030542
39	0x3df63370	0.1202153
40	0xbe7d2265	-0.24720152
41	0xbe542bfb	-0.20719902
42	0x3e3576d7	0.17721115
43	0xbe3846ab	-0.17995708
44	0xbe8c58a1	-0.27411368
45	0xbbacacf8	-0.005269643
46	0xbe6c2f8b	-0.23065011
47	0xbe32eea7	-0.17473851
48	0xbd9673b4	-0.07346287
49	0x3e0407e5	0.12893637
50	0x3c8cf39e	0.01720601
51	0x3e05b3fb	0.13056938
52	0x3d26c46a	0.04071466
53	0xbdf2145e	-0.11820291
54	0x3c69fa37	0.014280847
55	0x3decd666	0.11564331
56	0xbe8502e0	-0.25978756
57	0xbd258a82	-0.040415294
58	0xbcdac637	-0.026705844
59	0xbd30ae5e	-0.04313504
60	0xbdb8fe9a	-0.090329364
61	0x3cd2e1a0	0.025742352
62	0xbe446857	-0.19180427
63	0xbd19e1fd	-0.037569035
64	0xb985fffe	-0.00025558466
65	0xbe642b50	-0.22282147
66	0xbe46ff08	-0.19433224
67	0x3d862f66	0.06552009
68	0xbd852525	-0.065012254
69	0xbe538135	-0.20654757
70	0xbeae1fe9	-0.3400872
71	0x3de20cbd	0.11037586
72	0xbc8dd158	-0.017311737
73	0xbdd3e9c4	-0.10347322
74	0xbd4bd4ef	-0.049763616
75	0xbd037ca0	-0.032101274
76	0x3e4cf7fa	0.2001647
77	0xbd7b0c84	-0.061291233
78	0x3daccf1a	0.08437939
79	0x3e35ab58	0.17741144
80	0x3e44d9b7	0.19223677
81	0xbd625f9b	-0.055266958
82	0xbd1a13e1	-0.037616614
83	0x3e814afa	0.25252515
84	0xbcf93f24	-0.030425616
85	0x3dc15c04	0.09441379
86	0xbd399094	-0.045303896
87	0xbe2699d0	-0.16269612
88	0x3e204288	0.1565038
89	0xbe33f505	-0.17573936
90	0x3df3eabc	0.119100064
91	0xbdeb7462	-0.11496808
92	0xbe12ae84	-0.14324385
93	0x3e329f34	0.17443544
94	0x3ddb7722	0.10716082
95	0x3db4fc7c	0.0883722
96	0x3c6828b7	0.014169863
97	0xbdb78d4e	-0.089624986
98	0xbe5308ac	-0.20608777
99	0x3d78f35f	0.06077897
100	0xbe27d368	-0.16389239
101	0x3d31a6eb	0.043372076
102	0xbe3aca96	-0.18241343
103	0xbd5782fd	-0.052615155
104	0xbdc86ed8	-0.09786767
105	0xbe2e1d71	-0.17003419
106	0xbd06bd1e	-0.0328952
107	0xbce0dcc7	-0.027449025
108	0x3d06bb52	0.032893486
109	0xbca08f83	-0.019599682
110	0xbda38bf4	-0.07985678
111	0x3e51a620	0.20473528
112	0xbd24e03d	-0.040252913
113	0x3c93ed6f	0.018057553
114	0xbec618cd	-0.38690796
115	0xbd909451	-0.07059539
116	0xbd594187	-0.053041007
117	0x3d3a8f3c	0.045546755
118	0xbd5ad936	-0.053429805
119	0xbdc4e956	-0.09614818
120	0xbdb05ebf	-0.086118214
121	0xbd0b6a2e	-0.034036808
122	0x3d32be86	0.04363873
123	0x3d6073a6	0.05479779
124	0x3db36b8c	0.08760747
125	0x3df063c8	0.11737782
126	0x3c1f8543	0.009736362
127	0xbe0a5928	-0.13510573
128	0xbddfe1da	-0.1093175
129	0xbe4f643e	-0.20253083
130	0x3c1dd4a2	0.009633215
131	0x3d508ed8	0.050917476
132	0xbe80f9f7	-0.25190708
133	0x3e0a2902	0.13492206
134	0xbc9e10b7	-0.01929508
135	0xbdb1d1da	-0.08682604
136	0xbdaaf2a9	-0.08347065
137	0xbd1381ee	-0.036012582
138	0x3c5bbe13	0.013412016
139	0xbde1552f	-0.110025756
140	0x3deaf5fd	0.114727
141	0x3e49f76e	0.19723293
142	0xbdf73cd5	-0.1207215
143	0x3c621991	0.013800041
144	0xbda292b8	-0.07938141
145	0xbe487e67	-0.19579469
146	0x3e0670ae	0.13128921
147	0xbd3451d9	-0.04402337
148	0xbdd57315	-0.10422341
149	0xbdd93152	-0.1060511
150	0x3d244ebf	0.04011416
151	0x3ddb214a	0.10699709
152	0x3e391311	0.1807368
153	0xbdd8c484	-0.105843574
154	0xbe6df5cb	-0.23238294
155	0x3dc9cb0d	0.09853182
156	0xbe3828a9	-0.1798426
157	0x3cc4841e	0.02398878
158	0x3bd3ef6a	0.0064677494
159	0xbd6db3c7	-0.058032777
160	0xbe084ff1	-0.13311745
161	0xbea9b623	-0.33146772
162	0xbd1ad557	-0.037801113
163	0xbe0920d4	-0.13391429
164	0xbcd5d6d4	-0.026103415
165	0x3dc069e3	0.09395196
166	0xbe57fda7	-0.21092854
167	0x3e2d0bab	0.16898982
168	0xbe4357c0	-0.19076443
169	0xbc69a919	-0.014261507
170	0x3dc57ce0	0.09642959
171	0xbdbbae93	-0.09164157
172	0xbd1a7eee	-0.037718706
173	0x3e175af5	0.14780791
174	0x3def9026	0.11697416
175	0xbe2fde28	-0.1717459
176	0x3c9e7e81	0.019347431
177	0xbe3f9b6c	-0.18711632
178	0xbe0d0469	-0.13771214
179	0xbe512f19	-0.20428123
180	0x3dcd13ea	0.10013564
181	0xbe18660d	-0.1488268
182	0x3e00b04d	0.12567253
183	0x3e3966c8	0.18105614
184	0xbde69c19	-0.11260242
185	0xbddf5d0b	-0.109064184
186	0xbe442b69	-0.19157185
187	0xbd580d4f	-0.052747067
188	0xbc526ab8	-0.012842827
189	0xbe55e6f8	-0.20888889
190	0xbe4e0991	-0.20120837
191	0x3dd6c0d0	0.10485995
192	0xbe867410	-0.26260424
193	0x3e5836d9	0.21114673
194	0x3e58579c	0.2112717
195	0xbdd54fb4	-0.10415593
196	0xbde12ea4	-0.10995224
197	0xbd887b17	-0.066641025
198	0xbea9daeb	-0.33174834
199	0x3e50108f	0.20318817
200	0xbebf5625	-0.3737041
201	0xbe0d1bf6	-0.13780198
202	0x3d0ec499	0.03485546
203	0xbe98733c	-0.29775417
204	0x3d0ff941	0.035149816
205	0xbd949a73	-0.07256021
206	0x3cfbb491	0.03072575
207	0xbe49e50b	-0.19716279
208	0xbd8a67dc	-0.06758091
209	0xbe0508fc	-0.12991709
210	0xbe91d012	-0.28479058
211	0xbdfb7ed2	-0.122800484
212	0xbbd4023e	-0.006469994
213	0x3e1af342	0.15131858
214	0xbd08aa51	-0.03336555
215	0xbdc39ffa	-0.095519975
216	0x3e07633b	0.13221447
217	0x3d513dc5	0.0510843
218	0xbd7046d9	-0.058661316
219	0x3de14904	0.11000255
220	0xbd0b47e6	-0.034004115
221	0x3e4bf025	0.19915827
222	0xbd96ba5b	-0.07359763
223	0xbdc7d475	-0.0975732
224	0xbe21a8d3	-0.15787058
225	0xbd64b808	-0.05583957
226	0x3e30b78e	0.1725752
227	0xbc26a0d7	-0.010170183
228	0x3e35c7d7	0.17752014
229	0xbdf2e07b	-0.118592225
230	0x3e48adbc	0.19597524
231	0xbd95ea5d	-0.07320092
232	0xbd2f9c6f	-0.042873796
233	0xbd82084c	-0.06349239
234	0x3e18b759	0.14913692
235	0xbe942b02	-0.28939062
236	0xbd883950	-0.066515565
237	0xbd9790a5	-0.07400636
238	0x3d1fa703	0.038977634
239	0x3e2d46d8	0.16921556
240	0xbe9c3479	-0.30508783
241	0x3d6e18e6	0.058129214
242	0xbda53885	-0.08067421
243	0xbdabfe01	-0.08398057
244	0x3cf37afd	0.029721731
245	0xbd74a11d	-0.059723962
246	0x3d130e2e	0.035902195
247	0xbdbe87ee	-0.0930327
248	0xbb94a88d	-0.0045366944
249	0xbe225b07	-0.15855037
250	0x3e2bcee8	0.16778147
251	0x3e41874c	0.18899268
252	0xbe5bf782	-0.21481135
253	0xbe301943	-0.17197137
254	0x3e033085	0.12811477
255	0x3e127b38	0.14304817

fc2.bias f4 [64]
0	0xbf479611	-0.7796336
1	0x3c96046d	0.018312657
2	0xbf0ffd34	-0.5624573
3	0xbe246df0	-0.16057563
4	0xbe651aa2	-0.22373441
5	0xbefd9837	-0.49530193
6	0xbf43b42f	-0.76446813
7	0x3dee9cfe	0.11651038
8	0xbe4e832c	-0.20167226
9	0xbe603f1d	-0.21899076
10	0xbf0f2d1a	-0.55928195
11	0xbf011346	-0.50420034
12	0xbebf7b24	-0.37398636
13	0x3f159220	0.58426094
14	0xbd744ace	-0.05964165
15	0xbe2277c2	-0.15865996
16	0xbd9fb42e	-0.077980384
17	0xbf2a2ca8	-0.6647439
18	0xbed0b87f	-0.4076576
19	0xbf3bd134	-0.73366094
20	0xbe5cfb60	-0.21580267
21	0xbe8d3f3e	-0.27587312
22	0xbe51eded	-0.20500918
23	0xbea20ee5	-0.3165199
24	0x3ba67ff2	0.0050811702
25	0xbe358619	-0.17726935
26	0xbe31f089	-0.17376913
27	0xbebfeaa6	-0.3748371
28	0xbede0311	-0.43361714
29	0xbe31ee2f	-0.17376016
30	0xbe39aded	-0.18132754
31	0xbe0fcace	-0.14042208
32	0xbee6148b	-0.44937548
33	0x3e8d93f5	0.27651945
34	0xbe556e57	-0.20842873
35	0xbe297b82	-0.1655102
36	0xbeb44f4f	-0.35216758
37	0xbe532c18	-0.20622289
38	0xbec5ff45	-0.38671318
39	0xbf0187c6	-0.505978
40	0xbed59586	-0.4171564
41	0xbeda42f0	-0.42629194
42	0xbe6624f5	-0.22475035
43	0xbe98ee4a	-0.298693
44	0xbe77ced1	-0.24199988
45	0xbeedafa9	-0.4642308
46	0xbee66fd0	-0.4500718
47	0xbdf9cb76	-0.1219701
48	0x3e9ab8f1	0.30219224
49	0xbe979e81	-0.29613116
50	0xbc163c50	-0.009169653
51	0x3f0aaf7b	0.5417401
52	0xbf0ed609	-0.5579534
53	0xbddd64ea	-0.108102635
54	0xbdc39211	-0.09549344
55	0xbe5a4061	-0.21313621
56	0xbea397e9	-0.31951836
57	0xbf144c53	-0.5792896
58	0xbd6f0691	-0.05835587
59	0xbebda9c5	-0.37043586
60	0xbe036c23	-0.1283422
61	0xbe4e21dd	-0.20130105
62	0xbe86e16e	-0.26343864
63	0xbe4e186d	-0.20126505

fc3.weight f4 [2, 64]
0	0xbcfc9aaf	-0.030835478
1	0x3a81a13e	0.0009889973
2	0xbe3f4729	-0.18679489
3	0x3e07010f	0.13183998
4	0xbe0f2457	-0.13978706
5	0x3e86568b	0.26237902
6	0xba378cac	-0.0007001858
7	0xb9bbe032	-0.00035834458
8	0x3d187967	0.037225153
9	0x3e17f451	0.14839293
10	0x3e439951	0.19101454
11	0x3e9b2226	0.3029949
12	0x3d2a2273	0.04153676
13	0x3b70a336	0.0036718375
14	0x3e1adf2f	0.151242
15	0xbe1f8f08	-0.15581906
16	0x3aed8de4	0.0018123952
17	0x3dcb897f	0.09938335
18	0x3d64a57b	0.055821877
19	0xbc70a564	-0.01468787
20	0xbd0b2132	-0.033967204
21	0xbdae9212	-0.085239545
22	0x3ba95d28	0.005168576
23	0xbdea2e47	-0.11434608
24	0xbb775ab9	-0.0037743284
25	0x3e28a9b8	0.16470993
26	0x3da6a4a9	0.08136875
27	0xbd9727a5	-0.073806085
28	0xbd2fe545	-0.042943258
29	0xbb9cb9d6	-0.0047828956
30	0xbe66bb2a	-0.22532335
31	0x3e3eaa64	0.18619686
32	0xbe80c377	-0.25149128
33	0xba044a64	-0.00050464855
34	0xbd4b6732	-0.04965896
35	0xbd08c798	-0.033393472
36	0xbd896156	-0.067080185
37	0x3d756847	0.0599139
38	0x3e84149d	0.25796977
39	0xbe8b4145	-0.27198234
40	0xbde20cee	-0.110376224
41	0xbd9ea565	-0.0774639
42	0xbda5d2a2	-0.08096816
43	0x3ca2717f	0.01982951
44	0xbe54cbc4	-0.20780855
45	0x3e47d934	0.1951645
46	0xbd108e61	-0.035292033
47	0x3d4c953b	0.049947005
48	0xba97d122	-0.0011582712
49	0x3e1ce5b1	0.15321995
50	0xbacaf5d1	-0.0015484636
51	0x391a3eb0	0.00014709937
52	0xb9841dec	-0.00025199295
53	0xb9fca23b	-0.00048186057
54	0xbcd11044	-0.025520451
55	0xbb81d7ee	-0.0039625084
56	0xbd9229bf	-0.07136869
57	0x3e83cc3c	0.25741756
58	0x3dc00172	0.09375276
59	0xbde2868f	-0.11060821
60	0xbd29249b	-0.041294675
61	0xbdabf98a	-0.08397205
62	0xbc0c113b	-0.00854903
63	0xbc0513a5	-0.008122359
64	0x3e3baec0	0.1832838
65	0x3f8e8141	1.1133195
66	0xbd0f98dd	-0.03505789
67	0x3dda6fdd	0.106658675
68	0x3d0d9a5d	0.03457104
69	0x3f104c5b	0.5636651
70	0x3fa5188a	1.2898114
71	0xbf9d3659	-1.228221
72	0xbec41760	-0.38299084
73	0x3dd37d80	0.103266716
74	0x3ee908b9	0.45514467
75	0x3f487536	0.7830385
76	0xbd7de5f7	-0.06198689
77	0x3f987c82	1.1912997
78	0xbdb1dfa0	-0.08685231
79	0xbdad2b4d	-0.084555246
80	0xbf6a46bb	-0.91514176
81	0xbe88fbd8	-0.26754642
82	0xbe17d750	-0.14828229
83	0xbf653741	-0.89537436
84	0x3df3022e	0.1186565
85	0x3aa12823	0.0012295287
86	0xbdcb9caf	-0.099419944
87	0xbec29bbe	-0.38009447
88	0x3f997910	1.199007
89	0xbe5bdb62	-0.21470407
90	0x3d7e79e7	0.062127974
91	0x3e1a18d5	0.15048535
92	0x3e6bd024	0.23028618
93	0xbf2646d5	-0.6495183
94	0x3f018473	0.50592726
95	0xbe1000a2	-0.14062741
96	0x3ef54a25	0.4790813
97	0xc020e455	-2.5139363
98	0x3ed69db9	0.41917208
99	0xbeaaba6c	-0.33345354
100	0xbe820f69	-0.25402382
101	0xbe2a0f67	-0.16607438
102	0x3ef3e4e2	0.4763556
103	0x3cd13819	0.025539445
104	0xbea34af2	-0.31893116
105	0xbe9d898f	-0.3076901
106	0xbe65674c	-0.22402686
107	0x3ca55b5b	0.020185163
108	0x3e6b4042	0.22973731
109	0x3e744ef6	0.23858246
110	0xbeedff99	-0.46484068
111	0xbf86193d	-1.0476452
112	0x4002ff8b	2.046847
113	0x3ee4a887	0.44659826
114	0x3f858fb1	1.0434476
115	0x3fc904b0	1.5704556
116	0xbec8a8e9	-0.39191368
117	0xbec61e1c	-0.38694847
118	0xbf30c880	-0.6905594
119	0x3dd6a374	0.10480395
120	0xbe15d877	-0.14633356
121	0x3f571c1e	0.8402728
122	0x3d612f0a	0.0549765
123	0xbf025f9c	-0.5092714
124	0x3f0e4b14	0.5558331
125	0x3eb8484d	0.3599266
126	0xbdc43519	-0.0958044
127	0x3e82f7c9	0.2557967

fc3.bias f4 [2]
0	0xb90156bb	-0.00012334708
1	0xbdac5a1a	-0.08415623
