CS237B_Win25_HW3-main/policies/lanechange_right_ILDIST.pt (torch, 21800 bytes, 6 tensors)

fc1.weight f4 [64, 3]
00000000: 234c efbd 7ddf 75be b6c5 2c3d 09df dc3c
00000010: 9be2 0abd 514f 86be 121b 423d 407a be3e
00000020: 99b5 aebe e5ff 6bbe e557 91bd 121a 853e
00000030: 7195 cd3c 9270 043e d994 08bf 4977 933d
00000040: 94c9 63be a531 1d3d 9436 513c f6e1 be3c
00000050: dd6a 9ebe 237e 653e 5c29 c7bc 5d4b 023e
00000060: c070 8bbe bc2c 0d3e da38 2abe 24f9 77bc
00000070: 559d 25bd 249a 0a3d 1050 223e 184b 6a3e
00000080: c83b b93b 545e d7bc 61e2 ed3c fce0 b43e
00000090: 6ed9 8c3d 15a9 cc3b d2f8 0d3e b1ce 91be
000000a0: de0d 153e 2133 81be e6e9 adbd 0d00 813e
000000b0: e806 c63e 3726 89bc c5e3 d53d f823 80bd
000000c0: 9e29 343e 7907 87be 80e8 6b3e 98f9 6b3b
000000d0: 6ccc e63d 4471 60be 19b1 883e 72ce e53d
000000e0: 54c8 7e3e ec69 10be 406d 283e 7589 00be
000000f0: 2079 ca3c e027 18bd a965 a9be 350a 763e
00000100: 3e57 863e fb1a 103b 4992 053e 8852 8b3e
00000110: 3696 a63e 2f9c 733d 68e2 96be 922a bb3e
00000120: 2d0a a3bd 9e16 c5be 2b5b 16be f285 eabb
00000130: d948 873e 74ae 05be cc10 0e3d 4d3a 173c
00000140: 264e cd3d cb7e 1f3d 3aa8 803e 4109 bbbd
00000150: a0fc 343d bd9c 27be 47c3 a4be cc50 60bd
00000160: 8c42 853e 6bb0 1bbe 2212 963e 50e0 e7bc
00000170: a0e0 02be c15e 16be c0dc ccbe f772 6e3c
00000180: 5689 8a3d 7a38 5bbe b20f 13bf ee88 e5bc
00000190: 3209 333d 96af 373e 50dd 773b 9543 c7bd
000001a0: a916 ab3e f680 ab3c 1a34 9dbd a770 cebd
000001b0: 3d31 d73d cd60 c1be 7edb 2abf c10c 08be
000001c0: 9d92 b43e 5db2 873e 00c0 91be 8ab6 063e
000001d0: abce 84be 11c9 773e 604c 523e ab10 823e
000001e0: 7983 f23d cd89 03bf 8d16 fd3d 3eae e4bd
000001f0: d3d5 a23e f16f ab3e 3284 c7bc 0b31 52be
00000200: a6ce db3e e824 7bbe 3255 87bd 8ed7 e03d
00000210: 3531 bcbd ae47 483e 260e bd3e 85b9 4a3e
00000220: 4fd4 f4bd 2b73 ab3e 5a24 c5bd 023a 443e
00000230: d467 4abc a210 debd 18ab e03e b5cc 7c3d
00000240: 180d babd fa21 b33e d576 a53e 5a66 e7bd
00000250: a9a1 aa3e bf22 f33e 0e5f 2cbd 4e1d 443b
00000260: 9e62 493d 9b0e 76be 4ccb b7bc f130 2a3e
00000270: 5741 6e3e 23f6 583d 00f2 563e b4de d43d
00000280: 3ab1 7abe 6de2 76be 3746 07be 318b 123f
00000290: 3dd2 21be b07a f03c 4aa5 9ebd 14b5 0e3d
000002a0: 3131 87be b9d6 17be 0c24 8e3e 897a 14be
000002b0: 6dee 123f 7c86 c83e 9c50 66bd 6556 253e
000002c0: c3c6 c93e 15c0 11bd e4b4 1e3e ea28 093e
000002d0: d06a 28be 741c 323f 9c61 f8bd 2b99 76be
000002e0: 7206 4ebe d852 29be 464b 873c 1b60 33be
000002f0: cb98 8d3e c51d 3cbd 5252 a23e 910a 48be
-0.11684444 -0.24011035 0.04218074 0.02696182 -0.033907514 -0.2623239 0.047389098 0.37202644
-0.34122923 -0.23046835 -0.07096843 0.25996453 0.025095673 0.12933567 -0.53352123 0.07200486
-0.22244865 0.038377423 0.01276936 0.023301106 -0.30940905 0.22411399 -0.024311714 0.12724061
-0.2723446 0.13786596 -0.1662325 -0.015135083 -0.040433247 0.033838406 0.15850854 0.22880208
0.0056528784 -0.026290096 0.02903861 0.353279 0.06877409 0.006245742 0.13864449 -0.28478006
0.14556071 -0.2523432 -0.08491878 0.2519535 0.38677144 -0.016741855 0.10443834 -0.062568605
0.17594 -0.2637289 0.2303791 0.0036006924 0.11269459 -0.21918207 0.26697615 0.11221017
0.24881107 -0.14102906 0.16447926 -0.12552436 0.02471596 -0.037147403 -0.33085373 0.24027331
0.26238436 0.0021988738 0.13044085 0.27211404 0.32536477 0.05947512 -0.2946961 0.36555916
-0.07960925 -0.38493818 -0.14683215 -0.007157081 0.26422766 -0.1305483 0.034683987 0.009230209
0.10024671 0.03893928 0.25128347 -0.091326244 0.044186234 -0.16368385 -0.32180235 -0.054764554
0.26027334 -0.15204017 0.2931071 -0.028305203 -0.12781 -0.14684583 -0.4001217 0.014553777
0.06764476 -0.21408263 -0.57445824 -0.028019395 0.04370994 0.17938074 0.0037821122 -0.09729687
0.33415726 0.020935517 -0.07675953 -0.100800805 0.10507438 -0.37769166 -0.6674117 -0.13286115
0.35268107 0.26503268 -0.28466797 0.1315557 -0.25938925 0.24197794 0.20536947 0.25403342
0.11841483 -0.5138214 0.12357817 -0.111660466 0.3180376 0.33483842 -0.024355028 -0.20526521
0.42931098 -0.24525797 -0.066080466 0.10978614 -0.09189073 0.19558594 0.36924857 0.19797333
-0.11954557 0.33486304 -0.09626074 0.19162753 -0.012353856 -0.10843016 0.43880534 0.06171866
-0.09084529 0.3498686 0.32317224 -0.11298819 0.33326462 0.47487447 -0.04208284 0.0029924694
0.049166314 -0.24029009 -0.022435807 0.16620232 0.23267113 0.05296911 0.20990753 0.1039404
-0.24481669 -0.24109812 -0.13210379 0.5724364 -0.15802856 0.029355377 -0.0774637 0.03484066
-0.26404718 -0.14828004 0.27761877 -0.14499868 0.5739506 0.39165103 -0.05622922 0.16146238
0.39409456 -0.035583574 0.15498692 0.13394514 -0.16446996 0.69574666 -0.121279925 -0.24081866
-0.20119646 -0.16535509 0.016515385 -0.1751713 0.27655634 -0.045926828 0.3170343 -0.19535281

fc1.bias f4 [64]
00000000: 7c0c b7bc 2ca2 6abd 8325 50bd 2acf fdbc
00000010: 3911 adbd eaca 00be cb5a cabd 1913 aa3c
00000020: 45ab ebbc 01a7 d5bc d7f2 433d 95b9 3d3e
00000030: bbc4 1f3d 0000 0000 bce7 253e 7fc4 193d
00000040: 8793 bf3c 225b 1fbe 0000 0000 f20f 2bbd
00000050: 9bfe d4bc ef51 2537 4c44 993d a077 b03c
00000060: 8105 82bd aa9f e9bd 1102 0abe 332c 07be
00000070: b244 853b abc7 2e3e 0000 0000 7690 9d3c
00000080: bb72 f0bd d397 2f3e 5427 133d 43c6 46bc
00000090: 6268 24be 4a26 223e 0000 0000 0000 0000
000000a0: 6b6c 17bd 14b4 6d3e 2ab6 d73d cca1 fcb8
000000b0: d90b d23d 1938 633d 8c39 29bd d131 d7bd
000000c0: c421 c8bb 2658 843e 3c3f 763b a6cc 1cbd
000000d0: ed97 3938 799a ffbd c582 423d 1172 c23b
000000e0: 0000 0000 780f 8dbd c25f 2b3e f320 52bc
000000f0: a938 03be 0000 0000 9c63 5d3d 3782 09be
-0.02234482 -0.057283565 -0.050817024 -0.030982573 -0.084505506 -0.12577406 -0.09880599 0.02076106
-0.028768191 -0.02608061 0.047839012 0.18527825 0.039005976 0.0 0.16201681 0.03754091
0.023385776 -0.15562108 0.0 -0.041763254 -0.026000312 9.853843e-06 0.0748373 0.021541417
-0.06348706 -0.11407407 -0.13477351 -0.13200454 0.004067027 0.17068355 0.0 0.019233923
-0.11740633 0.1714776 0.035926178 -0.01213223 -0.16055444 0.15834919 0.0 0.0
-0.03696863 0.23213226 0.10532792 -0.000120464334 0.10256166 0.05547342 -0.041314647 -0.105075486
-0.006107541 0.25848502 0.0037574312 -0.038281105 4.424893e-05 -0.12480635 0.047487993 0.005934008
0.0 -0.06887716 0.16735747 -0.0128252385 -0.12814583 0.0 0.054050073 -0.1342858

fc2.weight f4 [64, 64]
00000000: f13d 3dbe 02b8 033e 2bbd a3bc 417b 8b3d
00000010: 5f32 62be 6a97 e63c 103d 863e 5fe9 60be
00000020: ff4c 16be 85a4 4b3e 74b6 31be 4b89 0f3e
00000030: d960 573b 63ef ffbd 107e 43be 055c 613e
00000040: de84 3d3e 756b 153e 6c49 01be 6c89 82bd
00000050: 805a d23d a6b4 f1bd a645 c73d 6d2c adbd
00000060: 63d5 433e 24a7 463c 8300 893d 999b 34be
00000070: 3b34 1dbd f5c3 1f3e f848 f0bd af15 e03d
00000080: 8135 343e e0e4 58be 5f9b 3cbe 6865 47be
00000090: 38df af3d 68d3 2b3e 67b7 b6bb e905 4f3e
000000a0: 2373 49bd 381c 21be 0b15 433e 92e4 3cbe
000000b0: 6a07 28be 6278 c0bb f372 143e 0262 243d
000000c0: e6e7 a8bd 6749 31bd 93c4 603d 2498 29be
000000d0: 9ed7 e3bd 5de6 f1bd 42c2 cdbd 41c9 1fbc
000000e0: 7f60 f43d bb8e 32be 2d8f 89bd 637c f43d
000000f0: b537 0f3e f8bd f6bc 06d5 c5bd 49f3 4b3e
00000100: cef1 203e 0e5c 1f3e 79d5 06be ac9a a3bd
00000110: 0cea 21be 1793 11be bf48 c2bd d158 2ebe
00000120: f232 3dbe 0148 423e 56d0 56be b8ae 633e
00000130: 4476 ce3d 563a 93bd d72f ce3d f3ad 91bd
00000140: 6ab2 25bd 732a 953d 6679 a839 7abf b038
00000150: e959 1dbe 3347 6ebd a25f 543e 4f9b cbbd
00000160: 8c47 233e 87dc 5fbe 772e 363e a8fa 5e3d
00000170: 09d0 26be 439e 473e dd61 633d 9422 0cbe
00000180: b945 bd3d e918 623d 5b67 dabd b0d3 8fbd
00000190: 7e99 033e 0f31 7fbc 2819 a6bd 3807 d33d
000001a0: 0a86 ab3a 5e96 5f3e 25b0 f03d 68b4 7f3c
000001b0: 77c1 ecbd 7ffd f93d 4a33 b9bd aef5 4a3d
000001c0: a88e f43c 4873 4fbe bcc3 a9bb 6686 753d
000001d0: 1755 0f3e c01e 33bd 74f5 5a3d aeb7 5f3c
000001e0: 3b3f 18bd 4dbe 1fbe 5cd5 953d f00d 413e
000001f0: b113 02be 8bd9 443e 6fa6 333e 21ca 843d
00000200: 6b7f a43d 5af8 853d 1156 2b3e 6fcc 933d
00000210: c820 e43d d612 03bd 58c7 063c dcad 23be
00000220: ad6e 28be 08d7 0e3e 89fa 54bc 3b32 563e
00000230: b94d 4cbe bbc2 223d 7a58 34bd 477d d03d
00000240: 4fd2 173d b6e5 2abb c31a 28be 734f 193d
00000250: 60e6 323d caa6 843d 2bbc fa3d b30b a3bc
00000260: 63a5 dc3d 5fd3 1c3e f4a4 f73c c5ab ff3d
00000270: b2b8 28be 3b93 04be f7bf 563c c009 47be
00000280: 9704 d13d 7ede 5bbe 4b0f 593e 1f11 b0bd
00000290: c3f0 e5bd f4c7 d63b 10fe f53d f9e3 21bd
000002a0: 3a82 47be a987 59bd 1301 cf3d 1f00 ee3d
000002b0: c0e8 203e 73ff 4b3e 9c44 d13d 4a93 9abd
000002c0: e596 7cbd 58a0 15be 2946 b23d a7de 83bd
000002d0: 50d3 73bd e8b1 3dbe 4aa0 d93d 7f74 62bd
000002e0: 4aa2 9f3c 9931 0a3e 6b7c 00bd adeb 78bd
000002f0: b8ba 2dbe 007e 30be fc99 2fbc 4683 92bb
00000300: ca66 943b 82a2 5b3e 8cc1 133e 01bc 133e
00000310: 26d4 543e becc 00be 5788 2cbe 721a c33d
00000320: 91e5 2fbe 7038 06be 8741 04bd d602 60be
00000330: bd92 653e 31ed 51be e183 3c3c 81ed 3dbe
00000340: ad04 6d3e 1eb9 c9bc 0fc2 5d3d 9067 cd3d
00000350: ad9a a63c c702 db3d 8deb dd3d c882 1fbd
00000360: 6064 bbbd 5e06 ddbd aef5 92bd 2503 533e
00000370: 2003 b73d 73f4 40be 1aaf a8bc 7612 603d
00000380: 2169 5dbc d274 813d c494 3dbe 53c7 303e
00000390: da3f 453e 4ec8 e13d 3789 6cbe 28c5 8d3c
000003a0: 25d7 f3bd 4874 2bbe 94bb 27be 450b 2f3d
000003b0: e0ba b9bd df59 4abc b08f 7e3c 0fed 1cbd
000003c0: cf08 67be 02fd 0f3e 4680 3c3e db91 093d
000003d0: f3c8 963d fa8d 103e e4dc 833d d3a8 ed3d
000003e0: 9928 43be 8e00 dd3d 8631 20be 826d 143e
000003f0: 70e3 fabc 5f20 173d f100 923d 769f b9bd
-0.1848066 0.12863162 -0.019987663 0.06810618 -0.22089528 0.028148372 0.26218462 -0.21964024
-0.14677809 0.19886978 -0.17354757 0.14017217 0.0032864122 -0.12496831 -0.19091058 0.22007759
0.18507716 0.14591773 -0.12625664 -0.063738674 0.10271168 -0.11802034 0.09730081 -0.08455739
0.1912437 0.01212481 0.06689551 -0.17637481 -0.03837989 0.15602095 -0.11732668 0.10941636
0.17598535 -0.21181059 -0.18418644 -0.19472277 0.085874975 0.16779864 -0.0055760625 0.20217098
-0.04918207 -0.15733421 0.19050996 -0.18446568 -0.16409078 -0.0058737257 0.14496975 0.04013253
-0.08247356 -0.043282893 0.054874968 -0.16561943 -0.1112511 -0.118115164 -0.10046817 -0.0097525725
0.11932468 -0.1743726 -0.06716762 0.119377874 0.13986094 -0.030119881 -0.096597716 0.19917025
0.15717241 0.1556246 -0.13167371 -0.07988486 -0.15811938 -0.14216267 -0.094865315 -0.17026068
-0.18476465 0.1897278 -0.20977911 0.22234619 0.10081151 -0.07188861 0.100677185 -0.07113256
-0.040453352 0.07283487 0.00032133906 8.427999e-05 -0.15366329 -0.05817337 0.20739606 -0.09941732
0.15945262 -0.21861468 0.17791162 0.054438263 -0.16290297 0.19493966 0.05551325 -0.13685066
0.09241814 0.055199537 -0.10664245 -0.07022798 0.12851521 -0.015575661 -0.08110267 0.10304111
0.0013086211 0.21834704 0.11752347 0.015606977 -0.11560338 0.12206554 -0.09042986 0.049550705
0.02985318 -0.2025882 -0.005180804 0.059942625 0.13997303 -0.043730497 0.05345674 0.0136546325
-0.037169676 -0.15599938 0.07316086 0.18852973 -0.12702824 0.19223611 0.17543958 0.064838655
0.080321155 0.0654151 0.1673205 0.07216727 0.11139065 -0.032000385 0.008226238 -0.15984291
-0.1644847 0.13949215 -0.012999185 0.20917599 -0.19951524 0.03973649 -0.04402969 0.10180145
0.0370658 -0.002607686 -0.16416459 0.037429284 0.043676734 0.06477125 0.122429214 -0.01990304
0.107737325 0.15315007 0.030230023 0.12483934 -0.16476706 -0.12946789 0.013107291 -0.19437313
0.102059536 -0.21471593 0.2119724 -0.085970156 -0.11227562 0.006554598 0.12011349 -0.039524052
-0.19483271 -0.05310789 0.10107627 0.11621117 0.15713787 0.19921665 0.10218164 -0.075476244
-0.06166734 -0.14611948 0.08704788 -0.06438952 -0.059527695 -0.18524897 0.10626276 -0.05528688
0.019486565 0.13495483 -0.031368654 -0.060771633 -0.16965759 -0.17235565 -0.010717865 -0.0044712154
0.004528855 0.2144871 0.14429301 0.14427187 0.20784053 -0.12578103 -0.16848885 0.095265284
-0.17177416 -0.13107467 -0.032289054 -0.21876082 0.22419257 -0.20500638 0.011506052 -0.18547632
0.23146315 -0.024624404 0.054140147 0.100295186 0.020337427 0.10693889 0.10835943 -0.038943082
-0.091500044 -0.1079223 -0.07175766 0.20606668 0.08936143 -0.1884325 -0.020591307 0.054705106
-0.013513834 0.0632111 -0.18513781 0.17263536 0.19262639 0.11024533 -0.23099218 0.017305925
-0.1190627 -0.16743577 -0.16380149 0.042735357 -0.09068847 -0.0123505285 0.015537187 -0.038312014
-0.22561954 0.14061359 0.18408307 0.033586364 0.07362547 0.1411666 0.06438616 0.11604466
-0.19058456 0.107911214 -0.15643892 0.14494899 -0.030626029 0.036896106 0.07129086 -0.09063618

fc2.bias f4 [64]
00000000: bfe7 23bc 0987 cbbb 6923 f03b 5fb1 aa3c
00000010: bc70 b2ba 53a6 563b f237 cb3b 2b84 b43a
00000020: 5f44 3cbb 76c6 a63b 057a cb3a fa21 27bc
00000030: 58a5 8b3b 5dda 7c3c 52c3 9cb9 8d98 9ebc
00000040: 2efe 8fbb 69ba 85bc a28d b13c 7c8d 47bc
00000050: 3771 cebb 93d5 3ebb 23cc 9639 cb4b 9bbc
00000060: 8ef9 4e3c 0eb0 c6ba be4c f23b 2e1a 543b
00000070: 5231 e33b e420 8e3b 9161 9c38 dbc7 c93a
00000080: 1011 57bc 6652 ebbb 020e 2a3c 4d59 6a3c
00000090: 83b5 9f3a 0d8b 88bc a48e b53b 3fe1 bcbb
000000a0: 70c0 143c fbb2 a73c d601 ab3a 53d9 a23b
000000b0: 911e f7bb 92d0 123b cd74 d93c 77d6 3a3c
000000c0: 5742 a8bb a1ca 30bc f62e 34bb 7af1 e03a
000000d0: cf0d b0bb a4f4 c7bc b03f 31b7 eea8 95bb
000000e0: 72da 943b 2d38 ea3b 72ec 853c a97c ec3c
000000f0: 1884 2a3c 5ff6 82b9 6a58 303c ec3e aaba
-0.010003983 -0.006211166 0.00732844 0.02083653 -0.001361392 0.0032752946 0.0062017376 0.0013772299
-0.0028727276 0.0050895764 0.0015524036 -0.010200972 0.004261654 0.015432921 -0.00029900164 -0.019359851
-0.0043943143 -0.016324239 0.021673981 -0.012179729 -0.0063001174 -0.0029119 0.00028762323 -0.01895704
0.012632741 -0.001515867 0.0073944023 0.0032364237 0.0069333697 0.004337417 7.456833e-05 0.0015394645
-0.013126627 -0.0071814535 0.010379316 0.0143035175 0.0012184832 -0.016667867 0.0055406857 -0.005764156
0.009079084 0.020471087 0.0013046812 0.0049697547 -0.0075414856 0.002240215 0.026544953 0.0114036715
-0.0051348615 -0.010790498 -0.0027493811 0.0017161809 -0.00537274 -0.024408646 -1.05648505e-05 -0.004567257
0.0045426423 0.00714781 0.016348097 0.028868036 0.01040747 -0.00024979093 0.010763267 -0.0012988723

fc3.weight f4 [5, 64]
00000000: e588 2a3e 289a d3bc 8e73 883e d0ac 6ebd
00000010: 44cd 1e3c 9b5e 60be 11ff 143e 9c32 6fbe
00000020: 732c 52be c7a1 693e 2e88 63be 9065 5cbd
00000030: d855 cebd 46f7 88be ebc4 81be 3a8e 273e
00000040: d805 afbd 79e8 a8bc ed1e f9ba 91ba 9d3e
00000050: 9ed0 63be 9626 8cbe 62b1 143e 2a50 02be
00000060: e2f8 603c 7838 d73c eea7 2b3e 3ef0 923e
00000070: 6ea1 0ebe c927 833e fb65 713d 8019 f0bd
00000080: 7bec 1ebe 3d58 eb3d 050b cbbd 0b9d abbd
00000090: 3ac3 68be c991 79bc ed23 843d 2445 4cbe
000000a0: 9808 14be cab1 823d 7ebe d2bd 1567 4ebe
000000b0: 2382 4a3d c321 6c3e 641b d4bd 3555 663e
000000c0: 55d6 80be 685f 0c3d c59c 16be 88f7 753e
000000d0: e131 373e 96ec d43d a1f0 293e 66cf 2ebe
000000e0: 3904 8f3e 7a61 633d d589 d6bd 605e ea3d
000000f0: 31b8 58be e4ad 12be 1088 e43d 6c06 5fbe
00000100: 528f 28bd a5bf 3c3e 2d95 063e cd2c 0b3e
00000110: c51e 91be a0df fc3d 5202 09be 56e4 7c3b
00000120: a731 73be bc43 833e 63f5 8c3c 8f1b 18bb
00000130: 7dda 2ebe 853c 90be 98a6 1b3e cefe 363e
00000140: 3ced 4ebe 0523 3dbe cdc9 313e bb00 01be
00000150: b07e 63be 8747 f9bd 79ac 763e 552c cb3c
00000160: b494 843e 5463 dfbd 32b5 eabd 0739 f7bd
00000170: e1b8 1fbe 0b2e e9bc 2e9f 913e 810a 00be
00000180: bb50 bebb f4ac 20be 76dc 99bd 36f3 59be
00000190: 22b1 57be 0c9f 9abd 938a 5bbe 7f5c 213e
000001a0: 931b 74be 8bab 1cbc af2b 533b 96ee 21be
000001b0: b567 69be 832d 0bbe 67b3 c63d 2f5c 8e3e
000001c0: 7832 393e e9ed 913e 89bf 2d3e de5f a63d
000001d0: 307d 3d3d db71 0fbe d454 713e 88bf 5abe
000001e0: 9848 afbd d54a 34bd c13b 4abd 38a4 9e3d
000001f0: 7801 003e 831e ec3d d27f 1dbe d3ef 273e
00000200: 8712 613d 6652 51be f9ab f5bd 2f37 9ebe
00000210: 25f7 2cbe 716e 97bd f810 bebd c1cf 8cbe
00000220: 5aad 09be acb0 dcbd 5938 243e 4623 3d3e
00000230: 4c29 0cbe 5f98 823e ea20 16be 44f2 06be
00000240: 9d94 453e 829c 0d3e 0b98 2abe f515 ce3d
00000250: 673f 753e 0aee 823c 9c0c a63e ff97 6a3e
00000260: 9e91 593e e180 33be e410 56be 9848 913e
00000270: 473e 97be c5c2 313e fd5c 633e 4177 7abe
00000280: 6e57 913e 5620 c93e 6778 b5be c43c 8fbe
00000290: 7863 85bd 5da1 823e c2a3 4fbe edff 71bc
000002a0: 81be dbbe 4d59 6b3d 6727 9d3e 074f 20bc
000002b0: 3092 823e ce50 43be 315e c4be 33af 6abe
000002c0: a931 4abe 71a6 673e 9f1b 933e ef78 52be
000002d0: 7d55 de3d c958 713e 3910 5dbd 343a 293e
000002e0: bd6b efbc 43f8 81be 7a96 92bc b731 89bc
000002f0: b56b 9bbe 7d59 8b3e c0a0 82be 300a 333e
00000300: e9dc 203d 3424 b03c 22a5 2fbe 49ab 363e
00000310: 672f 813e 7b9e 573e b468 203e b21d 87be
00000320: 205e 513e 2706 153d c1b9 f9bb a4a9 27be
00000330: 4bd7 403e 9cde 003e a870 efbd 6441 8e3e
00000340: 792a 4c3e f362 913e 9035 273c 449d 653e
00000350: 890a 28be dde0 51bb cb77 14be 4e69 edbd
00000360: 052e 2fbd baf1 3c3e e705 62bd 7dfd 023c
00000370: 8313 e53d 35b3 57be a6e7 87be 3246 123c
00000380: e3cd 84bc 84fe 873e 9608 163e e7fd 83be
00000390: 59e7 153d 8e25 f0bd f763 0e3d 1740 40be
000003a0: a5c7 0dbe 9f11 90be b308 633c 2bb5 14bd
000003b0: 8cb6 94bd 04d4 13be abb2 2bbe 60f2 37be
000003c0: d271 773d 2d8a f6bd b30b 0cbe 62bb ad3c
000003d0: d9c9 523e f148 6bbd 3345 4cbe 0282 9ebd
000003e0: 40bb 4dbd e58e 67be ffda 2bbe 80a4 4dbe
000003f0: 205a cdbb 2948 9ebd 12f0 423e e348 d03c
0.16653784 -0.025830343 0.2665066 -0.058270276 0.009692494 -0.21911089 0.14550425 -0.2335915
-0.20524769 0.2281562 -0.22219917 -0.053807795 -0.10074967 -0.26751155 -0.2534555 0.16362849
-0.085460365 -0.020618664 -0.0019006409 0.308064 -0.2224755 -0.2737319 0.14520791 -0.12725893
0.013731213 0.026272044 0.16763279 0.28698915 -0.13928768 0.2561629 0.058935147 -0.11723614
-0.15519898 0.114914395 -0.09914211 -0.08379563 -0.22730723 -0.015232512 0.06452165 -0.1994825
-0.14456403 0.06381567 -0.1029024 -0.2015651 0.049440514 0.23059754 -0.10356787 0.22493441
-0.25163522 0.034270674 -0.1470824 0.24020207 0.17890121 0.10396688 0.16595699 -0.17071304
0.2793291 0.055512883 -0.10475508 0.11443782 -0.21164013 -0.14324147 0.11158764 -0.21779794
-0.041152306 0.18432482 0.13142844 0.13591309 -0.28343788 0.123473406 -0.13379791 0.0038588247
-0.2374941 0.25637615 0.017206853 -0.0023209786 -0.17075534 -0.28171173 0.15200269 0.17870638
-0.20207685 -0.1847039 0.17362137 -0.12597935 -0.22216296 -0.12171846 0.2408923 0.024801413
0.258947 -0.10907617 -0.114603415 -0.12071424 -0.1559787 -0.028464338 0.28441757 -0.12504007
-0.0058079637 -0.15690976 -0.07512753 -0.21284184 -0.21063665 -0.07549867 -0.2143958 0.1575794
-0.23838644 -0.009562383 0.0032222082 -0.1581367 -0.22793467 -0.1359158 0.09702187 0.27804706
0.18085659 0.28501824 0.16967596 0.08123754 0.046261966 -0.14008276 0.23567516 -0.21362126
-0.08558768 -0.044016678 -0.049373392 0.07746166 0.1250056 0.11529257 -0.15380791 0.1640008
0.05494931 -0.20441589 -0.11995692 -0.30901477 -0.16891153 -0.07394112 -0.0928058 -0.27502254
-0.13445035 -0.10775885 0.1603712 0.18470487 -0.13687629 0.25506875 -0.14660993 -0.13178355
0.19294973 0.13829234 -0.16659562 0.10062782 0.23949967 0.015982646 0.32431495 0.22909544
0.21246955 -0.17529632 -0.20904881 0.28375697 -0.295397 0.17359455 0.22203441 -0.24459554
0.28387016 0.39282483 -0.35443422 -0.27976048 -0.06513113 0.25513735 -0.20277312 -0.01477049
-0.4291878 0.05745821 0.30694124 -0.009784467 0.25502157 -0.19073793 -0.38353112 -0.22918396
-0.19745506 0.22622086 0.2873201 -0.20553945 0.10856149 0.23569025 -0.05397055 0.16526109
-0.029226178 -0.2538472 -0.017894018 -0.016747339 -0.3035561 0.27216712 -0.25513268 0.17484355
0.039273176 0.021501638 -0.17152837 0.17838778 0.25231478 0.21056549 0.15664941 -0.26389843
0.20446062 0.03638282 -0.0076210205 -0.16373307 0.18832128 0.12584919 -0.11691409 0.27784264
0.19938077 0.28395805 0.010205641 0.22423273 -0.16410269 -0.0032024898 -0.14498822 -0.11592351
-0.042768497 0.18451586 -0.05518141 0.007995007 0.11185362 -0.21064456 -0.2654392 0.008927869
-0.016211456 0.26561368 0.14651713 -0.2577965 0.036597583 -0.11725913 0.034763303 -0.18774448
-0.1384569 -0.28138444 0.0138570545 -0.036305588 -0.072613806 -0.14436346 -0.16767375 -0.17963552
0.060411282 -0.12038074 -0.13676338 0.021207515 0.20584811 -0.05744261 -0.19948272 -0.07739641
-0.050227404 -0.22613104 -0.16782759 -0.20082283 -0.0062668473 -0.07728607 0.19036892 0.02542538

fc3.bias f4 [5]
00000000: 0297 023b cf83 ebba 34f3 9dbc 093a c6bb
00000010: 40e5 78bc
0.0019926433 -0.0017968359 -0.019281007 -0.006049399 -0.015191376
