CS237B_Win25_HW3-main/policies/lanechange_left_ILDIST.pt (torch, 21790 bytes, 6 tensors)

fc1.weight f4 [64, 3]
-0.061662048 0.30338377 -0.19222264 0.26937565 0.20376213 -0.2157923 -0.090683185 0.38864636
-0.18553671 -0.2771565 0.10651186 0.09835071 -0.07358603 0.2503522 0.20840871 0.24703567
-0.04118776 0.19420773 0.02394722 -0.03445151 -0.3064732 0.12704566 -0.019251328 0.082130216
-0.01112371 -0.22950098 -0.07992341 0.15523398 -0.5190121 -0.5031872 0.29332808 0.0831504
0.27199414 0.0338874 -0.06806964 -0.4028926 -0.01566629 0.25369227 0.2064606 -0.057970215
0.18337163 0.4070922 0.030236121 0.28022915 -0.123043805 0.012584988 0.09207819 -0.18924507
0.25239477 -0.1116307 -0.090069175 -0.11291923 0.055894915 0.07784398 0.042037185 0.0061524194
-0.00084704167 0.21063451 -0.2610332 -0.06774825 -0.105790004 0.4365301 -0.1741368 -0.086509645
0.30603603 0.36149347 0.25060213 -0.048613712 0.10747645 0.01767785 0.2905363 -0.35606253
-0.028008007 -0.1602599 0.09610314 0.056385286 -0.27016684 -0.046694648 -0.09381641 -0.033925626
0.19390647 -0.08381075 0.271289 0.012546008 -0.06314941 0.2720095 0.08885583 -0.13858339
-0.1556315 -0.18427713 -0.079104386 0.2742346 -0.11859404 -0.2075373 0.13252978 -0.043025874
0.020273875 -0.21671332 -0.29361996 -0.027667424 -0.21914296 -0.21212089 -0.0914377 0.059471175
-0.105035126 -0.27248955 0.25724295 -0.20089014 -0.1443883 -0.13491035 0.14315875 0.021372126
-0.07861478 -0.14445078 0.2193946 0.2002917 -0.19468883 -0.11195971 0.39701796 0.39872697
-0.12795763 0.52282566 -0.18054038 0.059109546 -0.09493403 0.060552467 0.24344078 0.11216376
0.12592158 -0.058305036 -0.0605033 -0.08573662 -0.062172454 -0.113145955 -0.15231882 0.043818172
0.14097285 -0.08138815 -0.0801961 0.15281779 0.16955845 -0.064732656 0.06182426 0.1113408
0.057448793 -0.12887365 -0.39011237 0.035996836 -0.007011573 -0.043470416 0.13866958 -0.5271233
-0.33672714 -0.12941092 0.19286038 0.14128666 0.27923024 -0.15208682 0.22868635 0.07551663
0.09422238 -0.006562588 -0.27662313 0.11648495 0.0013187652 -0.11228535 0.30162472 0.3888802
-0.02717313 0.040819116 0.36923486 0.11037687 -0.253193 0.06945278 -0.26401585 0.11994646
-0.29887974 -0.09600792 0.16265145 0.19678795 0.054440588 -0.22103085 0.124776505 0.14048372
-0.15561266 -0.016907884 -0.10903213 0.037832666 0.11708058 -0.2519961 -0.084608704 0.21477078
00000000: 5891 7cbd 1e55 9b3e 03d6 44be 9beb 893e
00000010: 05a7 503e a8f8 5cbe 1bb8 b9bd a8fc c63e
00000020: 56fd 3dbe 75e7 8dbe e422 da3d 196c c93d
00000030: 46b4 96bd 2a2e 803e 1869 553e ebf6 7c3e
00000040: 7fb4 28bd 64de 463e f62c c43c 071d 0dbd
00000050: 0eea 9cbe 4218 023e f6b4 9dbc e333 a83d
00000060: 3940 36bc 4e02 6bbe e3ae a3bd a8f5 1e3e
00000070: fadd 04bf e0d0 00bf 192f 963e c24a aa3d
00000080: d142 8b3e 84cd 0a3d 1868 8bbd f047 cebe
00000090: 9756 80bc f4e3 813e 686a 533e 2d72 6dbd
000000a0: c6c5 3b3e 646e d03e beb1 f73c 327a 8f3e
000000b0: 64fe fbbd 4431 4e3c 7d93 bc3d 76c9 41be
000000c0: e339 813e a39e e4bd 3076 b8bd 3242 e7bd
000000d0: 11f2 643d aa6c 9f3d 2f2f 2c3d 3c9a c93b
000000e0: 010c 5eba 93b0 573e 25a6 85be 98bf 8abd
000000f0: 6ea8 d8bd e080 df3e eb50 32be f82b b1bd
00000100: c1b0 9c3e ac15 b93e ec4e 803e 2c1f 47bd
00000110: 9d1c dc3d 23d1 903c 2dc1 943e d44d b6be
00000120: 0c71 e5bc 2c1b 24be b9d1 c43d 42f4 663d
00000130: 4f53 8abe e342 3fbd d122 c0bd 99f5 0abd
00000140: 6b8f 463e f8a4 abbd 64e6 8a3e c68d 4d3c
00000150: 7a54 81bd d444 8b3e 0cfa b53d cee8 0dbe
00000160: dd5d 1fbe 25b3 3cbe 7b01 a2bd 7a68 8c3e
00000170: 6fe1 f2bd a884 54be e3b5 073e e63b 30bd
00000180: 6615 a63c 19ea 5dbe 5b55 96be cba6 e2bc
00000190: 0367 60be 3836 59be b043 bbbd 0c98 733d
000001a0: a81c d7bd c083 8bbe 59b5 833e 25b6 4dbe
000001b0: 87da 13be f025 0abe 3598 123e 9914 af3c
000001c0: c900 a1bd e8ea 13be faa8 603e 4419 4d3e
000001d0: 825c 47be 224b e5bd f045 cb3e f125 cc3e
000001e0: 5307 03be e7d7 053f 94df 38be da1c 723d
000001f0: c66c c2bd dd05 783d 8a48 793e 1db6 e53d
00000200: 96f1 003e 43d1 6ebd 4fd2 77bd ae96 afbd
00000210: 8ba8 7ebd 11b9 e7bd 77f9 1bbe af7a 333d
00000220: 305b 103e d5ae a6bd da3d a4bd 447c 1c3e
00000230: bba0 2d3e 8e92 84bd 6f3b 7d3d a506 e43d
00000240: 6d4f 6b3d 74f7 03be cfbc c7be 6b71 133d
00000250: 56c1 e5bb 090e 32bd 66ff 0d3e 8df1 06bf
00000260: 8067 acbe 4c84 04be 317d 453e 73ad 103e
00000270: 44f7 8e3e a6bc 1bbe c12c 6a3e 77a8 9a3d
00000280: aaf7 c03d fa0a d7bb 8ca1 8dbe a98f ee3d
00000290: 6bda ac3a ddf5 e5bd 8e6e 9a3e 4e1b c73e
000002a0: 2f9a debc f231 273d 5a0c bd3e 450d e23d
000002b0: 83a2 81be 423d 8e3d 162d 87be 7da6 f53d
000002c0: c406 99be cd9f c4bd 1a8e 263e c882 493e
000002d0: 18fd 5e3d e955 62be d38a ff3d f7da 0f3e
000002e0: ed58 1fbe 6782 8abc 3d4c dfbd 6df6 1a3d
000002f0: f1c7 ef3d a205 81be 5447 adbd dfec 5b3e

fc1.bias f4 [64]
-0.008491916 0.0 0.07255904 -0.00077167625 -0.08726512 0.0019394531 -0.010868822 0.058306605
0.16263762 -0.050016165 0.0 -0.034550358 0.0026230542 0.08802163 -0.11022289 -0.11488317
0.041145746 -0.061728153 -0.03654233 -0.013961724 0.10830143 0.035375398 0.0 -0.0875037
0.17719644 -0.029293684 0.026451996 0.17748538 0.076237194 0.040778723 0.1171363 -0.056566253
0.006290259 0.048521865 0.015260691 -0.029094957 0.026955537 -0.0043540997 0.045086894 -0.00782853
0.09116053 0.0047908397 0.0 -0.03261163 0.0436102 -0.081193164 0.17948087 -0.002771258
-0.09368861 -0.14874965 -0.04200567 -0.04734625 0.0 0.012451281 -0.001905939 0.2071812
0.009058273 -0.13514411 -0.0051332638 0.08618726 -0.042635802 0.062029507 0.10984105 0.0
00000000: ad21 0bbc 0000 0000 d599 943d 514a 4aba
00000010: 0eb8 b2bd 3f35 fe3a 2513 32bc e8d2 6e3d
00000020: 7a8a 263e c0dd 4cbd 0000 0000 ad84 0dbd
00000030: 8ce7 2b3b af44 b43d 8abc e1bd de47 ebbd
00000040: 7188 283d a9d6 7cbd 69ad 15bd b7bf 64bc
00000050: 24cd dd3d cbe5 103d 0000 0000 2435 b3bd
00000060: fc72 353e 4ff9 efbc dbb1 d83c babe 353e
00000070: 3f22 9c3d 9707 273d 28e5 ef3d 04b2 67bd
00000080: 841e ce3b ddbe 463d fa07 7a3c 8c58 eebc
00000090: dcd1 dc3c d6ac 8ebb 09ad 383d 3c43 00bc
000000a0: 5fb2 ba3d 7afc 9c3b 0000 0000 c693 05bd
000000b0: 9ca0 323d 9a48 a6bd d5c9 373e fe9d 35bb
000000c0: d0df bfbd d451 18be 230e 2cbd 24ee 41bd
000000d0: 0000 0000 7500 4c3c b3d0 f9ba 4f27 543e
000000e0: 2769 143c 3863 0abe f034 a8bb f282 b03d
000000f0: e1a2 2ebd a712 7e3d 58f4 e03d 0000 0000

fc2.weight f4 [64, 64]
0.08247471 -0.09638516 -0.14144635 -0.17968735 -0.006262051 -0.11981294 -0.20510611 -0.04602
0.09779785 0.10461683 -0.2217478 -0.1464397 0.010686765 -0.11254382 -0.20877047 -0.023083284
-0.13302068 -0.077365026 -0.20598717 -0.20763169 0.19236404 -0.19217348 0.047620937 -0.05930009
0.06791021 0.0044913865 0.08450076 -0.1918487 0.16184431 0.20749179 0.16375205 -0.15981713
-0.033078693 0.17110215 -0.15180011 0.06471927 0.005635345 0.015468059 -0.04014294 0.07278159
0.03424805 -0.20805538 0.16685474 -0.00460268 0.21377584 -0.054062612 -0.15033676 0.22148138
-0.13870648 0.016738014 -0.11842508 -0.07771703 0.17192738 -0.15229605 -0.20545426 0.05207248
-0.004425112 0.07206356 -0.013865547 -0.13893598 0.005834957 0.075499885 0.093243055 0.033900134
-0.07606546 -0.0042767944 0.010993748 0.026883135 0.14238729 -0.13497898 0.04334353 -0.13116062
-0.005206493 0.19255722 0.122770794 0.08349099 0.08000338 -0.17248595 -0.06666258 0.09389187
0.16143394 0.20086902 0.15870391 0.0006333744 -0.07680261 0.16955946 -0.1820644 -0.07952014
-0.14677121 0.03127173 0.06915917 0.015205208 0.07742032 -0.010322462 0.069945455 -0.18652451
-0.12125822 0.17321646 -0.08528455 0.15085213 0.13056861 0.06962506 -0.15948057 0.06207732
-0.10209557 0.08877229 0.014185743 -0.012154398 -0.020912495 0.18811974 0.0506806 -0.1842132
0.097332574 -0.10523112 0.13052762 -0.038945444 -0.1377989 0.13419679 -0.20104043 -0.042360682
0.20535922 0.15206006 0.14887595 0.048670366 0.14601563 0.21320419 -0.11177636 0.1438403
0.16557123 0.10560991 -0.1243922 -0.029325066 -0.19431663 0.20611575 -0.08634105 0.21012431
0.07673727 -0.07703067 0.054076135 0.09630539 0.022948012 -0.061688945 0.0258987 0.16790964
-0.14365216 0.074177295 0.04319403 -0.17666948 0.12069901 -0.22422718 -0.09490961 -0.1641234
-0.18457542 0.09100873 0.07429182 0.048285443 -0.09915957 0.17785302 0.006120683 -0.10062637
-0.18772776 -0.1658696 -0.102036975 0.11263648 0.1209695 0.23751137 0.059978377 -0.019694047
-0.10210368 -0.18646125 -0.19190843 -0.06605884 -0.12817284 -0.0707551 0.040634662 0.099293396
0.020697175 -0.06088617 0.25853544 -0.08609559 0.12914933 -0.098064825 0.13046035 -0.2105122
-0.13021812 0.05427134 -0.1372551 -0.06515824 0.09289956 0.21425827 -0.022729639 0.02535898
-0.0012366618 -0.07636914 0.13596997 -0.06835693 0.03154827 0.21358559 -0.048951965 0.10633877
-0.13066295 0.039707463 -0.07348566 0.16056646 -0.0021000754 0.033878703 -0.1297523 -0.08917602
-0.025538782 -0.1092014 0.0997971 0.20497373 0.11835672 0.19842224 0.09025133 0.19079106
-0.14822191 0.07725087 0.089998044 -0.16496122 0.17733309 0.122116685 -0.20583801 0.023243083
0.127818 -0.14436796 -0.00046127074 0.11506584 0.038507722 0.19592105 0.19638133 0.12190779
0.20024382 0.21668695 -0.14710602 -0.05224376 0.19813012 -0.06737711 0.13363187 0.048800357
0.072866514 0.042747617 0.18365198 -0.01652492 0.019834101 -0.20671527 0.09936871 0.054055244
-0.03818475 -0.028954545 0.16792819 0.07450562 0.19813032 0.118541494 0.045868296 -0.21110596
00000000: 80e8 a83d 9565 c5bd 50d7 10be f6ff 37be
00000010: e431 cdbb 7d60 f5bd 5607 52be 787f 3cbd
00000020: 3d4a c83d 5941 d63d db11 63be 4af4 15be
00000030: 8b17 2f3c 607d e6bd edc7 55be 2819 bdbc
00000040: 9336 08be 8e71 9ebd 4dee 52be 679d 54be
00000050: 14fb 443e 20c9 44be 2c0e 433d a7e4 72bd
00000060: 8214 8b3d 7b2c 933b bc0e ad3d fc73 44be
00000070: 84ba 253e ba78 543e 9eae 273e 1aa7 23be
00000080: 867d 07bd 6735 2f3e 7d71 1bbe 898b 843d
00000090: b3a8 b83b be6d 7d3c ec6c 24bd 840e 953d
000000a0: af47 0c3d 780c 55be f8db 2a3e 14d2 96bb
000000b0: 0ee8 5a3e c270 5dbd e1f1 19be 04cc 623e
000000c0: 1209 0ebe 291e 893c d988 f2bd 1b2a 9fbd
000000d0: bb0d 303e 7ff3 1bbe 9a62 52be f449 553d
000000e0: 8800 91bb 0f96 933d 522c 63bc 3c45 0ebe
000000f0: 2b33 bf3b af9f 9a3d 37f6 be3d deda 0a3d
00000100: 35c8 9bbd 5a24 8cbb 1f1f 343c 053a dc3c
00000110: f9cd 113e ee37 0abe fc88 313d f84e 06be
00000120: 3b9b aabb b82d 453e 416f fb3d 53fd aa3d
00000130: d0d8 a33d 28a0 30be 6486 88bd 614a c03d
00000140: f04e 253e 9cb0 4d3e 4783 223e 0909 263a
00000150: b04a 9dbd ffa0 2d3e 176f 3abe 75db a2bd
00000160: 314b 16be c916 003d 53a3 8d3d 441f 793c
00000170: 8b8e 9e3d 8b1f 29bc 903f 8f3d 4800 3fbe
00000180: 3b56 f8bd a85f 313e aba9 aebd fb78 1a3e
00000190: c7b3 053e 9597 8e3d e04e 23be ca44 7e3d
000001a0: 7b17 d1bd 3fce b53d 526b 683c 3d23 47bc
000001b0: ae50 abbc 76a2 403e 7696 4f3d 63a2 3cbe
000001c0: 4d56 c73d 6a83 d7bd 08a9 053e 4285 1fbd
000001d0: 281b 0dbe e26a 093e 8bdd 4dbe 6582 2dbd
000001e0: b049 523e a2b5 1b3e f072 183e 945a 473d
000001f0: 1f85 153e 3352 5a3e 01eb e4bd df4a 133e
00000200: 818b 293e 024a d83d 56c1 febd 1f3b f0bc
00000210: f0fa 46be 0210 533e 94d3 b0bd d42a 573e
00000220: 6e28 9d3d 42c2 9dbd f07e 5d3d c33b c53d
00000230: 78fd bb3c 8cad 7cbd 8329 d43c 81f0 2b3e
00000240: 8d19 13be 44ea 973d 39ec 303d d8e8 34be
00000250: 0b31 f73d cf9b 65be f85f c2bd f70f 28be
00000260: 5701 3dbe c962 ba3d 4f26 983d f5c6 453d
00000270: 2c14 cbbd 1a1f 363e 0390 c83b 3315 cebd
00000280: b53b 40be b8d9 29be c3f8 d0bd f4ad e63d
00000290: dbbe f73d 2e36 733e e3ab 753d 6955 a1bc
000002a0: bc1b d1bd b3ef 3ebe a583 44be db49 87bd
000002b0: be3f 03be 0de8 90bd 8870 263d 565a cb3d
000002c0: 1f8d a93c c763 79bd c25e 843e e252 b0bd
000002d0: b93f 043e 36d6 c8bd 6697 053e 8390 57be
000002e0: e657 05be a04b 5e3d 9a8c 0cbe af71 85bd
000002f0: 2042 be3d 8566 5b3e 8233 babc a3bd cf3c
00000300: 7c17 a2ba 6c67 9cbd b63b 0b3e b8fe 8bbd
00000310: c238 013d 2eb6 5a3e db81 48bd 24c8 d93d
00000320: 82cc 05be 4ba4 223d a67f 96bd 896b 243e
00000330: 6ba1 09bb 65c4 0a3d c9dd 04be eba1 b6bd
00000340: b536 d1bc fca4 dfbd 6c62 cc3d a2e4 513e
00000350: 0265 f23d 332f 4b3e b0d5 b83d bb5e 433e
00000360: 7cc7 17be b435 9e3d e550 b83d 98eb 28be
00000370: ce96 353e 5018 fa3d 33c7 52be 4768 be3c
00000380: b9e2 023e 32d5 13be b6d6 f1b9 a4a7 eb3d
00000390: 46ba 1d3d 879f 483e 3018 493e cbaa f93d
000003a0: b70c 4d3e 2fe3 5d3e f6a2 16be 8efd 55bd
000003b0: 9fe2 4a3e 03fd 89bd cbd6 083e e2e2 473d
000003c0: 0a3b 953d 2018 2f3d 440f 3c3e 455f 87bc
000003d0: 207b a23c 2bad 53be d281 cb3d 0869 5d3d
000003e0: 9d67 1cbd 1532 edbc 5ef5 2b3e 6796 983d
000003f0: ade2 4a3e e2c5 f23d 65e0 3b3d 292c 58be

fc2.bias f4 [64]
-0.009663705 0.0042252326 -0.00371711 0.003006228 0.0049076173 -0.00815262 0.00316324 -0.004733562
0.0032553764 0.007672747 -0.0077610454 -0.020494029 0.007265295 -0.0099096 0.0109276725 -0.00035142875
-0.0037063041 -0.009385075 -0.0019628045 -0.013943242 0.00035401137 0.012126686 0.01121229 0.014703157
-0.0022844474 -0.016567793 -0.006056727 0.00094659685 0.031252597 -0.008584937 0.01008238 0.0035906243
0.0007812825 0.014847366 -0.0085594235 -0.009369668 -0.004807011 -0.002573242 -0.00500818 -0.017818928
-0.023432894 -0.0055144024 -0.007743565 -0.008763977 0.002393321 0.012786456 -0.0073460974 -0.011577451
0.007860771 -0.010232487 -0.004162847 0.016398882 -0.006303518 -0.0030651453 -0.0031924497 0.0023118504
0.0060334434 -0.017865624 -0.014949343 -0.0015660317 -0.0018240672 0.016069727 -0.033696435 0.0014210524
00000000: 8454 1ebc d273 8a3b c29a 73bb 2304 453b
00000010: 14d0 a03b 9192 05bc 5c4e 4f3b ff1b 9bbb
00000020: 2758 553b ab6b fb3b 5e50 febb 18e3 a7bc
00000030: b611 ee3b e05b 22bc fb09 333c f83f b8b9
00000040: 77e5 72bb dcc3 19bc 65a2 00bb 3272 64bc
00000050: 9a9a b939 02af 463c c1b3 373c 83e5 703c
00000060: abb6 15bb 2eb9 87bc 8277 c6bb 0a25 783a
00000070: b902 003d d6a7 0cbc 9130 253c ae50 6b3b
00000080: fbce 4c3a 5e42 733c d33c 0cbc 3c83 19bc
00000090: 2284 9dbb d6a3 28bb a91b a4bb 00f9 91bc
000000a0: 57f6 bfbc 29b2 b4bb bbbd fdbb c996 0fbc
000000b0: 43d9 1c3b 497e 513c 88b7 f0bb 59af 3dbc
000000c0: 77ca 003c 29a6 27bc 7e68 88bb f356 863c
000000d0: be8d cebb 9be0 48bb 6b38 51bb 6a82 173b
000000e0: 31b4 c53b ee5a 92bc 17ee 74bc 4e43 cdba
000000f0: 8a15 efba a9a4 833c 4605 0abd 9b42 ba3a

fc3.weight f4 [5, 64]
0.013968044 -0.20797215 0.20856556 -0.03647712 -0.15419477 -0.110822275 -0.009474876 -0.24261846
0.2012075 -0.11461611 -0.23611555 0.17556591 -0.1990676 0.24080697 -0.21926518 0.06504035
-0.071138605 -0.1759027 -0.2791146 -0.119885884 -0.20054044 0.18062928 -0.24838108 -0.0057307538
0.35612968 0.2803486 0.025773067 0.04275138 -0.11644165 0.27380875 0.07235821 0.12099772
0.08333509 0.21566002 0.12704873 -0.08555539 -0.26757357 0.3107866 0.27101547 0.027676605
0.27246848 -0.03057023 -0.27176216 0.1305765 0.40045676 -0.09577558 0.255481 -0.04891864
0.31744698 -0.008208209 -0.084101416 0.038150456 -0.26135322 -0.25945908 -0.17309602 -0.148853
0.19168505 -0.14572367 0.23302609 0.1723421 -0.14379975 -0.27102727 0.13114621 -0.07783504
-0.26719373 0.1385373 -0.17993571 0.18548362 -0.03210144 0.03566707 0.20087458 -0.17808178
-0.014816457 0.18889123 0.02038115 0.13452743 0.23798598 0.044719327 -0.22769608 0.25249022
-0.14177674 0.23669656 0.1299865 0.24699211 -0.012197843 0.24578115 0.0806072 -0.26869375
0.18556722 0.25036436 -0.17313698 0.043730456 0.15365352 -0.12845273 0.033783756 -0.066432096
0.29818794 -0.19389431 -0.06389335 0.18321039 -0.056018256 0.08259794 0.14276026 -0.29692957
-0.13634524 0.08099494 -0.043224383 0.27513158 -0.08973963 0.10756298 0.02754681 -0.2734195
-0.1533826 -0.20598783 0.10134841 -0.3354161 -0.0004602341 0.26237726 -0.19544251 -0.00443329
0.20948094 -0.21979375 0.073773615 -0.072078414 0.11097411 0.13124308 0.12782508 -0.17420901
0.13438669 -0.15271951 -0.22212608 -0.42505714 0.0759203 -0.13211676 -0.105724126 0.45087364
0.20746326 0.26454514 0.16519031 0.071910985 -0.21807192 0.15036985 -0.23451602 0.22473046
-0.0033841017 0.21107325 -0.18114445 0.14535075 -0.24470417 -0.14955638 -0.2367947 -0.22917514
-0.24763463 -0.023681786 -0.20681728 0.11937748 -0.22027965 -0.12829083 -0.06511551 0.12551959
-0.28566203 -0.3454639 0.15184613 0.18471916 -0.24576978 -0.32231015 -0.34304637 0.13036947
-0.036040805 -0.13607834 0.042921577 -0.0932599 -0.13031556 0.17473209 -0.21998379 0.04339839
-0.5144942 -0.12259875 0.34860986 -0.07120326 0.21028729 0.0072615403 0.04153434 0.2797276
-0.10463933 0.046929654 0.25130954 0.09753354 -0.13817905 -0.24018905 0.19035769 -0.28690904
0.181129 0.24203798 -0.15806702 -0.21071975 0.08389713 -0.28538495 -0.038287304 -0.25296605
0.06409756 0.16647561 0.13169742 0.10480754 -0.19896092 0.06668128 0.013416793 0.14901352
-0.1674877 0.15152092 -0.020023778 0.2819679 -0.16143766 -0.18914746 0.1365257 0.2303505
0.1163689 0.0038554475 0.038066667 -0.23405567 -0.21972178 -0.21950978 -0.11640748 -0.26277006
0.28391087 0.08706845 0.21197085 0.21745218 -0.18767716 -0.138346 -0.090109535 0.26093268
-0.25454047 0.071592756 -0.27043217 -0.094732106 0.12648009 -0.054286413 0.15634398 0.21915352
0.24458933 0.03535383 -0.06640134 -0.10923323 0.22980013 0.07069035 0.05122526 -0.054181788
0.15199979 -0.084533684 -0.03498352 -0.15418 -0.27532083 0.24131387 0.008922764 -0.06644884
00000000: 39da 643c a7f6 54be 3692 553e 0869 15bd
00000010: 3ce5 1dbe caf6 e2bd 833c 1bbc f970 78be
00000020: 5709 4e3e dabb eabd 46c8 71be 8dc7 333e
00000030: 60d8 4bbe 1a96 763e 0d87 60be e033 853d
00000040: 1eb1 91bd d61f 34be 1ce8 8ebe bb86 f5bd
00000050: 795a 4dbe e2f6 383e 9c57 7ebe 0cc9 bbbb
00000060: a156 b63e da89 8f3e 0a22 d33c 121c 2f3d
00000070: f678 eebd a930 8c3e 8b30 943d a7cd f73d
00000080: 96ab aa3d fbd5 5c3e 1019 023e aa37 afbd
00000090: 67ff 88be 6c1f 9f3e 8ac2 8a3e 0cba e23c
000000a0: fd80 8b3e 6b6e fabc 6924 8bbe d9b5 053e
000000b0: ab08 cd3e fd25 c4bd 68ce 823e e95e 48bd
000000c0: 6988 a23e b97b 06bc 5d3d acbd a743 1c3d
000000d0: 17d0 85be d2d7 84be 1540 31be ec6c 18be
000000e0: 1649 443e 9638 15be 649e 6e3e 737a 303e
000000f0: 3e40 13be 16c4 8abe 314b 063e fa67 9fbd
00000100: 9ecd 88be b9dc 0d3e 1141 38be 6bef 3d3e
00000110: cd7c 03bd a217 123d 11b2 4d3e 125b 36be
00000120: bac0 72bc b46c 413e 5ff6 a63c 8fc1 093e
00000130: 99b2 733e 9d2b 373d 2929 69be 6646 813e
00000140: ec2d 11be 9560 723e 2e1b 053e 80eb 7c3e
00000150: 76d9 47bc 0eae 7b3e 6315 a53d 3a92 89be
00000160: 5505 3e3e c22f 803e d24a 31be b51e 333d
00000170: 5957 1d3e 1d89 03be d660 0a3d 8d0d 88bd
00000180: 17ac 983e 3b8c 46be 84da 82bd 819b 3b3e
00000190: 6673 65bd 1c29 a93d bf2f 123e 2707 98be
000001a0: 169e 0bbe ade0 a53d 0d0c 31bd 0cde 8c3e
000001b0: 69c9 b7bd fb49 dc3d d9a9 e13c a4fd 8bbe
000001c0: 5410 1dbe 79ee 52be c18f cf3d a9bb abbe
000001d0: 934b f1b9 5056 863e 1522 48be 2245 91bb
000001e0: 2c82 563e 9d11 61be 9f16 973d d99d 93bd
000001f0: 6546 e33d 9664 063e 94e4 023e d963 32be
00000200: aa9c 093e 8162 1cbe 0575 63be 17a1 d9be
00000210: 1a7c 9b3d 9e49 07be e485 d8bd e9d8 e63e
00000220: 4071 543e 7672 873e a627 293e 1146 933d
00000230: 3f4e 5fbe 8efa 193e f824 70be be1f 663e
00000240: cec7 5dbb 9623 583e ee7d 39be d4d6 143e
00000250: bb93 7abe 4f25 19be 4f7a 72be e3ac 6abe
00000260: ef93 7dbe 4e00 c2bc e9c7 53be 2e7c f43d
00000270: fd90 61be ac5e 03be 485b 85bd 3588 003e
00000280: 4b42 92be a5e0 b0be 8d7d 1b3e 0527 3d3e
00000290: 13ab 7bbe d605 a5be c6a3 afbe 937f 053e
000002a0: 869f 13bd 1f58 0bbe 89ce 2f3d 0cff bebd
000002b0: 7171 05be f8ec 323e 6e43 61be 83c2 313d
000002c0: e4b5 03bf 0e15 fbbd fe7c b23e 04d3 91bd
000002d0: 8d55 573e 37f2 ed3b e91f 2a3d 7538 8f3e
000002e0: 254d d6bd 4f39 403d a5ab 803e aabf c73d
000002f0: cf7e 0dbe 1ef4 75be 20ed 423e bee5 92be
00000300: e179 393e ced8 773e 52dc 21be ebc6 57be
00000310: 42d2 ab3d fa1d 92be 26d3 1cbd c484 81be
00000320: 9545 833d 9578 2a3e b0db 063e 56a5 d63d
00000330: 69bc 4bbe 3290 883d 1cd2 5b3c 0097 183e
00000340: e581 2bbe 4d28 1b3e e808 a4bc 195e 903e
00000350: ea4f 25be dfaf 41be 65cd 0b3e 00e1 6b3e
00000360: d152 ee3d adab 7c3b cbeb 1b3d 4aac 6fbe
00000370: bffe 60be 2cc7 60be 0b67 eebd cc89 86be
00000380: c45c 913e f250 b23d e30e 593e c9ab 5e3e
00000390: 712e 40be 93aa 0dbe 598b b8bd f898 853e
000003a0: 2153 82be 399f 923d 1676 8abe e802 c2bd
000003b0: ff83 013e 6e5b 5ebd a318 203e c869 603e
000003c0: a075 7a3e 2dcf 103d 6dfd 87bd acb5 dfbd
000003d0: ba50 6b3e 1ac6 903d 94d1 513d b9ed 5dbd
000003e0: d5a5 1b3e ff1f adbd e14a 0fbd 5de1 1dbe
000003f0: daf6 8cbe fc1a 773e c930 123c 5416 88bd

fc3.bias f4 [5]
0.0019433898 0.00085994316 -0.024409961 0.0041357493 -0.0055798786
00000000: 57b9 fe3a cf6d 613a 66f7 c7bc 2e85 873b
00000010: 6ad7 b6bb
